Pretrained_Model/models/Umbumping_cars_V5.pth (torch, 39352 bytes, 8 tensors)

fc1.weight f4 [64, 8]
000000 a2 46 37 3c 85 4a 04 bc f9 82 79 be b7 92 13 be
       0.011186274 -0.0080744075 -0.24366368 -0.14411436
000010 fd 9e 08 3e 6b 43 25 3d d1 a3 9c be 26 a1 8d 3e
       0.13341899 0.040347498 -0.30593732 0.2766201
000020 ba 14 81 3e 9b df 33 bd a1 b1 88 be 26 6c 9e be
       0.25211126 -0.04391442 -0.2669802 -0.30941886
000030 6e 1a a4 be fe 7e ad be 87 d3 d1 3d 3a 7b ab 3e
       -0.32051414 -0.3388595 0.10245424 0.33492452
000040 bc 75 5a 3e b8 c0 fe 3c f9 74 9e bd a1 9c 31 be
       0.21333975 0.031097755 -0.077371545 -0.17344905
000050 e4 de 8c 3d 7c 53 37 3e b6 07 8b be 1c 36 23 be
       0.068784505 0.1790294 -0.2715432 -0.1593861
000060 95 f5 28 bc cb 92 8c be 50 d0 75 bd 4e 65 55 3e
       -0.010312458 -0.27455744 -0.060013115 0.20839426
000070 b4 e9 2e bc 1e 58 80 3e 66 3a 97 be 2b 62 7b be
       -0.010675836 0.25067228 -0.29536742 -0.24549167
000080 63 d1 60 be 40 1b 60 be 4c 3c 92 3d eb 81 6e 3d
       -0.21954875 -0.21885395 0.07140407 0.05822937
000090 d0 d0 a3 3d 9a 2a 89 be 80 63 0b bd 0b 3d e6 3d
       0.07998812 -0.26790315 -0.034030437 0.11242112
0000a0 98 6e 4a be d4 43 9e be bb 1a 10 b9 cb 04 05 3e
       -0.1976875 -0.30911124 -0.00013742868 0.1299011
0000b0 66 ad 81 3e ac ce 25 be f8 e2 e2 bd 27 d3 18 be
       0.25327605 -0.1619212 -0.11078447 -0.14924298
0000c0 ff 79 a0 3e 32 f4 8f 3e b2 1f 83 3e a0 6c 5c bd
       0.31343076 0.28115994 0.2561012 -0.05381453
0000d0 c1 18 b6 3c c2 85 f5 bd b6 29 e2 3d 01 05 a0 be
       0.0222286 -0.11988403 0.11043112 -0.31253818
0000e0 ab 37 87 be dc c4 dc bd 4e fe ec 3d 8d 92 16 3e
       -0.2640966 -0.107797354 0.11571942 0.14704342
0000f0 9f 00 89 3e 9d df 04 be 42 c2 ab 3d 3d 96 91 be
       0.26758286 -0.12975927 0.08386661 -0.28434935
000100 21 0e 0c bd b4 bd d1 3d 52 02 5e be a2 53 39 3d
       -0.034193162 0.10241261 -0.21680573 0.045245774
000110 e9 c1 0c 3e 68 4f 1b 3e f8 a2 91 3e 19 5f 88 be
       0.13745846 0.1516701 0.28444648 -0.26635054
000120 9b 34 ac 3e 9e 7e 21 3e b7 2c 85 be b1 a3 97 3e
       0.33633885 0.15770957 -0.26010677 0.29617074
000130 e5 7d 3e 3e 5f 72 b2 3e 7f 8f 1a be 01 3f 34 3d
       0.18602712 0.34852883 -0.15093802 0.044005398
000140 89 92 b5 3a eb 9b 8c 3e 1b 7f f1 3d 68 58 3c 3e
       0.0013852875 0.27462706 0.117918216 0.183931
000150 7a b9 99 3e 44 a3 b4 be 92 fd cb 3d 8b d5 9f 3d
       0.3002432 -0.35280812 0.09960474 0.07804402
000160 f9 0f 0c 3d fc 5a 0d bd 7d d6 1e 3e da 64 28 be
       0.03419492 -0.034510598 0.15511508 -0.16444722
000170 a1 41 48 be 43 f5 87 3c ae 68 42 3d 90 bb 76 bd
       -0.19556285 0.016596442 0.04746311 -0.060237467
000180 53 64 66 3e 39 09 a8 be 8b 51 24 3e 0c 46 be 3e
       0.22499208 -0.32819536 0.16046731 0.37162817
000190 c5 c7 e9 bd d9 67 80 3e 2e 49 0b 3e 58 22 ce 3d
       -0.11415056 0.2507923 0.13602135 0.10065144
0001a0 71 b0 85 bd aa 74 65 be 66 9c 47 3e 41 76 3c be
       -0.06527794 -0.22407785 0.19493255 -0.18404485
0001b0 cb fd a2 3e 21 b1 ab be 37 77 ff 3d 9e 51 74 be
       0.31834254 -0.33533576 0.1247391 -0.2385926
0001c0 9a cc 96 3e 30 08 17 3e b9 b7 19 be 79 6a 07 be
       0.29452974 0.14749217 -0.15011491 -0.1322421
0001d0 b3 38 16 be 44 f2 70 3e b6 63 4b 3e 84 80 16 3d
       -0.14670067 0.23529917 0.19862255 0.036743656
0001e0 63 ac a0 3e a0 ae b1 be 32 d5 8f 3d cf 4b 5c 3e
       0.3138152 -0.3470354 0.07023086 0.21513294
0001f0 4b d6 86 3e f3 ab 9f 3e ab d3 83 3e 2e 16 92 3c
       0.26335368 0.31185874 0.25747427 0.017832842
000200 d4 e8 71 bd 0b 4b 9b be cc 4a 64 be 8e ec b6 3d
       -0.059059933 -0.3033069 -0.22294158 0.08931838
000210 0f f6 06 be 49 06 8e be 72 1d 80 3b 76 5c 75 3d
       -0.13179801 -0.2773917 0.00390976 0.05990263
000220 c9 5b 81 be 75 54 65 3e 8c 85 64 bd 49 73 a9 3e
       -0.2526534 0.22395499 -0.055791423 0.33095768
000230 ef 35 10 bc e0 9d 52 3e 02 79 1b 3e 75 97 b2 3d
       -0.008801921 0.20568037 0.1518288 0.087202944
000240 73 8d 7f be 5f 99 aa 3e 0b c8 ba bd 6c 64 52 be
       -0.24956302 0.33320138 -0.091201864 -0.2054612
000250 48 b1 04 3d d1 8b ae 3d 93 8d 5a bc 0e 19 2a bc
       0.03239563 0.085227616 -0.013339418 -0.01038195
000260 22 2e 2f be e5 42 b6 be 1f 94 99 3e 60 93 11 3d
       -0.17107442 -0.3559791 0.2999582 0.03554094
000270 9c 69 62 3e 07 46 ab 3d 94 44 a5 3e dd 46 01 3e
       0.221106 0.08362966 0.32278883 0.12624688
000280 64 5d e5 3d aa 1f 86 3e a2 3d 48 3e 72 26 66 bd
       0.111994535 0.26196033 0.19554761 -0.056189008
000290 6a 47 2c be fd 35 93 3e 1e 82 c5 bd 0c 88 0c 3e
       -0.16824117 0.28752127 -0.096439585 0.13723773
0002a0 a9 27 9c be 28 57 60 3e 2a 70 c5 3d 4e 82 fa 3d
       -0.30499008 0.21908247 0.09640534 0.12231885
0002b0 fa 66 58 3e 03 31 2a 3d 95 6b f2 3d 68 87 ac be
       0.21133032 0.041550647 0.11836926 -0.33697057
0002c0 e5 b5 1e bc 61 74 95 be 6c ea 9a be 12 50 2a be
       -0.009686922 -0.29190353 -0.30256975 -0.16632107
0002d0 d1 3e 33 3d 96 64 27 bd ff a7 4f be 71 96 20 3e
       0.04376108 -0.04086741 -0.20278929 0.15682389
0002e0 0a 1f 5d be be 83 7d be dc e0 aa bd 05 fc 1a 3d
       -0.21593872 -0.24757287 -0.0834367 0.037838
0002f0 c6 9a a5 3e 62 04 c2 3e aa 45 a7 3e 0a 4a 8f 3e
       0.32344645 0.3789397 0.32670337 0.27986175
000300 6c 53 6e 3e 23 d3 b8 3e 59 ca 8a be f8 59 f1 bc
       0.2327401 0.36098585 -0.27107504 -0.029461846
000310 58 a3 a3 be fe c5 71 be c5 71 64 3e 90 aa 8c be
       -0.3196056 -0.23610684 0.22309025 -0.2747388
000320 22 26 b8 be 39 7c 5f be 2f b0 a4 bd 35 ee ae be
       -0.35966593 -0.21824731 -0.08041417 -0.34166113
000330 44 a1 29 3e e3 8a ad be 70 dc a3 bd 99 c1 26 be
       0.16565424 -0.33895025 -0.080010295 -0.16284789
000340 ec bf 97 3e a7 f8 91 3e 7c 4d 63 3e 8d 40 45 bd
       0.29638612 0.2851002 0.22197527 -0.048157264
000350 a0 78 20 bd 9f a1 2e 3e dc c5 35 3e 40 cc 4b 3e
       -0.039177537 0.17053841 0.17751259 0.19902134
000360 6e 28 a7 bd 91 3f a1 be 9b 45 a0 3e 49 4c 14 bd
       -0.08162008 -0.3149381 0.31303105 -0.036205564
000370 8c 4e a2 be 0e ac a8 be eb 2d 98 bd cc ea ec bd
       -0.31700552 -0.32943767 -0.07430633 -0.115682214
000380 90 52 50 be 2f 8e bb be 01 2b 86 3c 3b 66 15 3e
       -0.20343995 -0.36631915 0.016377928 0.14589779
000390 2e bc d9 bd 9f de ed 3d d0 14 82 be a6 36 91 be
       -0.106315956 0.11614727 -0.25406504 -0.28362006
0003a0 09 53 9e be 70 ee ac 3e 7d 91 bd 3d 0e 24 f8 3d
       -0.30922726 0.33775663 0.09256265 0.12116252
0003b0 ce 52 b7 be 5e bb 98 be 15 dc 30 be 14 cd eb bd
       -0.35805362 -0.2983045 -0.17271455 -0.11513725
0003c0 79 f5 67 3e 37 44 5d 3e 64 29 01 3e 4b 79 84 3d
       0.22652234 0.21608053 0.12613446 0.06468447
0003d0 b8 d9 8e 3d c7 1b c3 be df d8 2c 3e a4 b2 74 be
       0.0697512 -0.3810713 0.16879605 -0.23896271
0003e0 73 c0 ec bd 7e f0 41 be 73 e5 ee 3d 0e 7c 99 be
       -0.11560144 -0.18939397 0.11664858 -0.2997746
0003f0 82 87 d9 3d 78 b4 0f be 10 20 58 3b 0a 6a bf 3d
       0.10621549 -0.14033687 0.0032978095 0.09346397

fc1.bias f4 [64]
000000 30 e2 68 be 3e 98 00 be c2 63 24 3e 24 59 ae 3d
       -0.22742534 -0.12558076 0.1605368 0.08513096
000010 ae b8 9f be 4f 8d 06 3e c6 74 9c be 31 f9 e7 3d
       -0.31195587 0.13139842 -0.3055784 0.11326826
000020 e5 1f 34 3e b4 05 90 3d f1 df 9d 3e a2 97 91 3e
       0.17590292 0.07032338 0.30834916 0.28436
000030 d2 e8 12 be d3 35 91 be 90 62 9c be 44 8e 92 3d
       -0.14346626 -0.28361377 -0.30543947 0.07156041
000040 49 11 ff bd 3a 32 57 3e 41 70 34 3d 0f 33 48 3e
       -0.12454469 0.21015254 0.044052366 0.19550727
000050 0d e3 a9 be b2 30 48 3e f0 10 82 3e ee cb da 3d
       -0.33181038 0.19549826 0.25403547 0.10683428
000060 e0 67 0d 3e 0e 8c 3a 3e 6a e7 d6 bb 27 e3 3b 3e
       0.13809156 0.18217489 -0.0065583484 0.1834837
000070 1e cd 68 3d e8 b5 44 3e 6b 42 61 be f4 a9 ad 3e
       0.05683624 0.19210017 -0.21997993 0.33918726
000080 4c 6e 4a be d6 e7 e6 bb 8f 52 68 be 64 de 4c be
       -0.19768637 -0.00704668 -0.22687744 -0.2000671
000090 0d 00 d5 bc 1d 4e 50 3e ba 8a f4 bd 4c 7b 0e bd
       -0.026001 0.20342298 -0.119405225 -0.034785554
0000a0 a7 f8 25 be a2 01 14 3e dd bd eb 3d 65 fd 46 3e
       -0.16208135 0.14453748 0.11510823 0.194326
0000b0 53 97 2e 3d b5 d4 c8 bd 18 bc 56 bd e0 62 a8 be
       0.042624783 -0.09806196 -0.052425474 -0.32887936
0000c0 6e 24 8d bc 42 84 07 3e c2 03 75 be d4 50 3a 3e
       -0.017229285 0.13234046 -0.23927215 0.18194896
0000d0 08 cd 27 3e a8 6d 02 be a8 52 8e be 9c 97 4f be
       0.16386807 -0.12737143 -0.27797437 -0.20272678
0000e0 89 b6 89 3e 96 b2 ae 3e 42 81 2a 3e 5f 8c 66 be
       0.26897076 0.34120625 0.1665087 -0.22514485
0000f0 77 b4 38 3d 5a 6e 62 be f3 f2 b0 3e e2 5f 78 be
       0.04509398 -0.22112408 0.34560356 -0.24255326

fc2.weight f4 [64, 64]
000000 4c 61 be bd 46 52 f7 3d 39 b6 32 bc b7 c0 3a bd
       -0.09295902 0.12076239 -0.010907703 -0.045593943
000010 74 2e f0 bd 08 03 08 bd 8a 68 9b 3c ef 37 ac 3d
       -0.1172761 -0.033206016 0.018970747 0.08409106
000020 f4 32 1e bd 94 b4 8f bd 9f b5 c0 3c 33 e0 b8 bd
       -0.03862281 -0.070168644 0.023524104 -0.090271376
000030 f3 2c df 3a c2 5d b3 bd bb 87 43 3d 0b 06 98 bd
       0.0017026946 -0.08758117 0.047736865 -0.074230276
000040 29 89 1d 3d 41 c8 00 3e 55 b6 ca bd cd b6 ce bc
       0.038460884 0.12576391 -0.09898058 -0.02523365
000050 87 9d f0 3d 2d 07 97 bd c2 a2 c9 bd 3c 64 9c 3d
       0.11748796 -0.073744155 -0.09845497 0.07636306
000060 f8 d7 54 bd 6a 60 9b bd 33 5a f2 3c 06 9e d9 bd
       -0.051963776 -0.07586749 0.029584026 -0.10625844
000070 da a8 d3 3d 82 a6 df 3c df 51 cd bb 68 e6 08 3e
       0.1033494 0.027301077 -0.0062658633 0.13369143
000080 e5 05 85 3b 55 4a 6b 3d fb 72 e2 bc 6e c1 46 bc
       0.0040595406 0.057443935 -0.027642718 -0.012131078
000090 f6 a5 cb bc 1c 32 1d 3d f1 4c 2f bc 33 1d 50 bd
       -0.02485941 0.038377866 -0.010699497 -0.050809097
0000a0 90 97 b2 bd a6 ae 12 bd 95 60 1c 3d ef 5e 2f bd
       -0.087203145 -0.03581109 0.038178045 -0.042815145
0000b0 78 19 55 bd cd 48 74 bd 1a 71 0b 3d c6 9b 55 bc
       -0.052026242 -0.05963974 0.03404341 -0.013037628
0000c0 a7 fa 06 3e 43 7d d7 bd 5a ca 80 3d 86 1a af bb
       0.13181554 -0.10521939 0.062885955 -0.005343738
0000d0 d9 ec d5 bd 54 10 d3 bd 0c a8 d4 3d f3 20 16 bb
       -0.10445566 -0.10305849 0.10383615 -0.0022907823
0000e0 2b fb cc 3d 30 9b ea 3d 61 4e 1a bd 72 35 ec 3c
       0.10008844 0.11455381 -0.037672404 0.028834078
0000f0 3d 17 f8 3c d6 8a 0b bd 91 43 34 3d fa f7 32 3d
       0.030284518 -0.03406795 0.04400975 0.04369352
000100 69 d7 fa 3d e8 c1 d6 bc ea 60 4f bd 53 ba cf bc
       0.122481175 -0.026215509 -0.050629534 -0.025357401
000110 77 e1 b6 bd 39 3d d6 3d 4a ef 74 3d 02 a7 d1 bc
       -0.08929723 0.10460896 0.059798516 -0.02559233
000120 8a fc 8b bd 53 79 a2 bd b4 f5 f0 3d 34 fe d3 3d
       -0.068352774 -0.07933297 0.11765614 0.1035122
000130 a4 ce c1 3d eb cc d4 3d df 1b fa 3b 61 d8 ff bd
       0.09463242 0.103906475 0.007632717 -0.12492443
000140 81 2e 05 3c 1c 87 a6 bc 47 b9 1e 3d 46 61 bb 3c
       0.008128763 -0.020328097 0.038750913 0.022873532
000150 2f de f3 bd e4 3e 48 bd ad 65 93 3d 08 1c 5e 3d
       -0.119076125 -0.048888102 0.071971275 0.05422595
000160 42 05 2b bd 89 f9 b0 3d 43 50 aa 3d ec 15 97 3d
       -0.04175306 0.08641345 0.0831609 0.07377228
000170 a8 9c 55 bd c5 a0 64 3d bd 31 88 bd 55 32 a2 3d
       -0.052151352 0.055817384 -0.06650112 0.07919756
000180 0c 52 e1 3d cf 7a 7b bc e8 7f 89 bd af 1f c7 3a
       0.11001977 -0.015349104 -0.06713849 0.0015191938
000190 76 b6 68 bd 11 1d 94 bd 55 ed 78 3d 92 47 0c bb
       -0.056814633 -0.072321065 0.060773212 -0.0021404964
0001a0 66 47 cd 3d 6c c4 a7 3d be fa 5c bc 88 26 fb 3c
       0.10023384 0.081917614 -0.013487516 0.030658022
0001b0 5b 2f ca 3a 13 6b 18 bc 54 41 fa 3b e1 d8 69 3d
       0.001542549 -0.009302872 0.0076371823 0.057091597
0001c0 a7 db ba 3d 7c ef 80 3d 27 0b 8d bb 05 35 af bd
       0.091239266 0.06295678 -0.004304308 -0.085550345
0001d0 d4 f3 55 3d 42 9b eb bd 84 1f e5 bd a7 85 4a 3d
       0.052234486 -0.115042225 -0.11187652 0.049443867
0001e0 8a 59 1e bd 89 e6 e9 3d 2f 69 14 bd 2e 1a 04 bd
       -0.03865961 0.11420924 -0.036233123 -0.03225153
0001f0 17 b7 62 3c bd 36 cd bd 12 ce 90 3d 18 e6 83 3d
       0.013837597 -0.10020206 0.07070555 0.06440371
000200 17 39 18 3d 2a 89 a3 bc 9b 5f 06 be fb 2e 34 3d
       0.03716382 -0.019962866 -0.13122408 0.043990117
000210 bc c6 2c bb 05 89 bd 3d 29 79 50 bd 39 09 9f bd
       -0.0026363572 0.0925465 -0.050896797 -0.07765431
000220 7e c2 b4 3d 24 2c a9 3c b6 92 2b 3d aa 8b 82 bd
       0.08826159 0.02065093 0.04188796 -0.06374295
000230 86 6d 03 bc 0d 4b ab bd 17 2d 87 bd d7 48 f5 bd
       -0.008021718 -0.08363924 -0.06600397 -0.11976784
000240 62 3b 6f bd 42 2e d9 3d a8 e1 bc bd 0b 08 e1 3d
       -0.05840624 0.10604526 -0.09222728 0.10987862
000250 87 c7 9f bb a7 c0 22 bc f2 af b4 bc 06 d0 1f 3d
       -0.0048760804 -0.009933627 -0.022056554 0.039016746
000260 94 0f 5b 3d 23 22 9e bc 23 64 57 3b d9 e1 e8 3d
       0.053481653 -0.019303387 0.0032866083 0.11371202
000270 26 3a f7 bd e6 25 d5 3c 30 51 87 bd 5a ea b4 3d
       -0.12071638 0.026019048 -0.06607282 0.088337615
000280 d9 7b fe bd c1 3b 8c 3d 39 20 06 3d 95 e7 76 3d
       -0.12425966 0.06847335 0.032745574 0.060279448
000290 07 79 86 3d bb 21 c4 3d 2f 85 d1 bd bc 36 7c 3d
       0.06566053 0.09576746 -0.10230481 0.061575636
0002a0 8f 89 d7 bc 12 3e 88 bd 97 69 a9 bd 3a d7 90 3d
       -0.02631071 -0.06652464 -0.08272093 0.07072301
0002b0 92 83 9f 3d e6 93 8e 3d d4 f0 aa 3c 8a 2b ea bd
       0.07788767 0.06961803 0.020866789 -0.11434086
0002c0 fe 13 a9 3d cf 2d b8 bc 61 b7 b9 3d 3f e0 e2 bd
       0.08255766 -0.02248278 0.0906818 -0.11077928
0002d0 f7 26 95 bd 30 f0 b3 3d 4d ff 6f 3d 4f 27 3a 3d
       -0.072828226 0.087860465 0.058593083 0.045447644
0002e0 92 69 38 bd b3 e3 45 3d f2 59 a0 bd 2e a6 d0 3d
       -0.045022555 0.048312854 -0.07829656 0.10187946
0002f0 1c 30 d1 3d f1 ae 68 3b 54 9a e6 3d 30 e8 41 3d
       0.10214254 0.0035504664 0.112599045 0.047340572
000300 94 7f 6d bd d3 02 4f bd fa e7 72 bd 64 56 dd 3d
       -0.057982996 -0.050539803 -0.05930326 0.10807493
000310 59 60 56 3d 24 9d 45 bd f0 f8 37 bd 72 d1 03 3c
       0.052337978 -0.048245564 -0.04491514 0.008045541
000320 a0 05 ce bc 18 c0 89 3c 14 79 d8 bd 4a 4b ff bd
       -0.025149167 0.01681523 -0.10569969 -0.12465532
000330 bc 3a 94 3d 42 bf d2 b9 f8 f0 4b bd 47 6f d7 bc
       0.07237765 -0.0004019682 -0.049790353 -0.026298178
000340 40 b8 85 3d 1f ea dd 3d 55 28 30 bc a3 51 cf bd
       0.065292835 0.10835671 -0.010751803 -0.10122993
000350 18 ae 40 bd 29 39 7a 3d ac 9f 33 3c f5 83 76 bd
       -0.04704103 0.06108967 0.010963362 -0.060184438
000360 f6 34 cd bd c6 93 ab bd 74 e7 6f bd 08 ac fe bd
       -0.10019867 -0.08377795 -0.05857034 -0.12435156
000370 55 4c 4d bc 75 65 fe bd 03 06 0d b9 01 1b 22 bd
       -0.012530406 -0.12421695 -0.00013449047 -0.039576534
000380 a6 71 a7 bc e4 26 14 3d 0b 22 42 bd 92 24 9c 3d
       -0.020439934 0.0361699 -0.047395747 0.07624163
000390 52 df 5d bc 5b 7e a3 3d 04 c8 5a 3d 96 4c bb bd
       -0.013542013 0.07983085 0.053413406 -0.09145467
0003a0 9e 0f c3 bd b4 b9 4c 3d 6e 67 82 3d 90 7a ad 3d
       -0.09524463 0.049981788 0.06367384 0.084706426
0003b0 46 70 1a 3d 02 2a 77 bd 3c 94 32 3d d6 45 7a bd
       0.03770473 -0.060342796 0.0435984 -0.061101757
0003c0 e0 15 23 bd 8a 33 06 3e 67 c5 b4 3c c4 64 71 bc
       -0.039815784 0.13105598 0.022066785 -0.014733497
0003d0 33 30 cb 3d 4f ae c9 bd fc 92 01 be a3 51 92 3d
       0.09921303 -0.098477 -0.12653726 0.07144477
0003e0 62 32 9d 3d f8 94 d5 bc f0 0d 9d 3c a2 74 dc ba
       0.076756254 -0.02607201 0.019171685 -0.0016819427
0003f0 28 e8 69 bd 95 ca 98 3d 15 86 70 bd bb 9b 8e bd
       -0.057106167 0.074605145 -0.05872162 -0.06963297

fc2.bias f4 [64]
000000 95 79 90 3d 2a 5f 93 3d e0 91 c6 3d 4b 87 4d 3d
       0.0705444 0.071958855 0.09695792 0.050177854
000010 94 94 df 3d 23 de 8b 3d 4c 30 ea bd c2 cb 09 3d
       0.10917011 0.068294786 -0.11434993 0.033641584
000020 0b f8 24 3d be 58 d9 bc 71 e6 e2 3d 94 1f 96 bc
       0.040275615 -0.026531573 0.110791095 -0.018325604
000030 c9 87 dd bd ef 6f 8a 3d 22 9f 8e 3d 3a 74 3b bd
       -0.108169146 0.06759631 0.06963946 -0.04576514
000040 51 06 f7 bd 13 31 62 3d 7b 75 87 bd bc 17 db 3d
       -0.12061752 0.055222582 -0.066142045 0.10697886
000050 ec ae c2 3c f8 d6 f4 3d 50 6a b0 bd 1a 4a a0 3c
       0.02376505 0.119550645 -0.086140275 0.019566584
000060 66 f0 be bd 51 b6 94 bd 8d e0 dd 3d 57 4f 4d bd
       -0.09323196 -0.072613366 0.10833845 -0.050124492
000070 c6 c1 44 3a ab 02 83 3c 4c 2d e6 3d 38 1c 43 bc
       0.0007505681 0.015992483 0.112391084 -0.011908583
000080 cd 82 d1 bd 5f 33 8d 3d cf ca 73 3d 9f 60 d4 3c
       -0.102300264 0.06894564 0.059519585 0.025924979
000090 68 62 34 3c 10 45 55 bd d5 60 4d bc 07 0b 9f bd
       0.01100979 -0.052067816 -0.012535294 -0.07765775
0000a0 d2 93 c3 3d 60 5a cf 3d c5 9a 42 bd 4f f8 8c 3d
       0.09549679 0.101246595 -0.04751088 0.068832986
0000b0 c3 65 80 bd 43 df 68 3d e6 40 80 3c 64 3a 01 3c
       -0.062694095 0.056853544 0.015655946 0.007887457
0000c0 63 63 bc bd cd bb a7 3d 9a 5b c8 3d 79 38 f0 bd
       -0.09198644 0.08190117 0.097830966 -0.11729521
0000d0 7b 50 ff 3c a6 18 3b 3d 2b aa c9 bd 8b c0 32 bd
       0.031166306 0.045677803 -0.0984691 -0.043640655
0000e0 01 9e 74 bd dd e4 0e 3d 3e d9 22 3d 51 cf f4 bd
       -0.059720997 0.03488623 0.03975796 -0.11953605
0000f0 00 d0 c8 3d 76 56 e4 3d 70 57 24 3d 68 72 8f bd
       0.09805298 0.111493036 0.04012245 -0.07004243

fc3.weight f4 [64, 64]
000000 19 0d de 39 88 50 50 bd ea 1f 06 be 75 5c e0 bb
       0.00042352898 -0.05085805 -0.13098112 -0.0068469592
000010 3e 09 cc bc 0e b8 c0 3d ab 72 1b 3d fc 67 dd 3d
       -0.02490675 0.09410106 0.037951153 0.10810849
000020 8c 0d 59 bd 4c 5b 83 bd b4 f0 91 3c a4 75 ca 3d
       -0.052991435 -0.06413898 0.017814972 0.098857194
000030 7d 88 1a bb 73 72 52 3d 42 e0 97 bd 1d c0 dc 3d
       -0.0023579889 0.05137868 -0.07415821 0.1077883
000040 93 33 4d bd 42 e8 74 bd 52 37 a3 bd c8 e2 1f 3c
       -0.050098013 -0.05979181 -0.07969536 0.009758659
000050 35 fd f9 3c 58 ee 87 3d 45 2e 61 bc fb a0 00 be
       0.030516246 0.06637257 -0.013743942 -0.12561409
000060 89 bd cf bd cb dd d7 bd 97 f7 68 bd 51 31 59 bd
       -0.10143573 -0.105403505 -0.056876745 -0.053025547
000070 79 c9 ca bd 10 89 b6 bd ab 74 cc bc 43 b3 14 3d
       -0.09901709 -0.08912861 -0.024957975 0.03630377
000080 aa c6 ed 3d b7 b7 77 bc 5d 7c fa 3d ad 70 64 3d
       0.11610158 -0.015119485 0.12230752 0.05577152
000090 25 74 05 bd 21 cc b2 3d 6a 47 66 bd 45 e2 4d 3d
       -0.032581467 0.08730341 -0.05622045 0.050264616
0000a0 9c 7e 2c 3d 9c 1d 8e 3d 21 df 66 3d 11 46 49 3c
       0.04211293 0.06939241 0.056365136 0.012284772
0000b0 ce bf 7c 3c 07 64 71 3c 1d 12 22 bc e7 7c c7 3d
       0.015426589 0.014733321 -0.009892014 0.0974062
0000c0 3f 33 c3 bd c5 04 bf bd 0d ff e2 3d 3c f4 83 bd
       -0.09531259 -0.093270816 0.11083803 -0.064430684
0000d0 96 6c 80 bd 4f 12 d8 3d 24 1e 43 bc 84 5f 00 be
       -0.06270711 0.10550367 -0.011909042 -0.12536436
0000e0 ac 41 ba 3d d4 e4 7b bd 88 26 c0 bd d6 ef d6 3c
       0.09094557 -0.061497524 -0.09382349 0.02623741
0000f0 6c 5f 8f bc 5b 0d 3c bd 75 c9 6e 3d 8f 6c e0 bd
       -0.017501555 -0.045911174 0.058297593 -0.10958206
000100 aa 21 e4 3d c1 c2 09 3c ea 52 10 3c 82 4d 4d bd
       0.111392334 0.008408249 0.008808831 -0.050122745
000110 0f 7d 52 bd 88 2a c7 bd b8 e7 d8 bc a1 53 f9 3d
       -0.051388796 -0.09724909 -0.02647768 0.12174154
000120 3b f2 e8 3d 5b f5 09 3d 9f 14 a9 bd df 9f 54 3d
       0.11374327 0.033681255 -0.08255886 0.051910277
000130 73 4d 8d 3d 76 11 30 bc f2 a3 f2 3c f6 d6 c5 bd
       0.06899538 -0.0107463505 0.02961919 -0.09660141
000140 a6 68 c8 bd 10 b1 15 3d 37 5f e4 bb ed a6 86 bd
       -0.09785585 0.036545813 -0.0069693583 -0.06574807
000150 49 58 2a 3c 3b b3 dc 3d 7b 02 7a 3d 34 43 dc bc
       0.010397025 0.10776373 0.06103752 -0.026887514
000160 b4 92 91 3c af 72 ea 3b d3 90 94 3d 2a a8 95 bd
       0.017770149 0.0071547846 0.072541855 -0.073074654
000170 75 02 64 bc a4 77 41 3d 16 48 f7 ba bb 27 bb 3c
       -0.013916601 0.04723324 -0.0018866088 0.022846093
000180 6c c4 ba 3d d2 96 d1 3c fc 56 0a bd be e9 90 3d
       0.09119496 0.025584612 -0.03377436 0.07075833
000190 ee 50 c9 3d 5e 66 f6 bc 94 8c f7 3d 14 6d d0 3d
       0.09829889 -0.03007811 0.1208736 0.10177055
0001a0 8c 4d 05 3d 5d 39 30 bc d3 a4 a5 bd 01 44 77 3d
       0.032544658 -0.010755864 -0.08088078 0.060367588
0001b0 10 36 de bd 12 01 e0 bd 84 b7 54 3d 64 86 bc bd
       -0.10850155 -0.10937704 0.051932827 -0.092053205
0001c0 41 02 97 3d 00 97 8c 3d a3 b3 86 bd 41 b4 6b bc
       0.07373477 0.068647385 -0.06577232 -0.014386238
0001d0 59 24 c4 bd 9b 29 e6 3d 75 66 07 bd ac a2 03 3d
       -0.09577245 0.11238404 -0.033056695 0.032137558
0001e0 64 99 8e 3c be d8 b7 3d 75 06 42 3d ff 0c b8 bd
       0.017407127 0.08976887 0.04736944 -0.08986854
0001f0 0d e3 04 be 9d 02 a8 bd 3c f4 3b 3d 1f 80 48 3d
       -0.12977238 -0.082036234 0.045887217 0.04895031
000200 e5 5d e7 3c cb cd f6 bb 3c 6f b7 3c d5 53 5b bd
       0.028243015 -0.0075318567 0.022391908 -0.053546745
000210 89 cb da 3d 20 6d fb bd 27 63 7f 3d d1 29 f2 bd
       0.106833525 -0.12276673 0.06235042 -0.11824382
000220 7b c9 e4 3d 0b 5e 1f bd 13 1e d5 bc 60 ca 84 bd
       0.11171242 -0.038908046 -0.026015317 -0.064839125
000230 3d 2c 26 3d 95 48 69 3d 31 bb 2e bd 00 4c d1 ba
       0.040569533 0.056953985 -0.04265899 -0.0015968084
000240 a1 00 ad bd 86 aa 92 bd 2e 15 9d bc 53 94 fc bd
       -0.084473856 -0.07161431 -0.019175138 -0.12332978
000250 fe 43 ef 3d 6f 11 f3 3c 1b 50 ae bd 76 0f ae bd
       0.1168289 0.029671399 -0.08511373 -0.08499043
000260 51 71 a9 bb 16 36 f7 3c 41 f5 7a bd d3 33 dc bd
       -0.005170979 0.030177157 -0.06126905 -0.10752072
000270 a0 b7 99 3d 41 15 83 bd d7 8f ef bd 19 87 a5 3c
       0.07505727 -0.06400538 -0.11697357 0.020206021
000280 18 2c a4 3d a5 39 f0 3d 4a a3 67 bd 5e f0 c4 bd
       0.08016223 0.11729745 -0.05655221 -0.09616159
000290 79 bb 11 bd 0a 82 5b bd a2 53 cc 3d 9e cd ab bd
       -0.03557918 -0.05359081 0.09976889 -0.08388828
0002a0 0d ae 9a bd b2 e1 90 bd fe b2 6e b9 ea 90 48 3d
       -0.07552729 -0.07074298 -0.00022764129 0.048966326
0002b0 2c d5 b8 3d ab 52 14 bd 50 86 8e bd f5 b9 5d 3c
       0.09025034 -0.03621165 -0.06959212 0.013533105
0002c0 8b 3c fe bd 82 08 37 bd b1 af 87 3c 52 9b 98 bd
       -0.124138914 -0.044685848 0.016563268 -0.074515
0002d0 42 cf c8 3d 4d 3c 92 bd c2 b8 91 3c 1e 8c 2a bd
       0.09805156 -0.07140408 0.017788295 -0.041637532
0002e0 e3 8b 8f 3d 37 10 c9 bd 22 27 ac 3d cf f6 e8 bc
       0.07009103 -0.09817546 0.084059015 -0.028438
0002f0 08 ad 81 3d f7 9e cb 3c 98 c2 ba 3c 3a 70 ab 3d
       0.06331831 0.024856074 0.022797868 0.08371015
000300 b7 a3 f6 bc 6b 6d 77 3c dd 7c d8 bd 81 1c 9f 3d
       -0.030107362 0.015101771 -0.10570691 0.077691086
000310 7b 96 cc 3a 8d 89 8c 3a c4 d1 2f bd b5 e1 ae bd
       0.0015608812 0.0010722146 -0.042924657 -0.08539144
000320 a0 36 81 bd 54 80 b1 3d 5c 48 ca 3c a0 a4 8f 3d
       -0.06309247 0.08667055 0.024692707 0.070138216
000330 bd cd 14 3d 6a 66 c9 3d 71 0f 55 bd b0 41 35 3d
       0.03632902 0.09833987 -0.05201668 0.044252098
000340 bf 93 d5 bd 86 a7 d1 bd cb 52 e8 39 e3 53 39 3d
       -0.10428571 -0.10237031 0.00044312174 0.045246016
000350 94 48 96 bb 3f b3 64 bc 07 89 4a bd f3 21 17 bd
       -0.0045862887 -0.013958751 -0.049447086 -0.03689761
000360 03 ff e9 bd 91 d0 e4 3c aa a5 87 bc b4 13 d7 3d
       -0.11425593 0.027931483 -0.016558487 0.10501805
000370 31 9c 5d bd 66 5e bd bd 78 73 24 3d 22 2a 78 3d
       -0.054104034 -0.09246521 0.040149182 0.060587056
000380 70 a1 2a 3d fa d2 5b 3d 19 31 00 be 76 51 ce bd
       0.041657865 0.053668 -0.1251873 -0.10074131
000390 a0 36 ac 3d ae b8 a2 3d b5 c3 f7 bd cf 8e a2 3d
       0.084088564 0.07945381 -0.12097875 0.07937395
0003a0 90 4f 84 3d 5a 3b 76 3c 0e 0e b5 3d 85 fd ee 3d
       0.06460488 0.015028799 0.08840571 0.11669449
0003b0 fa 38 1c 3c 9d 78 48 3d 42 5a 02 3b 3b 23 e7 3d
       0.009535069 0.04894315 0.0019890224 0.112860166
0003c0 2a 99 02 3e 4d d2 32 3d 53 33 c8 bd e5 a1 83 bd
       0.1275374 0.04365759 -0.09775414 -0.06427363
0003d0 d8 58 fe 3d 72 7c 98 3d 8a b0 d9 bb 60 d0 c0 bd
       0.12419289 0.07445611 -0.0066433595 -0.094147444
0003e0 5b fa 95 3d eb f0 94 bc 3e 92 e6 3d 00 ef f5 bd
       0.07323142 -0.018181285 0.11258362 -0.12008476
0003f0 30 cd e2 bd a4 91 a6 3b c3 4c 9c 3d 4c c0 f8 bd
       -0.11074293 0.0050832797 0.07631829 -0.12146053

fc3.bias f4 [64]
000000 39 6d 2f 3d de 6d f9 bc 23 1c 68 bd 2e a1 89 bd
       0.042828772 -0.030447897 -0.05666746 -0.06720196
000010 fa dd 54 3d 27 b0 96 bd 66 d0 d5 bd df 62 32 3d
       0.051969506 -0.07357817 -0.104401395 0.043551322
000020 06 2d 7d 3d c8 57 d6 3d 69 ce a5 bc 88 1e cc bd
       0.061810516 0.10465962 -0.020240026 -0.09966761
000030 f2 ef 1f 3b e2 97 3f bd 49 d8 a1 bc e9 47 e9 bd
       0.0024404493 -0.046775706 -0.019756453 -0.11390669
000040 1a b7 17 3d 04 86 31 3c a1 6a f6 3d b3 41 ec 3c
       0.037039854 0.0108351745 0.120320566 0.028839922
000050 37 76 de 3d 35 e1 27 bc 11 72 38 3d 8b 84 9f 3d
       0.108623914 -0.010246565 0.045030657 0.077889524
000060 04 a4 6f bd b0 99 9a bb 50 b3 e6 3a 70 d4 05 3e
       -0.058506027 -0.004718028 0.0017601047 0.1306932
000070 a4 df 82 3d 51 e8 73 3d 93 dc e1 3d 33 45 cb 3d
       0.06390312 0.059547726 0.11028399 0.09925308
000080 eb ba b0 bd 3c 22 4c bc 4c 6b b5 3d 47 1d 87 3d
       -0.08629402 -0.012459334 0.08858356 0.06597381
000090 ac 39 24 3d a7 9d 1c bb 1b 59 c6 3c 8f 2d 2c 3d
       0.040094063 -0.002389768 0.02421241 0.042035636
0000a0 45 b9 08 be a1 f3 14 bd dd b7 c7 bd 0e 88 71 bd
       -0.13351925 -0.036365155 -0.09751866 -0.058967642
0000b0 3b 52 07 bd 08 b2 a1 bc 23 3a 66 3d 79 52 dd 3d
       -0.033037405 -0.019738212 0.056207787 0.10806746
0000c0 5a f9 98 3d 10 e6 13 3d 46 d4 79 bc 5d b6 69 bb
       0.07469435 0.036108077 -0.015248364 -0.0035661676
0000d0 d2 6e 12 bd da 54 e6 bd 29 56 8a 3c e1 f1 7c bd
       -0.035750218 -0.11246653 0.016886787 -0.06175411
0000e0 b7 37 60 3d ef 7e 98 3c a9 c1 eb 3d 13 a5 89 bd
       0.054740634 0.018615214 0.11511547 -0.067209385
0000f0 e5 75 94 3c 55 5a 1c bd 4e e2 cc 3d 04 cd b1 3d
       0.018122623 -0.038172085 0.10004102 0.08681682

out.weight f4 [2, 64]
000000 59 ca 14 bd d1 9a 12 3d f1 a0 9c bd 7e dd d4 3c
       -0.036325786 0.035792176 -0.07647885 0.025984522
000010 2d 05 41 3e aa 21 ec bc 7a b0 e1 bd 22 56 45 3b
       0.1884963 -0.028824646 -0.11019988 0.0030111154
000020 05 42 94 bd ab ca 68 3c b9 e6 68 3c 6c 81 2d bc
       -0.07239155 0.014208476 0.014215165 -0.010589939
000030 df f9 c2 bd 68 4f 0a bd 88 79 2c 3d 4c c1 d0 3d
       -0.095203154 -0.033767134 0.04210809 0.101931185
000040 60 eb af bd 3b 5c 95 bd 69 7c 9c bd ab 30 02 bc
       -0.08589816 -0.07292982 -0.07640917 -0.007946174
000050 32 ac eb 3d 32 65 99 bd 58 08 85 bd b6 ea b8 bd
       0.11507453 -0.074900046 -0.06495732 -0.090291426
000060 66 00 a8 bd 7b 5b e2 bd bc 00 91 bd 1c 74 16 3e
       -0.08203201 -0.11052605 -0.07080218 0.1469273
000070 b2 43 f1 bd 52 ca 21 bd 8a a2 ea bd f7 f3 9c bd
       -0.1178049 -0.03949959 -0.11456783 -0.0766372
000080 af 74 88 3d a3 23 b7 bd 9a e4 32 bd db 3c d7 bd
       0.06662881 -0.08942344 -0.043675043 -0.10509654
000090 b5 db 62 bd d0 7d 86 3d 29 97 d1 3d b6 99 84 3c
       -0.05538531 0.065669656 0.1023391 0.016186576
0000a0 ce 38 b9 bd 72 06 22 3c 7b 37 ba 3d 80 16 7f 3d
       -0.09044038 0.009889232 0.09092613 0.062277317
0000b0 45 dd c7 bd 30 9c 86 3d 3d 33 c0 bd 56 75 1e bd
       -0.09759001 0.06572759 -0.09384773 -0.03868612
0000c0 94 31 80 3d a3 a3 73 bd 24 d8 f8 bd 78 98 ba bc
       0.06259456 -0.059482228 -0.121506006 -0.02277778
0000d0 2b 1b ac bd b7 bd e3 3c 79 4b e8 3d de fc 2b bd
       -0.084036194 0.027800424 0.1134252 -0.0419892
0000e0 3f dd 8a 3d 3c 31 86 3d 02 41 0a 3e 5f a0 44 bc
       0.067804806 0.065523595 0.13501361 -0.012001126
0000f0 c9 f5 28 bd d6 80 c0 3c bd ec f2 3d 3b c4 0f bd
       -0.041250024 0.023498934 0.118615605 -0.03509925
000100 eb 1b ba 3d 7f 2d ae 3d 24 93 c7 bd d4 47 b5 3d
       0.09087356 0.085047714 -0.09744862 0.08851591
000110 03 13 13 bd 04 1d b7 3d a4 b1 c7 bd 4b 18 0e 3d
       -0.035906803 0.08941081 -0.09750679 0.034691136
000120 da f3 89 bd 30 3f d8 3d e9 fe 20 bd d3 6e 82 bd
       -0.06735964 0.10558927 -0.0393056 -0.06368794
000130 9f 92 32 3d ea f7 4e 3d a9 f6 c6 3c af 04 89 bc
       0.04359686 0.050529398 0.024287539 -0.016725866
000140 57 cf 4b bc c4 35 dd bd f2 a3 da 3d 77 f3 d6 3d
       -0.01243957 -0.108012706 0.10675801 0.10495656
000150 6a 1e 1f 3b c2 00 96 3c 03 14 d2 3d e6 9a 78 bd
       0.0024279603 0.018310908 0.10257723 -0.060694598
000160 50 93 cf 3d 1a 2a be 3c ca 02 a7 bd 85 bf c4 bc
       0.101355195 0.023213435 -0.08154829 -0.024017105
000170 46 da 8b 3d d0 96 ad bd 67 ac 17 bb 86 67 8c bd
       0.06828742 -0.08476031 -0.0023143531 -0.06855683
000180 93 15 92 3c 21 7a e4 bd 8a 5a bd bd 86 2f 01 bd
       0.017832553 -0.11156107 -0.092457846 -0.031539463
000190 c2 0b ac 3c b9 b2 c6 3c 9e 0a 26 bc 90 14 d5 3c
       0.0210017 0.024255143 -0.010134367 0.026010782
0001a0 02 2b 85 bc ca 6e a2 3d d5 3b d8 bb 65 3c 76 3d
       -0.01625586 0.079312876 -0.0065989294 0.06011619
0001b0 48 04 d3 3c a8 19 d7 3d 46 2b c0 3c 58 13 f2 bd
       0.025758877 0.105029404 0.023458134 -0.11820096
0001c0 f6 e2 26 bc 1b c9 d6 3c 74 b1 ca 3d e9 68 2b 3d
       -0.010185948 0.026218941 0.09897128 0.041848097
0001d0 93 6a 78 bd 1f 00 d7 bd 7e 6f 7e bd dd 76 da bd
       -0.060648512 -0.1049807 -0.062118046 -0.106672026
0001e0 d0 62 40 bc 86 e5 d2 3d 5a 88 ea bd 73 d2 b3 bd
       -0.011742309 0.10297684 -0.11451788 -0.087803744
0001f0 40 da ae 3d 92 a0 f0 bc 11 5c 53 bc f9 a7 e2 3c
       0.08537722 -0.02937344 -0.012900368 0.027667986

out.bias f4 [2]
000000 c4 16 91 3d b4 19 d3 3d
       0.0708442 0.10307637
