Pretrained_Model/models/Umbumping_cars_V6.pth (torch, 39352 bytes, 8 tensors)

fc1.weight f4 [64, 8]
0	0xbe5430e6	-0.20721778
1	0x3e932810	0.28741503
2	0x3ce2cab7	0.027684553
3	0xbe3e835c	-0.18604797
4	0xbed183a7	-0.40920755
5	0xbe3dee3b	-0.18547909
6	0xbea4073a	-0.32036763
7	0xbe66dfdd	-0.22546335
8	0x3eba6d76	0.36411637
9	0x3e117a68	0.1420685
10	0x3e6f231d	0.23353238
11	0x3e8d4e03	0.2759858
12	0xbdb47435	-0.08811227
13	0x3d81912d	0.06326518
14	0xbdcf227a	-0.10113998
15	0xbe55da66	-0.20884094
16	0x3e32321b	0.17401926
17	0x3d938318	0.072027385
18	0xbc3549a2	-0.011064919
19	0xbca3c531	-0.01999149
20	0xbccbc836	-0.024875741
21	0x3ef80aee	0.4844584
22	0x3d1ef7bd	0.03881048
23	0x3e16d398	0.14729154
24	0x3d058245	0.032594938
25	0xbe9883c5	-0.29788032
26	0xbe836f76	-0.25670975
27	0x3e23cbe0	0.15995741
28	0x3e19496c	0.14969414
29	0xbdf6f869	-0.12059099
30	0xbdcbea81	-0.099568374
31	0x3ce70f0f	0.028205423
32	0x3ec4bdd5	0.3842608
33	0x3e33e425	0.17567499
34	0xbca37526	-0.019953322
35	0xbee8345d	-0.4535245
36	0xbdb54624	-0.08851269
37	0xbef00333	-0.4687744
38	0xbd396897	-0.04526576
39	0x3e2f2a25	0.1710592
40	0x3df02e0e	0.11727534
41	0x3e8bfe44	0.27342427
42	0xbc76d3d6	-0.015065154
43	0xbe6ad0ef	-0.22931264
44	0x3c87bb7f	0.016568897
45	0x3e3f4382	0.18678096
46	0xbe84e9fd	-0.2595977
47	0x3e08f4ac	0.13374585
48	0x3d02b297	0.031908598
49	0x3e1bee2f	0.15227579
50	0xbe4f8e1c	-0.20269054
51	0xbe0a5e64	-0.1351257
52	0xbe12571b	-0.1429104
53	0xbbbe91a1	-0.0058157
54	0xbe778f8d	-0.24175854
55	0x3e82bdac	0.25535333
56	0xbe5bc52b	-0.21461932
57	0x3de90872	0.11378564
58	0x3e3df2a0	0.18549585
59	0x3e1b46cb	0.15163724
60	0xbea3a8c0	-0.31964684
61	0xbda05782	-0.07829191
62	0x3a97a477	0.00115694
63	0x3e6defc5	0.23235996
64	0xbe56dd02	-0.20982745
65	0x3b5c6019	0.0033626615
66	0xbe070855	-0.13186772
67	0xbe85cc5c	-0.26132476
68	0x3ec0681e	0.37579435
69	0x3d668b21	0.056285027
70	0x3e893abc	0.26802623
71	0xbe3c5b7a	-0.1839427
72	0xbeb7d697	-0.35905907
73	0xbe3ee10d	-0.18640538
74	0x3e75b9e3	0.23996691
75	0xbd42babc	-0.047541365
76	0x3e61cd69	0.22051014
77	0xbdfab03b	-0.122406445
78	0x3e124de4	0.14287525
79	0xbe49c23a	-0.19702998
80	0x3d7c6842	0.061622865
81	0x38a5363d	7.877916e-05
82	0x3d4e4556	0.050359093
83	0x3dc9ae50	0.098477006
84	0xbd4c71ef	-0.049913343
85	0x3ec0b40d	0.37637368
86	0xbe86115a	-0.26185113
87	0x3d84ec12	0.06490339
88	0x3e808080	0.25098038
89	0xbe8f2e34	-0.27964938
90	0x3d9f3f0b	0.07775696
91	0xbe6bbd33	-0.23021393
92	0x3e6c5c11	0.23081996
93	0x3c3df00a	0.011592874
94	0xbeb82c79	-0.3597143
95	0x3df3a92a	0.118975
96	0x3e0d1ea2	0.13781217
97	0xbe81ad4c	-0.25327528
98	0xbdeb81fe	-0.114994034
99	0x3db2c1b4	0.08728352
100	0xbe2f7235	-0.1713341
101	0x3ee8fffa	0.45507795
102	0x3e92fc92	0.2870832
103	0x3e40a88e	0.18814299
104	0xbeacf708	-0.3378222
105	0xbe5edd52	-0.21764114
106	0x3e149be4	0.14512593
107	0xbeac9822	-0.33709818
108	0x3ce64554	0.02810923
109	0xbeab336d	-0.33437672
110	0xbe451a76	-0.19248375
111	0xbe080998	-0.1328491
112	0x3ea85dc6	0.32884043
113	0x3e9ac2cc	0.30226743
114	0x3e261261	0.16217948
115	0xbea337f9	-0.3187864
116	0xbe53245c	-0.20619339
117	0x3e849366	0.25893706
118	0x3e53c238	0.20679557
119	0xbe72d0b6	-0.2371243
120	0x3ec66422	0.3874827
121	0x3e511ac2	0.20420364
122	0x3e6b0327	0.22950421
123	0xbe20ccdd	-0.15703149
124	0x3e12545b	0.14289992
125	0x3d591ad2	0.053004093
126	0xbec64c7a	-0.38730222
127	0xbe804366	-0.2505142
128	0xbe9b20b8	-0.302984
129	0x3e1b8a94	0.15189582
130	0x3dd1cd8a	0.102442816
131	0xbdb69173	-0.08914461
132	0x3e98eb95	0.29867235
133	0x3e2328fb	0.15933602
134	0xbe11a184	-0.1422177
135	0xbe3d78b6	-0.18503079
136	0x3e96caf3	0.29451713
137	0x3de9a984	0.11409286
138	0xbdc97212	-0.0983621
139	0x3e7472f0	0.2387197
140	0xbe029a30	-0.1275413
141	0x3d4d84ae	0.05017536
142	0x3dee5f13	0.11639228
143	0xbcc6ee04	-0.024283417
144	0x3e297efd	0.16552348
145	0xbe0f4bff	-0.13993834
146	0xbd757d78	-0.05993411
147	0x3e2e876d	0.17043848
148	0x3d91f69c	0.07127115
149	0x3e853148	0.2601416
150	0x3d97147d	0.07376955
151	0x3dd8a801	0.10578919
152	0xbd9e279c	-0.07722399
153	0x3e7ba53a	0.24574748
154	0x3e1aa217	0.15100895
155	0x3d9c2ee6	0.07626133
156	0x3e7b0354	0.24512988
157	0x3d96787b	0.073471986
158	0x3dcf34d1	0.10117496
159	0xbe411f1a	-0.1885952
160	0x3e755792	0.23959187
161	0x3d524370	0.051333845
162	0x3dee8e6e	0.1164826
163	0x3e2a9eff	0.16662215
164	0xbe877709	-0.26458004
165	0xbd844a28	-0.06459457
166	0x3dc0d8ed	0.09416375
167	0x3e2103e2	0.15724137
168	0xbd53c776	-0.051703893
169	0x3e4fbb3a	0.20286265
170	0x3eac8578	0.3369558
171	0xbe93bdb1	-0.2885566
172	0xbd8a124b	-0.0674177
173	0xbe8b1cc7	-0.27170393
174	0x3cd847fa	0.026401509
175	0xba655ad3	-0.00087491906
176	0x3e916182	0.28394705
177	0x3e976ad7	0.295737
178	0x3e6e2f7a	0.23260298
179	0xbd940c30	-0.07228887
180	0xbe21a0d7	-0.15784012
181	0x3e01a339	0.12659921
182	0x3dcb740f	0.09934246
183	0x3ea9856a	0.331096
184	0x3e5eb53b	0.21748821
185	0xbe7432be	-0.23847482
186	0xbe90eb30	-0.28304434
187	0xbe6bd625	-0.23030908
188	0xbe134cd8	-0.14384782
189	0xbdaa2834	-0.083084494
190	0xbdda4159	-0.10656995
191	0x3a37b497	0.0007007806
192	0x3e29b84d	0.16574211
193	0xbdf49532	-0.11942519
194	0x3ece7f9b	0.4033173
195	0x3d310a9a	0.043223
196	0x3e1968e4	0.14981419
197	0xbe0852ce	-0.13312837
198	0xbe483a67	-0.19553529
199	0xbe3a8069	-0.18213047
200	0x3e8129e9	0.25227287
201	0x3d8c8fc6	0.0686336
202	0xbe928674	-0.28618205
203	0x3e25dc06	0.16197214
204	0xbe9b4af8	-0.30330634
205	0x3d2fff49	0.04296807
206	0x3d34bc9b	0.04412518
207	0x3e8a43ad	0.27004758
208	0x3dffc382	0.12488462
209	0x3e99c9a0	0.3003664
210	0xbe17b391	-0.14814593
211	0x3e806e4e	0.25084156
212	0x3e0b5eac	0.13610333
213	0x3edf79c2	0.4364758
214	0xbe5618fe	-0.20907971
215	0xbdda7eb7	-0.106687
216	0xbeca6f63	-0.39538106
217	0xbd8cdb2b	-0.068777405
218	0x3ec24743	0.37944993
219	0x3ea6ae79	0.32554987
220	0xbc44e2ef	-0.012016996
221	0xbdd2dfde	-0.102966055
222	0xbea86a82	-0.3289376
223	0xbea32cb4	-0.31870043
224	0x3e61559e	0.22005317
225	0xbe839991	-0.257031
226	0x3e9e59ce	0.3092789
227	0xbd69f1cb	-0.057115357
228	0xbe960bd0	-0.29305887
229	0xbd058237	-0.032594886
230	0x3c85b37a	0.016320933
231	0xbd1d5da3	-0.038419377
232	0x3e163a7c	0.14670748
233	0xbd7aa7ca	-0.061195172
234	0x3e73a78a	0.2379438
235	0x3eabb901	0.33539584
236	0xbe2aaca0	-0.16667414
237	0x3ebd3d6c	0.36960924
238	0xbd9d3677	-0.07676404
239	0x3d8290ff	0.06375312
240	0x3d7e8837	0.062141623
241	0xbe7cbae7	-0.24680673
242	0x3e1e9c96	0.1548942
243	0x3deed0be	0.11660908
244	0x3e528d0b	0.20561616
245	0xbece9f4b	-0.40355906
246	0x3e501262	0.20319512
247	0xbe53d9ba	-0.20688525
248	0x3e2932d6	0.16523299
249	0xbe83a5d7	-0.25712463
250	0x3bd6537d	0.0065407143
251	0x3e699bd4	0.2281335
252	0xbe2c74a8	-0.16841376
253	0xbdd76337	-0.105169706
254	0xbeb8c258	-0.36085773
255	0x3e14ca80	0.14530373

fc1.bias f4 [64]
0	0xbe053ec7	-0.13012229
1	0xbeb44e38	-0.35215926
2	0x3e349cea	0.17637983
3	0xbe0b23ce	-0.13587877
4	0x3e6daacf	0.2320969
5	0x3e74b185	0.23895843
6	0x3e38ab4c	0.18034095
7	0xbe6b9b8b	-0.23008554
8	0xbddbe501	-0.107370384
9	0xbd0de6bc	-0.034643874
10	0x3e255812	0.16146877
11	0x3e478934	0.19485933
12	0x3e820169	0.253917
13	0x3eaf59ae	0.34248108
14	0x3ebd5bbf	0.3698406
15	0xbe9a1aea	-0.3009866
16	0xbe9fb055	-0.31189218
17	0xbccdc14d	-0.025116587
18	0xbd60ea74	-0.054911092
19	0xbe8f6499	-0.28006437
20	0x3ca99ca3	0.020704573
21	0x3e9a44f1	0.30130723
22	0x3e3b52aa	0.18293253
23	0xbe06105f	-0.13092183
24	0xbe399233	-0.18122177
25	0xbe84a15a	-0.2590435
26	0xbe2afc1e	-0.16697738
27	0x3ef71a9a	0.48262483
28	0xbbb202c1	-0.005432457
29	0x3ea325fc	0.31864917
30	0x3e863385	0.2621118
31	0xbe07194e	-0.13193247
32	0xbe78dbf1	-0.24302651
33	0xbe1fcafd	-0.15604778
34	0x3d44a0c8	0.048004895
35	0x3e78c0cd	0.24292298
36	0x3da2f095	0.07956044
37	0xbdc8a231	-0.097965606
38	0x3ebc3520	0.3675928
39	0x3dbdca58	0.0926711
40	0xbe984161	-0.2973738
41	0xbe34d161	-0.17657997
42	0xbe7a1d68	-0.2442528
43	0x3e89b61d	0.26896754
44	0x3dcb0bc8	0.099143565
45	0xbe2a8e4b	-0.16655843
46	0xbe3905c3	-0.18068604
47	0x3ee61ff2	0.44946247
48	0xbc19a574	-0.009377826
49	0x3d0a48da	0.033760883
50	0x3e29588c	0.16537684
51	0xbe8bd3eb	-0.27310118
52	0x3ec38fb6	0.3819558
53	0x3e8b9672	0.27263218
54	0xbe1c96c7	-0.15291892
55	0x3e1c85a0	0.15285349
56	0x3e8daddf	0.27671716
57	0xbdee2169	-0.11627466
58	0xbe99c623	-0.3003398
59	0xbec2206d	-0.37915364
60	0xbea99dc1	-0.3312817
61	0x3dbed388	0.0931769
62	0x3dceacf4	0.10091582
63	0x3ebacc42	0.3648396

fc2.weight f4 [64, 64]
0	0xbddfa304	-0.10919765
1	0x3d5b5af4	0.053553537
2	0x3ca06110	0.019577533
3	0xbd8dba9e	-0.0692036
4	0xbe182f90	-0.14861894
5	0xbcdfee7e	-0.027335402
6	0xbdce502b	-0.100738846
7	0xba856e0f	-0.0010179895
8	0xbd59be85	-0.05316021
9	0xbd0c2aa8	-0.034220368
10	0xbe1c599a	-0.15268555
11	0x3d7a3999	0.061090086
12	0xbde88bee	-0.113548145
13	0xbe4571b2	-0.19281653
14	0xbda6ce4b	-0.08144816
15	0xbd51e46a	-0.051243223
16	0x3d9a5af6	0.07536881
17	0x3ce99bf2	0.028516743
18	0x3bd65c8c	0.006541794
19	0x3c19e678	0.009393327
20	0x3e0b04d3	0.13576059
21	0xbe29cb57	-0.16581474
22	0xbcae01a4	-0.021241017
23	0xbd9d8d12	-0.07692923
24	0x3d7dce62	0.0619644
25	0xbdba1f92	-0.09088053
26	0x3c5e4ab4	0.013567615
27	0xbe1eca06	-0.15506753
28	0x3d7e8328	0.0621368
29	0xbd610c33	-0.054943275
30	0x3cda5a96	0.026654523
31	0xbcb8931a	-0.022531081
32	0xbd70cbfe	-0.058788292
33	0xbe0b908f	-0.13629363
34	0x3c593ba5	0.013258849
35	0x3d3e9a91	0.046534125
36	0x3dbe08bb	0.09279009
37	0x3d6b1b12	0.057398863
38	0xbda8efc7	-0.08248859
39	0xbe34d9a3	-0.17661147
40	0xbd9192f4	-0.07108107
41	0xbd08b938	-0.033379763
42	0x3d2f906a	0.042862333
43	0xbe1f73a3	-0.15571456
44	0xbdce12bc	-0.10062167
45	0x3ddeb163	0.108736776
46	0x3c3b24b3	0.011422324
47	0x3c71be7f	0.01475489
48	0xbd645652	-0.055746384
49	0xbd5a91bc	-0.05336164
50	0x3d99a008	0.07501227
51	0x3cdf4a4c	0.027257107
52	0x3d730d25	0.059338707
53	0xbdfe94ad	-0.124307014
54	0xbd7c7637	-0.061636176
55	0x3d569967	0.05239239
56	0xbd4c55ea	-0.04988662
57	0x3cb3ab09	0.021932142
58	0x3c5c12ca	0.013432214
59	0x3cf440e2	0.029816095
60	0xbdcf4baa	-0.10121854
61	0x3d614d92	0.055005617
62	0x3d340076	0.043945752
63	0xbe53fd43	-0.2070208
64	0xbd6b743a	-0.05748389
65	0x3cacd19f	0.021096049
66	0x3e545491	0.20735385
67	0x3dcd2de3	0.10018518
68	0xbd4db0e7	-0.050217535
69	0x3de5a3c3	0.11212876
70	0xbd97dac5	-0.07414774
71	0x3d5991ba	0.05311749
72	0x3e052b6b	0.13004844
73	0xbc530f99	-0.012882137
74	0xbcc889b4	-0.024479724
75	0xbb8c4d32	-0.0042816633
76	0x3db76186	0.08954148
77	0xbca4ba34	-0.02010832
78	0x3df977e6	0.12181072
79	0x3cb884da	0.022524286
80	0x3d76e407	0.060276058
81	0x3e294481	0.16530038
82	0x3dbfb22e	0.09360157
83	0x3df0ea72	0.11763467
84	0x3d59c6b5	0.053168017
85	0x3adba03f	0.0016756131
86	0x3c22d97c	0.009939548
87	0x3e45638a	0.19276252
88	0x3d22dc86	0.03976109
89	0x3e04bf1b	0.12963526
90	0xbc3f747e	-0.011685489
91	0x3d8fa1cb	0.070132814
92	0xbc3750ea	-0.011188725
93	0xbd1583b0	-0.03650254
94	0x3d7572b3	0.05992384
95	0xbe43c1cd	-0.19116898
96	0xbd00d86e	-0.031456403
97	0x3dbfeb9d	0.093711115
98	0xbdf18dd9	-0.117946334
99	0xbd8e8304	-0.06958583
100	0xbe1ebad9	-0.15500964
101	0x3e0f024d	0.13965721
102	0x3d1f28d3	0.038857292
103	0x3d82ea4f	0.06392347
104	0x3e3126d1	0.17299964
105	0xbd826a55	-0.063679375
106	0xbce940dd	-0.028473312
107	0x3dbfcb51	0.093649514
108	0x3d4ea783	0.05045272
109	0x3dae3f0c	0.08508119
110	0x3dabb104	0.083833724
111	0xbd9f4449	-0.07776696
112	0xbd68af6e	-0.056807928
113	0x3d086f46	0.033309244
114	0x3cea7811	0.028621705
115	0xbdacb10f	-0.08432209
116	0x3d1645aa	0.03668753
117	0x3cfcb56d	0.03084823
118	0x3dcab981	0.09898663
119	0xbe1834e2	-0.14863923
120	0xbc89a4ed	-0.016802276
121	0xbcdbaae5	-0.026814887
122	0x3d27b986	0.040948413
123	0xbd45e36d	-0.048312593
124	0xbcecc904	-0.028904445
125	0xbd09b867	-0.033623125
126	0x3e39618e	0.1810362
127	0x3e082bba	0.1329793
128	0x3d9b433d	0.07581184
129	0xbc9ff906	-0.019527923
130	0xbde96477	-0.11396115
131	0x3d1b083f	0.03784966
132	0x3da0f679	0.07859511
133	0x3d96ccc5	0.073632754
134	0x3c66365f	0.014051049
135	0xbddc4459	-0.10755224
136	0xbc769aae	-0.015051527
137	0x3df51a8b	0.11967953
138	0xbd880408	-0.06641394
139	0xbddad260	-0.10684657
140	0xbd4bc9c3	-0.04975296
141	0x3dd896a5	0.10575608
142	0xbca0de33	-0.019637203
143	0xbd324d6b	-0.043530863
144	0x3e1641b2	0.14673498
145	0xbbe6f5ca	-0.0070483433
146	0x3e10d1fd	0.14142604
147	0x3d932c47	0.071861796
148	0x3b9bee7b	0.0047586537
149	0x3e45943e	0.19294831
150	0x3d777734	0.060416415
151	0xbd993ace	-0.07481919
152	0xbd1c83d6	-0.038211666
153	0x3c89c69d	0.016818339
154	0x3d9225c9	0.07136113
155	0x3d60b99a	0.054864503
156	0x3dc26459	0.09491796
157	0xbdbb4133	-0.09143295
158	0xbe09367b	-0.13399689
159	0xbd9c7c61	-0.07640911
160	0xbded4ed9	-0.115873046
161	0xbda35dc9	-0.079768725
162	0x3e25e53d	0.16200729
163	0x3e297f3f	0.16552447
164	0xbce5b3c4	-0.02803982
165	0x3e013ccb	0.12620847
166	0xbcef7a2d	-0.029233063
167	0xbdc19803	-0.09452822
168	0x3c65536d	0.013996941
169	0x3c816624	0.015795775
170	0x3d2905cd	0.041265298
171	0x3dbdd28a	0.09268673
172	0x3bf5d680	0.007502377
173	0x3d2146dd	0.03937422
174	0x3d04a395	0.032382566
175	0x3d1805fa	0.037115075
176	0xbc36aef5	-0.011150111
177	0xbd0e960d	-0.03481107
178	0xbd8fe5e4	-0.0702627
179	0xbd55a2b5	-0.052157123
180	0x3d7fce1e	0.062452428
181	0x3d92a77b	0.071608506
182	0x3dbc5e7d	0.0919771
183	0x3e143886	0.14474687
184	0xbd13b85d	-0.036064494
185	0x3cc7706b	0.024345597
186	0x3ce71fe1	0.028213443
187	0xbe03546e	-0.12825176
188	0x3c10d216	0.008839151
189	0x3dc7b302	0.0975094
190	0xbdaa0728	-0.08302146
191	0x3db0e770	0.08637893
192	0xbd738d4e	-0.05946093
193	0xbda3f154	-0.08005014
194	0xbdd011fe	-0.10159682
195	0xbd4befc1	-0.049789194
196	0x3daae669	0.083447285
197	0xbddf94fe	-0.1091709
198	0x3d8043f5	0.06262962
199	0x3dc66ba1	0.09688497
200	0x3cd286c6	0.02569903
201	0xbd14c73c	-0.036322817
202	0x3d944413	0.072395466
203	0x3c517320	0.012783796
204	0x3cb3d0d4	0.021950163
205	0xbe0e33ea	-0.13886991
206	0x3d970da1	0.073756464
207	0x3d8607fe	0.06544493
208	0xbbb7232c	-0.0055889096
209	0xbd308359	-0.043094013
210	0xbe00543f	-0.12532137
211	0xbd5a9085	-0.05336048
212	0x3ccc3219	0.024926232
213	0xbd4921ac	-0.049104378
214	0x3d87783c	0.0661473
215	0x3dd1c6b9	0.102429815
216	0xbe29f03c	-0.16595548
217	0x3d45e82f	0.04831713
218	0x3e363814	0.1779483
219	0x3d8a7f1f	0.06762528
220	0x3c891b3d	0.016736621
221	0xbb35f85a	-0.0027766437
222	0xbd9dab00	-0.07698631
223	0xbcd7f10e	-0.026360061
224	0xbcbea693	-0.023272788
225	0xbca641a2	-0.020294968
226	0x3df57099	0.11984367
227	0x3d92dc01	0.07170869
228	0xbe1bed0e	-0.15227148
229	0x3d5b58e0	0.053551555
230	0x3d5cffa7	0.053954747
231	0xbd9e19c9	-0.07719762
232	0x3db410f5	0.08792297
233	0x3d3c1d2b	0.045926254
234	0xbe2184c2	-0.157733
235	0x3b745cba	0.0037286715
236	0x3da07a45	0.07835821
237	0x3de262cc	0.11054
238	0x3d289604	0.04115869
239	0xbd9f816d	-0.07788358
240	0x3d9cfe64	0.07665709
241	0x3c926721	0.017871441
242	0x3dd83717	0.105573826
243	0xbdc03834	-0.0938572
244	0x3d5b065f	0.053472873
245	0x3de47f98	0.11157149
246	0x3cacd99d	0.02109986
247	0x3db5e56a	0.08881648
248	0xbdeab80b	-0.11460885
249	0x3e15fa70	0.14646316
250	0x3d103347	0.035205152
251	0xbb1f57f1	-0.0024313892
252	0x3cdc01cc	0.026856326
253	0x3e06a8b7	0.13150297
254	0xbd1696ae	-0.036764793
255	0x3e03dbc9	0.1287681

fc2.bias f4 [64]
0	0x3d551aa5	0.052027363
1	0x3e072ad5	0.13199933
2	0x3b8d1558	0.004305523
3	0x3e012e50	0.12615323
4	0xbbba8b7f	-0.0056928988
5	0x3d6e1851	0.05812866
6	0xbe2858ee	-0.16440174
7	0xbd945f8a	-0.07244785
8	0x3bb2bf36	0.005454923
9	0x3ce0c6a6	0.027438473
10	0xbd358e1a	-0.04432497
11	0x3d46de07	0.048551586
12	0xbce07ea2	-0.027404133
13	0x3dafeda8	0.08590251
14	0x3cbeb8b4	0.023281433
15	0x3d80744d	0.062721826
16	0x3dc819a2	0.09770514
17	0x3d9c45f3	0.07630529
18	0x3d9aaca5	0.075524606
19	0xbd8c3061	-0.06845165
20	0xbdbf9e5d	-0.09356377
21	0xbd568e08	-0.052381545
22	0xbdcb9d7f	-0.09942149
23	0x3d3e5203	0.04646493
24	0x3caee69a	0.021350194
25	0x3c21dae6	0.00987885
26	0xbd5d22d5	-0.053988297
27	0x3d934095	0.071900524
28	0xbc841a05	-0.016125688
29	0xbda6e638	-0.081493795
30	0xbd3d7db5	-0.04626246
31	0x3dbbdcbe	0.091729626
32	0xbc751e4c	-0.014960837
33	0x3de46613	0.111522816
34	0xbd7b1d28	-0.061307102
35	0x3d66c1bb	0.0563371
36	0x3c4442e3	0.011978838
37	0xbd021e34	-0.031767085
38	0xbe12b08c	-0.1432516
39	0xbdb2643b	-0.08710524
40	0x3bac0854	0.005250016
41	0x3df011af	0.11722123
42	0x3ca768cf	0.020435719
43	0x3e146477	0.1449145
44	0xbc27d569	-0.010243752
45	0x3d5b68d4	0.05356677
46	0x3cf016e6	0.029307794
47	0x3c28d6ce	0.01030512
48	0xbc3bcc6a	-0.01146231
49	0xbba199be	-0.0049316576
50	0x3c7f87e6	0.015596366
51	0x3d236756	0.03989347
52	0xbdcb5854	-0.09928957
53	0x3dcf6adf	0.10127806
54	0x3cf5092d	0.029911602
55	0xbd42b05b	-0.047531467
56	0x3d92b878	0.07164091
57	0xbd924755	-0.07142512
58	0x3db9482b	0.09046968
59	0xbdf8cbd2	-0.12148251
60	0xbcd28ddd	-0.025702411
61	0x3c41152d	0.011784834
62	0xbce5caac	-0.028050743
63	0xbde093a1	-0.10965658

fc3.weight f4 [64, 64]
0	0xbd037cbc	-0.032101378
1	0x3d7a0eb1	0.061049167
2	0xbd97890b	-0.07399186
3	0x3b592926	0.0033136099
4	0x3d8841e9	0.06653196
5	0xbcf072c4	-0.0293516
6	0x3d9ea33c	0.07745978
7	0xbe0c14e9	-0.13679852
8	0xbd11309c	-0.03544675
9	0x3d4f1e82	0.050566204
10	0x3bfd31a5	0.0077268654
11	0x3d8bc85e	0.068253264
12	0xbceb47a8	-0.028720692
13	0x3d6a3bb7	0.057185855
14	0x3cb42b0b	0.02199318
15	0x3d1b6eeb	0.037947576
16	0x3de61f57	0.11236446
17	0xbda50da8	-0.08059245
18	0xbd9272ed	-0.071508266
19	0x3debdc55	0.115166344
20	0x3d38122c	0.044939205
21	0xbc4852a6	-0.012226736
22	0xbdd078de	-0.101793036
23	0x3e020497	0.12697063
24	0x3d1f2844	0.03885676
25	0x3ddafcaa	0.10692723
26	0xbd583ee7	-0.052794363
27	0x3cb2dc8e	0.021833684
28	0xbd303857	-0.04302248
29	0x3d03b9ba	0.032159545
30	0x3dec8f35	0.11550752
31	0xbe078426	-0.13234004
32	0x3cc04152	0.023468647
33	0xbc03be71	-0.00804101
34	0xbde597a4	-0.11210564
35	0xbdd98a2a	-0.10622056
36	0xbb9ee0c3	-0.004848571
37	0xbd99cf96	-0.07510297
38	0x3dcfad71	0.10140503
39	0x3e18b233	0.14911728
40	0x3d6f0fab	0.05836455
41	0xbd42b4a8	-0.04753557
42	0x3d71cefb	0.059035283
43	0x3c9afa47	0.01891817
44	0x3ba8b6d9	0.0051487503
45	0xbc42bed7	-0.01188632
46	0x3dffd6aa	0.12492116
47	0xbd0258d9	-0.031823013
48	0x3d9baf47	0.07601791
49	0x3b86997a	0.0041076513
50	0xbda69afb	-0.08135029
51	0x3daae15b	0.083437644
52	0x3d038518	0.03210935
53	0x3bc2b6be	0.0059421947
54	0xbd6ccd96	-0.05781325
55	0x3d050195	0.032472212
56	0x3d6ca5d4	0.057775334
57	0x3d6d0cd3	0.05787356
58	0x3d4baacb	0.049723428
59	0x3da9932c	0.08280024
60	0xbe0537fd	-0.13009639
61	0x3d05534e	0.03255015
62	0x3d9d0fc9	0.076690264
63	0xbdf08b03	-0.117452644
64	0x3d2ad5d6	0.041707836
65	0xbde69ad1	-0.11259998
66	0xbd5192ee	-0.051165514
67	0x3d4ec990	0.050485194
68	0xbdf5bdde	-0.11999105
69	0xbc622e5d	-0.013804999
70	0x3d923b28	0.071401894
71	0xbe082ea5	-0.13299043
72	0x3dcc0052	0.099609986
73	0x3cc93fda	0.02456658
74	0x3cd92f75	0.026511887
75	0xbdcb4d49	-0.0992685
76	0x39e50cc5	0.00043687798
77	0xbc7353ed	-0.014851552
78	0x3e0630a5	0.13104494
79	0xbddffb4c	-0.10936603
80	0x3d02a472	0.03189511
81	0xbdb9f2e7	-0.09079533
82	0x3d121503	0.03566457
83	0x3cfb886c	0.0307047
84	0x39601278	0.00021369185
85	0x3da34903	0.0797291
86	0x3cbb3b72	0.022855494
87	0xbdb03278	-0.08603376
88	0xbdc1ffec	-0.09472641
89	0xbcc2705c	-0.023735218
90	0x3d38c3f5	0.045108754
91	0x3d7ae1ec	0.061250612
92	0x3c42af11	0.011882559
93	0x3d64d2fe	0.05586528
94	0x3bc4cae2	0.006005631
95	0x3de180d4	0.110109
96	0x3d946dee	0.0724753
97	0xbd8c4c5a	-0.068505004
98	0xbc753bb2	-0.014967846
99	0xbd8d0347	-0.06885391
100	0x3e09c73d	0.1345491
101	0x3e17b14e	0.1481373
102	0xbdbe3af1	-0.09288586
103	0x3db0d271	0.086338885
104	0xbde91ce7	-0.11382466
105	0xbd825325	-0.06363515
106	0xbd098bf6	-0.033580743
107	0x3df02083	0.11724951
108	0xbd81ea93	-0.063435696
109	0x3d2254aa	0.039631523
110	0x3da8f9cc	0.0825077
111	0xbd351c53	-0.044216465
112	0xbcfb6bff	-0.030691145
113	0x3d12fc95	0.035885412
114	0xbd6cfcb9	-0.057858203
115	0xbd6f6988	-0.05845025
116	0x3c9736d2	0.018458758
117	0xbdb20c07	-0.086937
118	0xbd79370b	-0.06084351
119	0xbd294c34	-0.04133244
120	0xbda7c0d3	-0.08191075
121	0xba7f9921	-0.0009750296
122	0xbdbd3761	-0.09239078
123	0x3da33701	0.079694755
124	0x3d8b0fd6	0.0679013
125	0x3bec58f1	0.007212751
126	0x3d81d2d3	0.0633904
127	0xbd3715e1	-0.0446986
128	0xbdd819e5	-0.10551814
129	0xbcd8405b	-0.026397875
130	0x3c864c1c	0.016393714
131	0xbe00dec7	-0.12584983
132	0x3cb3d286	0.021950971
133	0x3d1302bb	0.035891276
134	0x3d6dbdaf	0.058042224
135	0x3de86015	0.11346451
136	0xbe0496d7	-0.12948166
137	0x3c88f4c5	0.016718278
138	0x3dfe5f1b	0.12420484
139	0xbda46d3b	-0.080286466
140	0xbd29c838	-0.04145071
141	0x3d662f96	0.056197725
142	0xbda5e9f2	-0.08101262
143	0xbde3f90d	-0.11131487
144	0xbc74df8b	-0.014945875
145	0x3de39f08	0.11114317
146	0x3df6ec95	0.12056843
147	0xbdb4d3f4	-0.08829489
148	0xbdb5365b	-0.08848258
149	0xbc993219	-0.018700646
150	0xbe0c0a09	-0.13675703
151	0xbda9358f	-0.082621686
152	0xbda9bc75	-0.082878985
153	0xbd093114	-0.03349407
154	0xbc45b8ac	-0.012067955
155	0xbddb4444	-0.1070638
156	0xbd2a6301	-0.041598324
157	0x3e103939	0.14084329
158	0x3d8db0b5	0.0691847
159	0x3d2e9400	0.042621613
160	0xbd897adb	-0.06712886
161	0xbbe2a206	-0.0069162874
162	0xbd43dae7	-0.047816183
163	0x3c009dde	0.0078501385
164	0xbe05c3fb	-0.13063042
165	0xbcd912e6	-0.02649827
166	0x3d87782d	0.066147186
167	0x3d072913	0.032998156
168	0x3dd36d90	0.10323632
169	0xbd0dca4b	-0.03461675
170	0xbc7557d0	-0.014974549
171	0xbdd745f4	-0.105113894
172	0xbd19eb6b	-0.037578028
173	0xbdeb4721	-0.11488176
174	0x3c9e6984	0.019337423
175	0xbca8d04e	-0.02060714
176	0xbdc4157c	-0.0957441
177	0x3da3571c	0.07975599
178	0x3e503563	0.20332865
179	0xbdd3d819	-0.10343952
180	0x3da85901	0.08220101
181	0xba6edde6	-0.0009112045
182	0x3c1d852b	0.009614269
183	0x3d676f6b	0.05650274
184	0x3c9bbfcf	0.01901236
185	0xbdfdce68	-0.123928845
186	0x3d7c6909	0.061623607
187	0x3db46279	0.08807845
188	0xbd8ae469	-0.06781847
189	0xbda54fc2	-0.08071853
190	0xbdd891f5	-0.10574714
191	0xbd809f60	-0.06280398
192	0xbd49bdc5	-0.049253244
193	0x3d444688	0.047918826
194	0x3c59231d	0.013253001
195	0x3df56fa1	0.11984182
196	0xbbb7c444	-0.0056081135
197	0xbbe2ee8e	-0.0069254106
198	0xbdae669b	-0.08515664
199	0x3dbc92a4	0.09207657
200	0x3e360273	0.17774372
201	0x3c4fec1d	0.012690571
202	0x3cbf922f	0.023385135
203	0x3d490d65	0.04908504
204	0x3c429cc5	0.011878197
205	0xbccfeda1	-0.025381865
206	0x3e1a224c	0.15052146
207	0x3d42bd8f	0.04754406
208	0xbd635a61	-0.055506114
209	0xbdc11661	-0.094280966
210	0x3de0b017	0.109710865
211	0xbdd1f9ab	-0.102526985
212	0x3cd3aded	0.02583977
213	0xbde7db1f	-0.11321091
214	0x3dd2dbe8	0.1029585
215	0x3df967e5	0.121780194
216	0xbdb364d8	-0.08759469
217	0xbc792bf1	-0.01520823
218	0x3d2b6d6a	0.041852392
219	0xbd6778da	-0.056511737
220	0x3e3a1ead	0.18175764
221	0xbded4ddb	-0.115871154
222	0xbc3de41e	-0.011590032
223	0xbe24416e	-0.16040584
224	0x3c9c0bb6	0.019048553
225	0x3de44805	0.11146549
226	0xbd1aa58f	-0.037755545
227	0x3d557982	0.052117832
228	0x3d97654f	0.0739237
229	0x3e089ffc	0.13342279
230	0xbd12a39e	-0.03580057
231	0x3e2af407	0.16694652
232	0x3e0061f0	0.1253736
233	0xbb9460fe	-0.004528164
234	0x3cd4128f	0.025887756
235	0xbd1ee595	-0.038793165
236	0x3e2c76a1	0.16842128
237	0xbcca127b	-0.024667015
238	0x3de27bef	0.11058795
239	0xbd83c1e2	-0.064334646
240	0xbbd21d56	-0.0064121885
241	0xbc587c15	-0.013213177
242	0x3d40f826	0.047111653
243	0xbd10a469	-0.035313044
244	0x3d4d510c	0.05012612
245	0xba057cad	-0.00050921255
246	0xbd99daa8	-0.075124085
247	0x3d826d32	0.063684836
248	0xbd34b3cc	-0.04411678
249	0xbd8565e3	-0.06513574
250	0x3df8f3ef	0.12155902
251	0x3deb6138	0.114931524
252	0x3ae937d4	0.0017793127
253	0x3d63d33c	0.05562137
254	0xbc0a9c30	-0.00846009
255	0xbc6fb0f7	-0.014629594

fc3.bias f4 [64]
0	0xbe1fc968	-0.15604174
1	0xbdba6b6d	-0.09102521
2	0xbdaedb4f	-0.085379235
3	0xbc8ef103	-0.017448908
4	0xbdc2bc0f	-0.095085256
5	0xbc8d8f9c	-0.017280392
6	0x3c9516e7	0.018199397
7	0xbb93fab9	-0.0045159725
8	0x3b76d773	0.0037665039
9	0x3c216052	0.009849625
10	0x3dfa33a7	0.12216883
11	0xbcc955c1	-0.024577023
12	0x3d7f2627	0.062292244
13	0x3d98ad4a	0.07454927
14	0x3ce2051a	0.027590323
15	0xbd4ff1d3	-0.05076773
16	0xbdcec5ac	-0.10096297
17	0x3c0ad6fd	0.008474109
18	0xbc12691a	-0.008936191
19	0xbdc39da0	-0.09551549
20	0xbc6d3cff	-0.014479875
21	0xbddad1ce	-0.10684548
22	0x3d572589	0.05252603
23	0xbe0bf74c	-0.13668555
24	0x3da0e056	0.07855289
25	0xbd33c521	-0.04388917
26	0xbd6a9c63	-0.05727805
27	0x3deb1017	0.11477678
28	0xbced5204	-0.028969772
29	0x3ba149ba	0.004922119
30	0x3c605862	0.013692947
31	0xbce3c81c	-0.02780538
32	0x3c060a4d	0.008181167
33	0xbbf3be1d	-0.0074384348
34	0xbdf13276	-0.11777203
35	0xbd823236	-0.06357233
36	0x3e2699b2	0.16269568
37	0xbb8d56df	-0.0043133344
38	0xbccc15b9	-0.024912702
39	0x3cd625c2	0.026141051
40	0xbd9b5e99	-0.075864024
41	0xbc5e1fa3	-0.0135573475
42	0xbd94d937	-0.07267993
43	0x3df619fa	0.120166734
44	0x3d4894d6	0.048970066
45	0x3d02df2c	0.031951115
46	0x3cd31dfd	0.025771135
47	0x3db3e943	0.087847255
48	0xbc13c3d1	-0.009018854
49	0x3e075f1c	0.13219875
50	0xbd30aca3	-0.04313339
51	0xbc70e1f3	-0.014702308
52	0xbccf6530	-0.025316805
53	0xbd9ac326	-0.07556753
54	0x3d0fc89f	0.035103437
55	0x3db285bc	0.08716914
56	0x3de22e7b	0.11044022
57	0xbd80e519	-0.06293697
58	0xbd520dee	-0.051282816
59	0xbdcd8a71	-0.10036171
60	0x3d9b2973	0.07576265
61	0x3b4935d6	0.0030702255
62	0xbd8781a6	-0.06616525
63	0xbd67808d	-0.05651908

out.weight f4 [2, 64]
0	0xbd18559d	-0.037191022
1	0xbd862f20	-0.06551957
2	0x3da9e08e	0.082947835
3	0x3dfd91c8	0.12381321
4	0x3de488a4	0.11158875
5	0x3e48f7c8	0.19625771
6	0x3dcc2828	0.09968597
7	0x3be9e714	0.0071381424
8	0x3d5c6242	0.053804643
9	0xbbbc0d74	-0.0057389084
10	0x3c3aa99e	0.011392979
11	0x3de5a3da	0.11212893
12	0x3e32d948	0.17465699
13	0x3e398e38	0.18120658
14	0x3d11ac79	0.035564873
15	0x3d5c56d1	0.053793732
16	0x3e80d9a8	0.2516606
17	0xbde433e4	-0.1114271
18	0x3d203115	0.03910931
19	0x3e8c4e22	0.2740336
20	0x3e1b07a7	0.15139638
21	0x3de9899e	0.114032015
22	0x3df94893	0.121720456
23	0x3dba77ef	0.09104907
24	0x3e4ec3af	0.20191835
25	0xbdb83b97	-0.08995741
26	0x3d5128ba	0.05106423
27	0x3de5d6c7	0.11222606
28	0x3c66a381	0.014077068
29	0x3e34bb72	0.1764963
30	0x3e66cd59	0.22539271
31	0xbdaba8f9	-0.08381838
32	0xbcfa3932	-0.030544851
33	0x3de1d101	0.110261925
34	0x3db14f66	0.08657722
35	0xbdc10b4c	-0.09425983
36	0x3de3211b	0.11090299
37	0xbd45dd97	-0.048307028
38	0x3def4878	0.11683744
39	0xbd831e76	-0.06402294
40	0xbc9561f2	-0.01823518
41	0xbd30c49f	-0.043156262
42	0x3e598c94	0.21245033
43	0x3dd435b1	0.10361803
44	0x3c900330	0.017579645
45	0x3d32c9e4	0.04364957
46	0xbd276e43	-0.04087664
47	0x3dd6d172	0.10489167
48	0x3e0e6cfc	0.13908762
49	0xbd360d3a	-0.044446208
50	0x3c8c7b8f	0.017148761
51	0x3dcfe8ee	0.1015185
52	0x3e68a535	0.22719271
53	0x3c0755e0	0.00826022
54	0x3da289b0	0.07936418
55	0x3d84ffe5	0.064941205
56	0x3d1701a5	0.036866803
57	0xbda9b811	-0.08287061
58	0x3d90283e	0.070389256
59	0xbd399385	-0.0453067
60	0x3e948fbd	0.29015914
61	0xbd653fe7	-0.055969145
62	0xbd5e061a	-0.054205038
63	0x3d9aeac7	0.075643115
64	0xbd49bd8d	-0.049253035
65	0x3bc8d327	0.006128687
66	0xbc8ee22c	-0.017441832
67	0xbd8a202c	-0.067444175
68	0xbd3a813a	-0.045533396
69	0xbba89fe4	-0.0051460136
70	0x3c82ca92	0.015965734
71	0xbd804013	-0.06262221
72	0x3c47ffa1	0.012206943
73	0x3b7e138f	0.0038768982
74	0xbd906c2b	-0.070518814
75	0xbc1c1227	-0.009525812
76	0x3b39964b	0.0028318341
77	0x3c811a27	0.01575954
78	0x3c121209	0.008915433
79	0x3cb288cd	0.021793747
80	0xbcc9ff59	-0.024657892
81	0xbba83cea	-0.0051342146
82	0xbd27ec11	-0.040996615
83	0x3c555e1e	0.013022928
84	0x3c93cdf7	0.018042548
85	0xbc271cb2	-0.010199713
86	0x3c2a9e74	0.010413755
87	0x3a95e4c0	0.0011435971
88	0x3c34a9c6	0.011026805
89	0x3c1ba779	0.009500378
90	0x3a4d874d	0.0007840291
91	0x3c0f529c	0.008747723
92	0x3d01932d	0.0316345
93	0xbcf9063c	-0.03039848
94	0x3cb6b9ea	0.022305448
95	0xbbcfa9ba	-0.0063373717
96	0xbc859313	-0.016305482
97	0xbca2791b	-0.019833138
98	0xbd7464ce	-0.059666447
99	0xbb9cc450	-0.0047841445
100	0x3d1c8303	0.03821088
101	0xbb19ee7e	-0.00234881
102	0xbbeedf8b	-0.007289832
103	0xbb20c117	-0.0024529153
104	0xbb19f0ab	-0.0023489397
105	0xbd146efb	-0.03623865
106	0x3b070857	0.0020604336
107	0x3ce5b76b	0.028041562
108	0xbd4d6cf6	-0.05015274
109	0x3d06d0a2	0.03291381
110	0x3d3dc08f	0.046326216
111	0xbd191da6	-0.03738179
112	0x3c451698	0.012029313
113	0x3c7bf124	0.015377317
114	0x3cdae806	0.026721966
115	0xbc6200ee	-0.013794167
116	0xbb614f02	-0.0034379368
117	0x3d2169f3	0.03940768
118	0xbb661d88	-0.0035112817
119	0xbd136fcf	-0.0359953
120	0x3ce376dd	0.02776664
121	0xbc38cb37	-0.011278919
122	0x3c82fd41	0.015989901
123	0x3a4a709f	0.00077224703
124	0xbc152d5e	-0.009105055
125	0xbd85ded4	-0.06536642
126	0x3c36e8bb	0.011163886
127	0x3ca91f7f	0.020644901

out.bias f4 [2]
0	0x3d9f3108	0.07773024
1	0xbd6e1be2	-0.05813206
