Pretrained_Model/models/Umbumping_cars_V2.pth (torch, 38840 bytes, 8 tensors)

fc1.weight f4 [64, 6]
00000000: 78e2 163e f67c 9ebc 6bdd 1cbf 820b 843d
00000010: ba2a 2a40 6e9c dc3c 8a2b 4fbe 215a 333e
00000020: 94a3 d53e 848f 953e 7d47 33c0 a259 273e
00000030: 97cc ae3e 7327 9b3e 8108 e6be ca5f 46be
00000040: d615 56bf f3d7 b5bf c4df 8e3e dfce ffbe
00000050: be4f f93c 11a1 4a3d 7cfd 84bf c304 fcbd
00000060: 7f2f d03d 5e8c ecbe 5467 1a3e d16d 033f
00000070: f6a3 d63f d242 8cbe 36b5 23bf 9243 a8bd
00000080: 3439 563c 7608 903c b05d fe3f 1174 383e
00000090: 017f babe 220b b9bd 2de6 363f 1a90 cc3e
000000a0: 8f5c 653f 46e2 043f 79db 59bd 5d68 40be
000000b0: 5ef0 3d3e 3341 9e3e d71b b1bf 790d 7d40
000000c0: 86cd 37be 8d1e 05be 1a9d 063e 243e 1e3e
000000d0: 5fb2 1fbe a63d aa3f dda6 44be 24e7 533d
000000e0: 764e ac3e 4563 b4bd 2dc8 963d df52 ddbe
000000f0: a47f 1abf 1fc6 c1be 21a0 aa3e 681c 4a3e
00000100: f6df ac3f 78b0 b4bd a551 883e c5d5 b63e
00000110: 5ed8 72be 1a1f 22be bc42 86bf 84ea 1fbf
00000120: 2a15 94be bb3c 38bf d903 7e3e bc37 da3e
00000130: 6661 20c0 4f37 4cbe 0a0b 8c3e 9987 9c3e
00000140: eede 27be 34da 53be 4ed4 16c0 bd24 01bf
00000150: 3c04 8bbe 98eb b0be 551b 8a3e 005f 863e
00000160: 33bd 0a40 0791 043f 8f94 793e 2fd3 583e
00000170: 5d84 a43e 00e6 8f3e 1255 33bd 445a 42be
00000180: 483d c83e a2e6 6e3e 1ced d3be 566b 31be
00000190: b76c 8dbf ae5d 4cbe 4808 be3d 9508 d23e
000001a0: bca1 2fbe 9fb8 763d 881d d2bf f69f 323d
000001b0: 94db c3be e4eb 803c fe9b 8d3e 79ba 293d
000001c0: ff70 44bf 485a 0dc0 e04f 3c3f 841c cebb
000001d0: 10bd 86be 9bbd 793e 41be f4be f4ab 2cbf
000001e0: 92b2 93be 0f9f 243e b6a3 983e 2dcc 953d
000001f0: 8bbd d83f cba2 95be 6140 babd 26fc 0b3e
00000200: 04f1 043e b7d2 63be 3ed5 5abf fb29 ff3b
00000210: ce0e 04be bd73 f7bd 3d64 4cbe af07 8bbd
00000220: ea64 a13f 0f46 d93e ab06 1d3e 4078 c7bd
00000230: 00dc e4bc 4641 283e 40f2 bdbf 3cac b53d
00000240: f5f0 133f 0eef b33e f267 b2be eb7a f7bd
00000250: e0fc 7240 9cdf 98bc 1b42 a63e cbb9 b1bc
00000260: e806 6cbe 7fb1 89bd 903d 953f cbaa 3040
00000270: 40ac a8be e219 853e 9c0f 753e b901 abbe
00000280: 084f c2bf 1931 9bbe 5b7e 81bd 2c25 d0bd
00000290: 38d5 b2bd c282 973d f133 a73e 0292 e0bf
000002a0: 1905 3abf 3797 dbbe e25a 8d3e 31fe d03e
000002b0: d29b a13f b2ef 14bf bd0e 04bf 5148 abbe
000002c0: 2b1f bf3e 2cb5 b23e 2a3f 8f3f 73d1 0940
000002d0: d230 17bf fd3a 683d 5f31 463e 063d cdbd
000002e0: 9fd9 c23f bd41 08bf 0d46 1fbe 92bf 67bd
000002f0: c786 c03d 6768 093d 483e 833f 747d 1bbe
00000300: e7af 13bd f07e 41be 4ed0 4d3e 9ef1 a43e
00000310: 01d3 9ebf cb88 8040 4997 e73e 2c82 0a3e
00000320: b708 193c 161c 2b3d 8e9e 8f3f 0ec3 8bbe
00000330: aa13 e53e f9fe 0fbe 9360 90be 1cf2 443e
00000340: 8209 2bbf ccb3 6abf fa92 8d3e 6d61 72be
00000350: 4028 bd3d 9a0f a13e 448f f7bf 111c 6c3e
00000360: 3f7a fdbc 3d88 f5be 4ca7 7c3e bb5e b43d
00000370: 2b05 eebf 10ed 78bd 67f8 283d 545e fabd
00000380: 3a8f 643e b385 a3be eca1 3fbe e617 373d
00000390: 877b ed3d 3813 01bf 7a51 393e 5855 253e
000003a0: 3559 f43f 4867 8bbb d333 d03e 668f 43bf
000003b0: 86e9 a1be 99ae 173f 80a7 2840 dd77 533d
000003c0: 4f53 a23e 89da 053e 3939 9abe 65ac b6bd
000003d0: 8690 b9bf 5853 fd3a ba8e 763e 3380 cabe
000003e0: aa2b 62be bc6b 6a3e d1be 2240 a751 86bf
000003f0: 2825 0ebf ea0c abbc f157 42bd aa02 72be
0.14734828 -0.019346695 -0.61275357 0.064475074 2.6588578 0.02693006 -0.20231453 0.1751485
0.41726363 0.29211056 -2.8012383 0.16342786 0.34140465 0.30303535 -0.44928363 -0.19372478
-0.8362707 -1.4206527 0.27905095 -0.49962518 0.030433532 0.04947001 -1.0389857 -0.12305596
0.10165309 -0.46200842 0.15078479 0.5133944 1.6768787 -0.2739473 -0.6394838 -0.08216013
0.013075162 0.01758216 1.9872341 0.18013026 -0.3642502 -0.090353265 0.7144497 0.3995369
0.8959436 0.51907766 -0.05318782 -0.18789811 0.18548724 0.30909118 -1.3836621 3.9539473
-0.17949495 -0.12999935 0.13145867 0.15453392 -0.15595387 1.3300064 -0.19204278 0.051734105
0.3365361 -0.08807997 0.07362399 -0.43227288 -0.60351014 -0.37846467 0.33325294 0.19737399
1.3505847 -0.08822721 0.2662479 0.35709968 -0.2371535 -0.15832177 -1.0489116 -0.6246722
-0.28922397 -0.7196767 0.24806155 0.42620647 -2.5059447 -0.19942974 0.27352172 0.30572203
-0.16393635 -0.20688707 -2.356708 -0.50446683 -0.27151668 -0.34554744 0.26973978 0.26244354
2.1677978 0.51783794 0.24373077 0.2117431 0.32132235 0.28105164 -0.0437823 -0.18979746
0.39109254 0.23330167 -0.41391838 -0.17326102 -1.1048802 -0.19957611 0.09278923 0.41022173
-0.1715154 0.060234662 -1.6415262 0.043609582 -0.38253462 0.015737481 0.27658075 0.0414376
-0.7673492 -2.2086353 0.7355938 -0.0062900204 -0.26316118 0.24388735 -0.47801402 -0.6744988
-0.28847176 0.16076301 0.29812402 0.07314334 1.6932844 -0.29225764 -0.090943106 0.13670406
0.12982565 -0.2224835 -0.8548163 0.007786987 -0.12896273 -0.12082622 -0.19960113 -0.06788575
1.2608922 0.42436263 0.15334575 -0.09739733 -0.027936935 0.1643115 -1.4839554 0.08870742
0.57789546 0.35143322 -0.3484493 -0.120839916 3.7966843 -0.018661313 0.3247231 -0.021695038
-0.2304951 -0.06723308 1.1659412 2.7604244 -0.32943916 0.2599631 0.23931736 -0.33399752
-1.5180368 -0.30310896 -0.063229285 -0.1016334 -0.087320745 0.07397987 0.32656816 -1.7544558
-0.7266403 -0.42888805 0.276084 0.40818933 1.2625678 -0.58178246 -0.5158499 -0.3345361
0.37328467 0.34903848 1.1191151 2.1534088 -0.5905887 0.05669688 0.19354771 -0.10021405
1.5222663 -0.5322531 -0.15554066 -0.05657918 0.09400707 0.03354683 1.0253382 -0.15184575
-0.036056425 -0.18896079 0.20098993 0.3221559 -1.2408143 4.0166984 0.4523261 0.13526219
0.009340457 0.04177483 1.1220262 -0.27297252 0.44741565 -0.14062108 -0.2819868 0.19232982
-0.6681138 -0.916806 0.27651197 -0.23669977 0.09236193 0.31457216 -1.9340596 0.23057581
-0.03094208 -0.47955504 0.24673194 0.08807131 -1.8595327 -0.060772955 0.04125252 -0.12225023
0.22320262 -0.31937942 -0.18714112 0.044700526 0.115958266 -0.5041995 0.18097487 0.16145837
1.9089724 -0.0042542554 0.4066454 -0.76390684 -0.31623477 0.5925079 2.6352234 0.051627982
0.31704184 0.13071646 -0.30121782 -0.089196004 -1.449723 0.0019327207 0.24077883 -0.39550933
-0.22086969 0.2289266 2.5428965 -1.0493668 -0.55525446 -0.020880181 -0.04744715 -0.23633829

fc1.bias f4 [64]
00000000: f7ca 473f eeac 2bbf 1113 5ebf 3bf4 d43e
00000010: be3f 94bf 4775 f23e 0a73 bcbf 20cc e13e
00000020: 9f6c f8bf ddbb 48bf 7242 e4bc e23c f03e
00000030: 1333 1abf d194 79be da6d a53f 3e03 19bf
00000040: 29ec 8fbf e994 903e 77a8 093f d9b6 f63f
00000050: 4ec5 30be 9395 aabf 6de4 cf3e 0b2b 0abf
00000060: c07a 6c3e 5b2d 873e 5cea d93f 4a93 063f
00000070: 9677 70bf ce43 1abf 43a0 bd3f c073 07bf
00000080: 077c c63e b4fd 493d 8b26 3a40 bcb7 e83c
00000090: 6481 71be 9d18 b3bc b914 d0bc 4698 01be
000000a0: 5228 03bf 01bd d8be 22f7 cabe 5ad8 a9be
000000b0: 116e 953e 8337 8bbe 089a 05bd 58b2 a73f
000000c0: 3b1b 24bf 0081 5bc0 847a a23d 81dc 4c3d
000000d0: 353d 4abf 6db0 20bf 2be1 303e a5ca 6fbf
000000e0: 8335 2040 025e 32bf e941 c73f f190 a9be
000000f0: edfa 5cbe f742 02bf 9a58 e9bd 06ed 4abf
0.78044075 -0.67060745 -0.86747843 0.41592583 -1.1581953 0.473551 -1.4722607 0.44101048
-1.9408149 -0.78411657 -0.027863715 0.4692145 -0.60234183 -0.24373175 1.2924149 -0.5977057
-1.1243945 0.2823861 0.5377268 1.9274551 -0.17262766 -1.3326896 0.40603963 -0.5397193
0.230937 0.2640179 1.7024646 0.52568495 -0.93932474 -0.6025971 1.4814533 -0.52910995
0.387665 0.049314216 2.9086025 0.028407924 -0.23584515 -0.021862322 -0.025400506 -0.12655744
-0.512334 -0.423317 -0.39641672 -0.33172876 0.29185537 -0.2719079 -0.0326176 1.3101301
-0.6410405 -3.4297485 0.07933524 0.050014976 -0.78999645 -0.62769204 0.17273395 -0.93668586
2.503266 -0.69674695 1.5566989 -0.33118394 -0.21580096 -0.5088343 -0.113938525 -0.7926792

fc2.weight f4 [64, 64]
00000000: 4581 90bd 8164 783d 4bd2 723d 63ab 723d
00000010: 76af 303e d328 60be aaa5 febe f9ff dabe
00000020: 39ee d63e 650e 993d 531b 58be 1626 c13e
00000030: 1e61 8ebe 01bb 8a3e 9257 c3be 1d47 4bbe
00000040: 2474 9fbd cbab c93d 8a08 06c0 1cc5 b4bf
00000050: de07 7f3d 3cc9 f03c 9ac9 3bbe 7f72 683d
00000060: 8eb6 87bd 15ef 4a3e 2f4a 00be ec73 babf
00000070: 9baa 6dbe d87d 31bf cdde 40bf 17ed 21be
00000080: d448 bcbe 0513 5bbe cc6c f33e 52b3 7abd
00000090: e61e 85be 1a40 89be efd8 42be f212 1f3e
000000a0: fb84 11be a3c1 913d 1428 1cbe e2a6 86be
000000b0: e850 29be 73e8 02be 82e8 f3bb f154 abbe
000000c0: 1180 f6be 6b67 fbbe 7512 4cbe b26b 82bd
000000d0: 61d9 b93d 7b76 90be b7c4 b5be b4be 8cbd
000000e0: 03ff 60bf 98cd 36bd 7230 bd3f 63ff e8bd
000000f0: dbf6 72bd ee99 51be 6686 8f3f e254 f4bd
00000100: d4e9 953d 0180 0b3d 7fa9 c3bd a96f 98bc
00000110: 1b38 403e b467 68be 9b6a 18be 6a66 d2be
00000120: 0918 d93e f660 fe3c 9e78 a7bd 2292 263e
00000130: af13 3bbe 800c a53e c9e5 ba3d bccc 133d
00000140: 065c 80be 1c4a c5bc 47f1 07c0 492e 9dbf
00000150: 527c c73d da1d 773d 6793 98bc 3dfa 033d
00000160: d411 be3e 5910 ce3e e9c7 d0be b8e9 b2bf
00000170: 2e47 c1bd 5697 1cbf cd3d 75bf 456a 4a3d
00000180: e3a1 14bf 7688 c7bc c03a d33e 062d edbd
00000190: 14e3 60be caf0 f7bb a44c be3d d18b 1c3e
000001a0: a2c7 0cbe 4697 633c f0e2 133d 401a f7bd
000001b0: 18ed 6ebd f297 81be 05cd 513d 090b 62be
000001c0: 4f65 adbe cc2e 51bf 0729 bdbd ab16 f73d
000001d0: e41b 763e e045 15bf c225 023d fc2c 8abb
000001e0: bcab a3bf 7fe9 8dbe ba9f ad3f eef3 27be
000001f0: 29f2 8dbd 869e 67be 09cb d03f 64cf 493e
00000200: 801c 303e 9112 88be f080 123f 0d47 093c
00000210: ca60 a33d b22a d4be 1585 b9bd c6b6 983e
00000220: 6bd4 28bf c00b f2bd e073 dcbd 50e8 273b
00000230: 9756 273c 303b 46be a0be cebe 5363 b0bb
00000240: cb54 9a3d dad8 253d d666 963f 64a7 873f
00000250: 2939 b6be 5bff 78bd c9d5 07be 4a15 5a3e
00000260: 148f 80be 84ad 52bf 2483 10bd 3b4f 6c3f
00000270: 1036 46bd 0075 653e 9e56 eebc f15a ddbe
00000280: 2785 ce3e d43e abbe 65ae 5bbf 3138 9e3e
00000290: 4f3a c03d ea81 92bd c53f e4bd 329e dbbe
000002a0: 4ff4 803e 2c9b 313e d48c c1be 902d 74be
000002b0: c85a 95be ede1 2bbe 2545 6fbe 104c 983c
000002c0: fe53 19bf 14d5 073f ec5c f63c b02c 55be
000002d0: cb42 f3be 7032 953e c991 54bf 0459 8a3d
000002e0: 4353 7c3f 66ed 0cbe 0e5d c5bf b1f7 973d
000002f0: 872e 72bd d697 343e 91b1 03c0 f1c3 febe
00000300: 1160 01be f630 02be b0a1 8a3e 7fcc db3e
00000310: f494 833e 46e6 83bf 6b2d 4a3e 7d5f ca3e
00000320: d540 9ebe b906 af3e 19ac 0ebf dfd2 c23b
00000330: 87f0 fdbb 20ad 873e be02 3dbf 3ad5 293e
00000340: 0310 ce3d 20c0 a33e c41f 29bf fcc7 1e3f
00000350: 1a39 17be 6e06 6a3e 4666 34bf 6f4b ef3e
00000360: 9386 15bf c047 79be 886b 9bbc 239a 12bc
00000370: 2baf 0dbf 5fc4 283e cea5 4ebd a6b9 09bf
00000380: 8d6d ca3e 475e 57bf 5848 02c0 b387 b83e
00000390: 299b e33e 1d9d acbd 3d3b 0fbe 2d67 42bf
000003a0: b0bc e93d 1101 493e 5cbb 8abe 1f4d 1bbf
000003b0: e3f8 c1be 27ab a2be 0deb 203d 6f6a 18bc
000003c0: 9861 cfbe bfcd 083f a0db 3dbd 6107 6dbe
000003d0: 84d0 1dbe b124 a03e 40b3 28bf 46b0 92be
000003e0: e2e9 583f 7f99 4cbe 7eb3 a4bf 83b7 c13d
000003f0: 2fe8 05be 13e7 8a3e a1fc b7bf fd1b 36bf
-0.07055906 0.060642723 0.059282582 0.05924548 0.17254433 -0.21890573 -0.49735767 -0.42773417
0.41978624 0.07473449 -0.21104173 0.3772437 -0.2780847 0.27095798 -0.38152748 -0.19851346
-0.07785824 0.0984722 -2.0942712 -1.4122653 0.062263362 0.029392831 -0.18338624 0.056749817
-0.066266164 0.19817765 -0.12528299 -1.4566627 -0.23209612 -0.6933265 -0.75339967 -0.15813099
-0.36774313 -0.21393974 0.47543943 -0.06120617 -0.26000136 -0.26806718 -0.19028066 0.15534571
-0.14210884 0.071170114 -0.15249664 -0.26299196 -0.1653477 -0.12783985 -0.0074434886 -0.33463243
-0.48144582 -0.4910234 -0.19928916 -0.063681975 0.09074665 -0.28215393 -0.35501644 -0.06872311
-0.87889117 -0.044629663 1.4780409 -0.11376836 -0.05931745 -0.20468876 1.121289 -0.119302526
0.0731999 0.03405762 -0.09553813 -0.018607931 0.18771403 -0.2269581 -0.14884417 -0.4109376
0.4240115 0.031052094 -0.08177303 0.16266683 -0.18269227 0.322361 0.09125859 0.03608392
-0.25070208 -0.02408319 -2.1241014 -1.227975 0.09740509 0.060331203 -0.018624974 0.032221068
0.37122977 0.40246847 -0.4077752 -1.3977575 -0.094374046 -0.6116842 -0.95797426 0.049417753
-0.5805952 -0.024357062 0.4125576 -0.11580853 -0.21961623 -0.007566546 0.09291962 0.1528771
-0.13748029 0.013891047 0.036105096 -0.12065554 -0.05833158 -0.25311238 0.051220912 -0.22074522
-0.33866355 -0.8171203 -0.09236341 0.120648704 0.24034077 -0.58309746 0.03177429 -0.0042167883
-1.2786784 -0.27717206 1.356437 -0.16401646 -0.06930954 -0.22619066 1.6311961 0.1970802
0.17198372 -0.26576665 0.57227993 0.008378756 0.079774454 -0.41438824 -0.090585865 0.29826945
-0.65949124 -0.118186474 -0.10764289 0.0025620647 0.010213516 -0.19358516 -0.4037981 -0.005382934
0.07535704 0.04049001 1.1750133 1.0597959 -0.35590485 -0.0607904 -0.13265146 0.21297184
-0.2510916 -0.82296014 -0.035281315 0.92308396 -0.0483914 0.22407913 -0.029094037 -0.43233445
0.40335962 -0.33446372 -0.8581298 0.30902246 0.093861215 -0.071536854 -0.111449756 -0.4289413
0.25186393 0.1734435 -0.37802756 -0.23845506 -0.29170823 -0.16785403 -0.2336622 0.018590957
-0.59893787 0.53059506 0.030073605 -0.20817828 -0.47511896 0.29140043 -0.8303495 0.0675526
0.9856455 -0.13762435 -1.5419023 0.0742029 -0.059126403 0.17636046 -2.0577128 -0.49758866
-0.12634303 -0.1271399 0.27076483 0.42929456 0.2569958 -1.0304649 0.19743888 0.39525977
-0.30908838 0.34184816 -0.5573135 0.005945548 -0.0077496204 0.2649927 -0.7383231 0.16585246
0.10061648 0.31982517 -0.66064095 0.620239 -0.14767876 0.22854015 -0.70468557 0.4673724
-0.5840847 -0.24343777 -0.018972173 -0.008947882 -0.5534541 0.1648116 -0.050451092 -0.537989
0.39536706 -0.8412823 -2.0356655 0.3604103 0.44454315 -0.084284045 -0.13987441 -0.75938684
0.114129424 0.19629313 -0.2709607 -0.6066455 -0.37885198 -0.31771204 0.039286662 -0.0093027195
-0.40504146 0.53438944 -0.04635203 -0.23147346 -0.15411574 0.31277993 -0.65898514 -0.2865011
0.84731877 -0.19980429 -1.2867277 0.0945883 -0.13076852 0.2712942 -1.4373971 -0.71136457

fc2.bias f4 [64]
00000000: 6012 43be 023d 56be 396e 6cbd 5421 f7bb
00000010: 3f1c b7bc 6a07 c1bd 34c1 3f3d 9a1f 6cbe
00000020: 43c2 c8bc db52 8a3d 868a a1bb cb43 9ebe
00000030: c636 373d 3b44 2c3d 5335 d7bd a2f1 913d
00000040: 6840 50bd 7cb4 18bd 7e42 abbd bfe2 11bb
00000050: 9111 dbbd cb4d ebbd e91c 3c3d 48f8 543c
00000060: 49e3 f9bd 1813 0cbe 28f6 6cbe f8d4 033e
00000070: 1fab 89bd 0c89 2dbc 8954 00bd ff7d b7bd
00000080: 6de6 06be f50c a5bb 8d26 943c 64f4 9abe
00000090: 6dc2 d4bc c975 da3c 37d5 a7bd 0d6f bf3c
000000a0: 197b 103b cb80 14be 4935 a5bd 823a 1d3d
000000b0: fd49 09bd d540 4bbd 44e3 9b3b ab97 57bd
000000c0: ba94 613c 69c4 5dbe e8af a5bd ae8d b0bd
000000d0: 6c18 46bd ea09 9bbd c250 0dbe b076 bf3a
000000e0: 5e5d e2bd 6e4f eabd 185d b9bd c53c 663d
000000f0: 2388 04bd 3757 30be 48f1 b23d 40a6 4abd
-0.19049978 -0.2092171 -0.057722304 -0.007541815 -0.022352336 -0.09425242 0.046815112 -0.2305893
-0.024506694 0.06754085 -0.0049298434 -0.30911097 0.04472997 0.042057257 -0.10508218 0.07126166
-0.050842673 -0.0372815 -0.08362292 -0.0022260395 -0.1069671 -0.11489447 0.04592601 0.012998648
-0.12201554 -0.13679159 -0.23140776 0.1287421 -0.06722092 -0.010591757 -0.03133062 -0.08959579
-0.13173838 -0.005036945 0.018084789 -0.3026458 -0.025971616 0.026667492 -0.081949644 0.023368383
0.0022046028 -0.14502256 -0.08066804 0.038385876 -0.033517826 -0.049622376 0.004757317 -0.052634876
0.013768369 -0.21656956 -0.08090192 -0.08620773 -0.048363134 -0.0757025 -0.13800338 0.0014607515
-0.11052965 -0.11440931 -0.09050959 0.056210298 -0.032356393 -0.1722077 0.08737427 -0.049474955

fc3.weight f4 [64, 64]
00000000: d59d 8e3d 5274 273e 1fd0 19be 2cf2 45bf
00000010: 7377 733e 07c3 c43e fe00 6f3e 30a2 443e
00000020: 7171 8cbe e1b0 c93e 25b8 8c3e 916c 3cbf
00000030: aea7 9ebe 8aa2 88be 2819 87be f212 2dbf
00000040: c546 9dbe a17e 743e 5102 923c 9893 713e
00000050: 6af3 96be 5d05 a4be 971c b5be c0b4 0cbc
00000060: 3a49 05bf d80d 943e df02 92be 7d81 e7be
00000070: 11fc c73e cdf4 dbbe 6d13 8cbe 6f60 4e3e
00000080: 9676 00bf a0f0 ef3d 19bc 193e 16fa 1e3e
00000090: 251e b33e 6d68 ba3e cb6a 163e 2b7d 773d
000000a0: 1f0b cfbe 4853 ccbe d77f 81bd 17a1 a5be
000000b0: 64f1 b73e 87d6 8d3e d276 1f3e 057f 99be
000000c0: 200c 4a3f 676e 3abd e394 b03a ab91 e6be
000000d0: 3906 733f fe18 a0be 605c c2be 37e9 12bf
000000e0: 1280 c13e 5ec4 b13e 087a 7f3d 85e8 933e
000000f0: 6b93 00bf 0667 f2bd 926f a0be 4d12 99be
00000100: 3001 033d 7d73 263e dac1 a4be 3f75 38bf
00000110: ae5b b53e eb44 b83e 66a0 7c3e d179 f23d
00000120: 5d66 7cbe f3d1 b53e ee0d 223e c482 4abf
00000130: aaf3 b4be e96d d1be affb 86be 9900 22bf
00000140: 32ea 82be cc19 8f3e 2d75 49bd 3c29 5b3e
00000150: f360 a5be 847f 97be 16a3 dabe 62fd 19bd
00000160: 8675 38bf f0ea b53e 50d9 29be b6f6 cdbe
00000170: 1411 b13e 1190 e0be 0ec6 94be c0d1 8a3e
00000180: cdbc f0be c436 8e3e a0c2 5e3e 1acf b43d
00000190: 625e b23e ce9a a33e 73d3 f03d 3bce 573e
000001a0: aa00 dabe 91c7 a9be 9ea8 c43d aa38 8ebe
000001b0: 6816 3c3e 022a 953e 7a97 933e 165d d5be
000001c0: 1ac7 653f cdf9 523e 8c3e b33d 4d6a c6be
000001d0: 9b00 7c3f e983 85be 6e6f 9cbe 8275 e9be
000001e0: 0c65 3f3e 53d7 e23e 2f37 f23c 8a6e 653e
000001f0: 1ef6 a7be 67ed c7bd c12c 39bd 1438 adbe
00000200: 8641 07bf d15d 00bf 576a 3f3e dd59 ae3c
00000210: 72ad 00bf 8d2e 21bf 7f12 e2be b669 e4be
00000220: f961 ec3e 573a acbe c3d6 abbe 42b1 c5be
00000230: c4ad ba3e 70fb 863e 6d72 9e3e e1aa 9e3e
00000240: 3538 b63e cfb3 26bf edae 02bf f287 f7be
00000250: 7f58 793e 94ec c33e d075 f93e 17e9 35bf
00000260: 9f4d c23e 6d2d d6be 9d89 21bf 838d bc3e
00000270: 4a7f efbe eefe 1b3e 69b4 af3e 25d9 0fbf
00000280: 1f7d 0f3f 8ae5 613e 5dfe 07bf e001 cebe
00000290: 81a6 a8be f3d3 bebe a563 d3be a01a 28bf
000002a0: 4363 523e 6065 b83e 6046 043f dd56 4d3e
000002b0: 8396 b0be f2bf 9fbe e60d 1fbf 928e cf3e
000002c0: b42c 97be 285b 42bf 19bd 9bbe 87b3 773e
000002d0: 0c3a c43d 99da 8f3e 0028 593e b8d4 e13e
000002e0: d19d 2bbf 5363 03bf 23d0 bbbe aad1 09bf
000002f0: f780 e63e 2b1b 06bf 3652 e33e 7a42 043f
00000300: 5830 893e 2372 d23e 1a68 babe 1128 43be
00000310: faf9 033f bb71 b43e 8b4b ab3e 14c6 223e
00000320: 14e0 c2be b22b e23e bf3c 9a3e bc2f efbd
00000330: d4ff 51be d319 a8be 653f 99be 43ea e9be
00000340: 5dc6 debe fcc7 e93e 1741 f73e 2864 d03e
00000350: 9454 d9be 117e 8ebe e853 55be 53c3 1b3f
00000360: 3296 01bf 3c6b 063f f9ba 173f 7f4a 18bf
00000370: b06e dc3e b1a4 28be 34bc 04bf 39b0 003f
00000380: c0ae c0be 3c47 f8bd 4f9e 0e3f 90a0 743e
00000390: 564d 123f b0f6 063f f197 973e 672c 0a3f
000003a0: 784b 28be 96fb 82be d903 9abe 0d1e a3be
000003b0: 8210 fb3e a4b8 a63e 2c70 093f 995c e2be
000003c0: 1e28 0c3f 9c23 043f a5f1 9a3e 1717 a1be
000003d0: 48c8 f13e 2e56 9ebe d866 dabe 5f3a a6be
000003e0: c358 f43e bb57 df3e 2c28 883e b756 a73c
000003f0: e277 a2be eb04 283e 243a 93be 0db0 edbe
0.06963698 0.16352966 -0.15020798 -0.7732265 0.23776035 0.38430044 0.23340222 0.19202495
-0.274303 0.3939276 0.2748424 -0.7360316 -0.30987304 -0.26686507 -0.2638638 -0.67607033
-0.30718055 0.2387643 0.01782337 0.23591459 -0.29482585 -0.32035342 -0.35373375 -0.008588016
-0.5206486 0.28916812 -0.28517815 -0.4521598 0.390595 -0.42960206 -0.2735857 0.20153974
-0.5018095 0.117158175 0.1501316 0.15525088 0.34983936 0.36407796 0.14689176 0.060422104
-0.40438172 -0.3990729 -0.06323212 -0.32349464 0.35926354 0.27702734 0.1557267 -0.2997972
0.7892475 -0.045515444 0.0013472106 -0.4503301 0.9493137 -0.31269068 -0.37961102 -0.5738711
0.37793022 0.3472013 0.062372237 0.28888336 -0.5022494 -0.118360564 -0.3133512 -0.29896775
0.031983554 0.16254993 -0.32179147 -0.72053903 0.3542151 0.3599008 0.24670562 0.11839641
-0.24648423 0.3551174 0.15825626 -0.7910578 -0.3534215 -0.40904167 -0.26363894 -0.6328216
-0.25569302 0.2794937 -0.049184013 0.21402448 -0.3230053 -0.29589474 -0.4270255 -0.03759516
-0.72054327 0.35530806 -0.16586804 -0.40227288 0.34583342 -0.43859914 -0.29057354 0.27113152
-0.47019044 0.27776158 0.21753931 0.08828564 0.34837633 0.31954044 0.11759081 0.21074764
-0.42578632 -0.3316007 0.09602474 -0.27777606 0.18367922 0.29133612 0.28826505 -0.4167258
0.8975693 0.20603104 0.08752164 -0.38752976 0.98438424 -0.26077202 -0.30553764 -0.45597464
0.1869089 0.44304904 0.02956733 0.22405449 -0.3280496 -0.09762078 -0.045208696 -0.33831847
-0.52834356 -0.5014315 0.18692909 0.021283085 -0.50264657 -0.62961656 -0.44154736 -0.446119
0.46168497 -0.3363826 -0.33562288 -0.386118 0.36460698 0.26363707 0.30946675 0.30989745
0.35589758 -0.65118116 -0.51048166 -0.48345906 0.24350165 0.38266432 0.48722696 -0.7105879
0.37949845 -0.41831532 -0.63100606 0.36826715 -0.467768 0.15233967 0.3431733 -0.5619071
0.56050295 0.22060218 -0.531225 -0.40235806 -0.32939532 -0.3727108 -0.4128696 -0.65665627
0.20545678 0.36014843 0.51669884 0.20052667 -0.3448983 -0.3120113 -0.6213058 0.4053846
-0.29526293 -0.75920343 -0.30417708 0.24189578 0.09581384 0.28096464 0.21206665 0.44107604
-0.67037684 -0.5132343 -0.36682233 -0.53835547 0.45020267 -0.52385205 0.4439866 0.51663935
0.26794696 0.41102704 -0.36407548 -0.19058253 0.5155331 0.3524302 0.33456072 0.15895873
-0.38061583 0.44173962 0.3012447 -0.116790265 -0.20507747 -0.32832202 -0.2993118 -0.4568654
-0.43510714 0.45660388 0.48291847 0.40701413 -0.4244734 -0.27830556 -0.20832789 0.60844916
-0.50619805 0.52507377 0.5926967 -0.5948867 0.43053198 -0.16469075 -0.51849675 0.50268894
-0.37633324 -0.12122962 0.5571031 0.23889375 0.57149255 0.52720165 0.2960811 0.53974
-0.16435039 -0.2558257 -0.3008106 -0.31858864 0.49036032 0.32562745 0.53686786 -0.4421127
0.54748714 0.51616836 0.30262485 -0.3146293 0.47223115 -0.30925125 -0.4265659 -0.3246641
0.4772397 0.4362162 0.2659315 0.020427091 -0.31732088 0.16408126 -0.28755295 -0.4642338

fc3.bias f4 [64]
00000000: d513 d9bd e61c a0bd e614 59be 6566 2e3e
00000010: 320c 073d 6a24 9bbe 63d9 32be 2c8e b53c
00000020: 3231 87bd 8006 0e3e f079 123d e3e7 b5bd
00000030: 5fa1 043e 43bc 8f3c d181 a5bd e5a4 ccbd
00000040: afa5 2cbc f805 32be 1302 af3d 62ff a2ba
00000050: c9eb fdbc 1cc2 0c3e 6db7 b33b 1ca0 5cbe
00000060: 6a3d 50bd dae9 92bb 0ec7 263a fe27 3abe
00000070: 9eb1 8fbd 13a3 4dbe 11b1 e93c 42dc 173d
00000080: 18d7 8cbd b845 f63c e1f9 86bc 46f2 aa3d
00000090: a412 983d 1719 78bd 4a4d a9bc 077f c33d
000000a0: 66c1 f3bc 016f 083e 0b3c c3bd 02a6 c7bd
000000b0: a564 8f3d 2e9e f9bd 0af3 9abd c0e9 0fbd
000000c0: c7e1 ac3d 515f d3bd 3f50 7fbd 7c2a 8a3d
000000d0: 68d6 38be f0fc 1d3e e840 89bd 72e2 e6bd
000000e0: ed19 fbbd c131 93bd e8b0 82bd 2c33 2cbd
000000f0: a5e7 9fbd b334 383d 1199 e7bc 17d9 823d
-0.10599486 -0.07818012 -0.21199378 0.17031248 0.032970615 -0.3030122 -0.17465739 0.02216252
-0.0660118 0.13869667 0.03576082 -0.088821195 0.12952183 0.017545825 -0.08081401 -0.09992389
-0.010537549 -0.1738509 0.085453175 -0.0012435729 -0.03099622 0.13745922 0.0054845125 -0.21545452
-0.05083982 -0.0044834437 0.0006362059 -0.18179318 -0.070163 -0.20081739 0.028526815 0.03707529
-0.068769634 0.030062541 -0.016476573 0.08346991 0.074254304 -0.060570803 -0.020666737 0.09545713
-0.029755305 0.13323595 -0.09532937 -0.0974846 0.07001618 -0.121883735 -0.07565887 -0.03513503
0.08441501 -0.103209145 -0.062332388 0.067463845 -0.1805054 0.15428519 -0.06701833 -0.1127366
-0.12260804 -0.07187224 -0.063813984 -0.04204099 -0.078078546 0.044972133 -0.02827123 0.06389063

out.weight f4 [2, 64]
00000000: fb8f 89be 9ec4 c1be 8807 d33e bc7a d6be
00000010: 4b59 e1be cbb2 823e 461a 0a3f 0e7d 213f
00000020: 004c 3abf d763 cc3e b104 e3be 865b c13e
00000030: 370b f3be b751 3fbf 7224 96be 349d ce3e
00000040: 7176 a0be 4694 da3e d463 fbbe e7c7 c3be
00000050: 2cc8 97be c9e6 053f 4e86 02bf 1ae2 593e
00000060: 38fa c8be 8826 603e 1943 b2be 97f5 d43e
00000070: 3ade 893e d39a ad3e c8ac 99be 3a3a 183f
00000080: 369a cdbc 7be0 193f 6e4a 193f 3f15 3ebe
00000090: 8a38 e73e e264 d2bd 1e23 a73e 3c15 fdbe
000000a0: ca8d 97be fe20 c6be bf54 8f3e cb9c e2be
000000b0: 61e9 dfbe 3f9b db3e fa09 f7be 493e d2be
000000c0: 384d 2ebd 45d2 50bf 05ac b2be 14c4 f9bd
000000d0: 845e b03e ae1d d63e 4d95 d83e ce57 1bbf
000000e0: c0b7 b8be 5189 1b3f 7912 04bf 3f16 f8be
000000f0: 87f7 89be 2fd5 dc3e 2624 913c 3624 9fbe
00000100: 95b2 d13e f7df d33e 2411 1e3f 0cae 3abe
00000110: 463f 233f 18e6 39be e1a9 8e3e c535 34bd
00000120: 0fc9 33bd 53b1 96be 7bc3 943e 2b08 233f
00000130: f9dc 0abe abe9 d23d b9c0 b63e b6eb 97be
00000140: 94d2 20be a1b3 b13e 2f96 743e af7a 053f
00000150: 05d2 0a3f 3644 8abe 4d01 d2bd e076 223f
00000160: b54f a43e dffc d83e 75c0 b43e 1099 473f
00000170: 2ad5 583f d33b a2be dca9 0f3f 7fe1 303e
00000180: b90a 1abe e26b 73be 6aa2 a2be 94e4 f9bd
00000190: 3581 aabe 961c f43e 87fa 3c3f 0df3 14be
000001a0: 58c3 123f 607e 153f a7de 1b3f d513 903e
000001b0: 3f49 573e bd17 393f 2f4c 273f b31b 913e
000001c0: 847b e63e 2ef3 b03d df89 29be b076 053f
000001d0: b58c 2f3f 4578 9fbe 0027 583f d127 4b3e
000001e0: 2d6f cb3e 15cb 80be 0e74 f8bd 3999 1bbe
000001f0: a3c7 ab3e 5a51 a8be d691 35be d198 9a3e
-0.2686766 -0.3784532 0.41216683 -0.41890514 -0.44013438 0.25527033 0.5394634 0.63081443
-0.72772217 0.39919922 -0.44339517 0.3776514 -0.47469494 -0.7473406 -0.2932468 0.4035431
-0.31340364 0.4269125 -0.490996 -0.3823845 -0.29644907 0.52305275 -0.5098618 0.21277657
-0.39253402 0.21889699 -0.34816816 0.4159362 0.26927358 0.33907184 -0.30014634 0.59463847
-0.025097948 0.60108155 0.59879196 -0.18562792 0.45160323 -0.10273148 0.3264398 -0.49430263
-0.29600364 -0.38697046 0.27994344 -0.4426025 -0.4373274 0.4289188 -0.482498 -0.41063145
-0.04255411 -0.81570846 -0.34896865 -0.12195602 0.3444711 0.4181952 0.42301407 -0.60680854
-0.3607769 0.60756403 -0.5159069 -0.48454472 -0.2694666 0.43131396 0.017717432 -0.31082314
0.4095656 0.4138181 0.61744905 -0.18230456 0.6376842 -0.1815418 0.27863982 -0.04399659
-0.043892916 -0.29432163 0.2905539 0.6368434 -0.13560857 0.10298475 0.3569391 -0.2967202
-0.15705329 0.34707358 0.23885415 0.52140325 0.54226714 -0.27005166 -0.10254154 0.6346264
0.32092062 0.42380425 0.35303083 0.7796793 0.8470026 -0.31686267 0.5611856 0.1727352
-0.15043153 -0.23771623 -0.31764537 -0.12201801 -0.33301702 0.4767806 0.73819774 -0.14545842
0.5732932 0.5839596 0.60886616 0.2814013 0.21024035 0.72301847 0.6535062 0.28341445
0.4501611 0.08640133 -0.165565 0.5213423 0.68574077 -0.31146446 0.8443451 0.19839408
0.39733258 -0.2515494 -0.12131511 -0.15195169 0.33550748 -0.32874566 -0.17731413 0.30194715

out.bias f4 [2]
00000000: 6cfc 9238 dbeb 36bc
7.00884e-05 -0.011164631
