Pretrained_Model/models/Umbumping_cars_V1.pth (torch, 38840 bytes, 8 tensors)

fc1.weight f4 [64, 6]
00000000: b515 41bf 1fd6 0140 e197 0f3f 3b76 67be
00000010: 2fb5 a2bf 2995 0b3e fce9 7abf f9a5 f6bf
00000020: fa81 883f 00fb b8bf 2eb2 593f e9f2 5b3d
00000030: 36db 4fbf 138a 99bf 07d5 433f cfa4 9d3f
00000040: 7e1c 9e40 3b55 08bc cb59 9cbf ead8 8e3e
00000050: 46d0 363f 6f30 373f be2c 83c0 e011 c23e
00000060: 238a 05be 7a22 773f d104 92bf c6cc 223e
00000070: afa3 4440 e38c 013e af48 85bf 4258 63bf
00000080: 76a9 e0bf d9eb 4e3c c614 4940 cc69 ffbe
00000090: 36ea 183f 2295 aebf 0947 0cbf aa91 993f
000000a0: e99f 40bf 2f57 81be 4465 0bbf 9f57 41bf
000000b0: fa74 3cc0 142d bd3e 1786 4040 058f e63a
000000c0: 8062 29bf adcf aebf 8eab 1cc0 10ac 5b3f
000000d0: e2ef 86bc 90d8 203f de21 953f 5f5f 0f3f
000000e0: eab4 24c0 7558 f4be a26b 483e 0686 d63d
000000f0: a9a4 663f c118 de3f ec11 00bf b489 0840
00000100: 0f35 0140 f5ce 663f 4646 f1bf 9d52 c73f
00000110: 44c8 813f 0c59 da3d 2a74 5cc0 29ce fbbe
00000120: fd41 533e 0786 92be b70d b5be d4c2 fd3e
00000130: d405 4cbf 8dc0 a1bf be0d 0fbf 73cb cf3e
00000140: d0a9 193f 6a13 47be bf9f d3bf 28eb 78c0
00000150: f945 523f f9c9 bfbf 1336 e4bf c9c8 5f3f
00000160: a98c 32bc ca88 6ebe dcc1 4d3f 66fb d1bf
00000170: 9662 42bf 5e54 c73f 7d52 c740 eb7c ecb9
00000180: 669f 7cbf a483 1dc0 9f79 c53f d3fb 8cbe
00000190: 11b1 973f 0fc7 82be c5ec 6ebf 1252 d83d
000001a0: fcfb 323f cc16 9abd dcfb 5a3f a756 ac40
000001b0: e7bf 423f b9ea 5abe e758 37bf bf8a aabf
000001c0: 10f8 95bf 18bd 8f3c eb6e 5e3f d7c7 4d3e
000001d0: feb6 513f d4dc b5bd 504f a640 ff26 9bbe
000001e0: 7723 a53e 7efd 78bf 102e 10bf 907d 6abf
000001f0: 61e2 50c0 b31a 88be 8d16 4bbf cd9c de3e
00000200: 96eb 40bf 772e 0140 8719 36bf 3737 29bf
00000210: 1490 aabf a315 e43f d35a 12bf a98a c83f
00000220: 0135 38bf 4192 a53d d090 3bbf 35e3 803e
00000230: 0b93 363f 2151 66be 5424 07c0 b4d6 a7bf
00000240: cbd6 0d3c 550f bfbe 9266 2ebf f8dd 013e
00000250: d3eb cbc0 2ec0 6f3c ab76 a2be a495 3b3f
00000260: 52b7 243f 9933 8dbf e321 7f3f 4fd4 abbe
00000270: 5b70 4a40 40cb 363f 7b9e a43e 8390 aebe
00000280: 77f2 1c40 ce16 643c b07b c1be 48dc 723f
00000290: b059 983e 4889 ae3e e3ff 7d40 c150 14be
000002a0: 7f75 08c0 da94 17bf 9b1d c3be 74eb c9bd
000002b0: e12f 0b40 d49e 2abf 5a25 c33e 607f 8dbf
000002c0: c5fa 8bbe 7838 2040 d351 29c0 0a93 ed3e
000002d0: 3643 b73e 8478 ee3f 4e81 093f 0f5b f0be
000002e0: e6cc a7bf 31a9 46bb 32fd 52bf aa85 2340
000002f0: 500a a1bf 5c28 1abf 8e4e 29bf 7420 51be
00000300: ea99 00bf 86a6 fc3e 5bde 58bf dabd 53bf
00000310: b217 c6bf 1cb3 12be a62a fcbd 3939 12c0
00000320: 1237 2cbc a111 743d 9cd3 c3bf 1c03 0ebf
00000330: b05a ee3b 42ce de3d fa70 233e 95e6 16be
00000340: 7640 04c0 3c02 3bbf 1795 0ebe b7bd aa3e
00000350: d537 4a3e ba89 a43e fe2b d0c0 b49b 06be
00000360: 6722 da3e da01 783f db1e 953f cbdc 4440
00000370: 5899 3bc0 113c b93e 237b 9ebf 0ad3 9f3f
00000380: 234b 39be 0f45 8140 3db8 8b3f 527d a8bf
00000390: ed0a 163f 8ad8 6fc0 1335 4c3f f41d bcbe
000003a0: 5632 963f 03ca 07bd 6f07 0ebf 1fda c13e
000003b0: 93a1 da3e b154 24bf 9e46 5840 13d6 0c3f
000003c0: e00b 6dbf 1d84 babf 208a 553f f194 923f
000003d0: 6fb8 69c0 7817 dbbb e580 6ebf c2cd ca3e
000003e0: 15a3 0e3e 486d 403f 34e9 ecbf cd47 d73d
000003f0: 1c1f 0840 42f4 dfbc 5a19 ab3c a31a c4bf
-0.7542375 2.028694 0.56091124 -0.22603695 -1.2711543 0.13631119 -0.9801328 -1.9269401
1.0664666 -1.4451599 0.85037506 0.053698454 -0.81193864 -1.1995262 0.7649693 1.231592
4.940978 -0.008321102 -1.2214903 0.27899867 0.7141155 0.7155828 -4.0992117 0.37904263
-0.13040976 0.9653698 -1.140772 0.15898427 3.0724905 0.126514 -1.0412806 -0.88806546
-1.7551715 0.012629473 3.141893 -0.49885404 0.5973238 -1.3639262 -0.5479589 1.1997578
-0.75244004 -0.25261828 -0.54451394 -0.75524324 -2.9446397 0.36948454 3.0081842 0.001759023
-0.66165924 -1.3657128 -2.4479709 0.8580942 -0.016471807 0.6283045 1.165096 0.560049
-2.573542 -0.47723737 0.19572309 0.10474782 0.90095 1.7351304 -0.50027347 2.1334047
2.0188634 0.9015954 -1.8849571 1.5572087 1.0139241 0.106615156 -3.44459 -0.49180725
0.20630641 -0.2861788 -0.35362026 0.49562705 -0.79696393 -1.2636887 -0.55880344 0.40584907
0.6002474 -0.19441 -1.6533126 -3.8893528 0.8213802 -1.4983512 -1.7829002 0.8741575
-0.010897794 -0.23294368 0.8037393 -1.6404846 -0.7593168 1.5572622 6.2288194 -0.000451065
-0.9868072 -2.4611597 1.5427741 -0.27535877 1.1850911 -0.25542495 -0.9333003 0.10562529
0.6991575 -0.075238794 0.85540557 5.3855777 0.7607407 -0.21378602 -0.7162003 -1.3323592
-1.1716328 0.017546222 0.86888 0.20095764 0.8191985 -0.0888001 5.1971817 -0.3030319
0.3225362 -0.972618 -0.56320286 -0.91597843 -3.263817 -0.2658287 -0.79331285 0.43479005
-0.75359476 2.018461 -0.711327 -0.66099876 -1.3325219 1.7819103 -0.57169837 1.5667316
-0.7195588 0.08084536 -0.7326784 0.25173345 0.7131812 -0.22491886 -2.1115923 -1.3112397
0.008657168 -0.37316385 -0.6812526 0.1268233 -6.372537 0.014633222 -0.3173116 0.7327521
0.64342225 -1.1031371 0.9966108 -0.33560416 3.1631076 0.71403885 0.3215216 -0.3409463
2.4522989 0.013921453 -0.3778968 0.9486737 0.29755926 0.34089112 3.968743 -0.1448393
-2.1321714 -0.59211504 -0.38108525 -0.09859362 2.1747973 -0.666486 0.38114434 -1.1054497
-0.2733976 2.5034466 -2.6456192 0.46401244 0.35793465 1.8630528 0.5371293 -0.46944472
-1.3109405 -0.0030313248 -0.82417595 2.5550332 -1.2581272 -0.60217834 -0.6613549 -0.20422536
-0.50234854 0.49345797 -0.8471429 -0.82711565 -1.5475981 -0.14326137 -0.12312822 -2.2847426
-0.010511177 0.059587125 -1.5298953 -0.55473495 0.0072739944 0.10879184 0.15961066 -0.14736398
-2.0664344 -0.73050284 -0.13924061 0.33347866 0.1974786 0.32136327 -6.50537 -0.13145334
0.42604372 0.96877825 1.1650041 3.0759761 -2.9312344 0.3617864 -1.2381328 1.2486279
-0.18095069 4.03968 1.09156 -1.3163245 0.5861042 -3.7475915 0.79768485 -0.36741602
1.1734111 -0.033151638 -0.5548009 0.37861726 0.42701396 -0.6419173 3.3793101 0.5501415
-0.92596245 -1.4571568 0.8341389 1.1451703 -3.651882 -0.0066861473 -0.9316543 0.39610106
0.13929398 0.7516675 -1.8508668 0.10511742 2.1268988 -0.02733815 0.020886112 -1.5320629

fc1.bias f4 [64]
00000000: 5bbf 1f3e c7cd 8f3f 23a2 f93c bc1f 7540
00000010: 8cc1 93bf 67c7 b3be cf5d e03f 5c89 c73f
00000020: 602d 06c0 f5b8 c63f 4251 833f 6a8b 21bf
00000030: 791a 3ebf aabd 1cc0 44c2 0540 1853 593e
00000040: aa6c 04c0 5d70 4440 f953 5bc0 c6c9 ad3f
00000050: b50d fdbf 33e0 dc3f da7e ab3f 2f34 6ac0
00000060: 224c 9440 4dda ea3f 36ec ce3f 26d6 b33f
00000070: 37e4 f8bd c6d4 c3bf 7d7b a73f bd18 f43e
00000080: 13aa 2140 0e0d 89c0 7aac ba40 22f3 9cbe
00000090: 2db2 533d 131e c440 ea4e cfbf 029f 3dc0
000000a0: 9dcf 283e c5fa 4dc0 99cd cdbe 940e be3e
000000b0: ace7 c4bd 88e7 babf 284a 823e 2142 08c0
000000c0: f5ed 10c0 e4db 70c0 fb6b 103d ec63 61c0
000000d0: df22 e03e 8b78 98c0 3bff 113d 4885 2b40
000000e0: 64da 703d 979a 5ec0 dd2b 5a40 b914 1e3f
000000f0: 357d aec0 3bb7 ec3f e053 8840 93c5 be3d
0.1560034 1.1234673 0.03047282 3.830062 -1.1543441 -0.3511307 1.7528628 1.5588794
-2.0965195 1.5525194 1.0259173 -0.63103354 -0.74259144 -2.4490762 2.089982 0.21223104
-2.0691323 3.069358 -3.4270003 1.3577201 -1.9769808 1.725592 1.3398087 -3.659435
4.6342936 1.834787 1.6165836 1.4049728 -0.121529035 -1.5299308 1.3084561 0.47675124
2.5260055 -4.2828436 5.8335543 -0.30654246 0.051683594 6.128671 -1.6195958 -2.96283
0.16485448 -3.2184308 -0.4019592 0.37120497 -0.096145004 -1.4601908 0.25447202 -2.1290362
-2.2645237 -3.763421 0.03525923 -3.5217237 0.43776605 -4.7647147 0.035643797 2.6800098
0.058802024 -3.4781854 3.4089272 0.6175037 -5.452784 1.8493418 4.2602386 0.09315028

fc2.weight f4 [64, 64]
00000000: de78 293d 0abb 3dbf 8208 9fbf 441b 7fbe
00000010: a8e9 493f 1695 31be 790a a73f c532 4f3f
00000020: 660b c0be ab38 643f 0e02 9fbc ad19 06be
00000030: 5e69 7140 e163 d83f ae37 15bd ae26 e0bf
00000040: 716c 46be 7a5e 9b3f e5d0 c73d 421e 453e
00000050: d5dd 52bf 9f7d 7e3f 7b69 9c3f 5151 813e
00000060: 72b5 813f 3543 bcbf d1ba 083f d594 e3bb
00000070: d463 93bf bdbb ec3e 5134 db3e 0e57 123e
00000080: a20f 163f b15b 013f cea8 0440 9805 14bf
00000090: 0df3 ea3e 52b9 073f 7160 93bf d194 02c0
000000a0: e637 6b3f 748f a63d 936f 133f 1877 42bf
000000b0: 1dfd 78bf 2ebc 12be fd79 86bf 39a2 8c3f
000000c0: 381a 5c3f d079 20bf 6e37 87bd 82d9 14bf
000000d0: e4b4 b73e dca5 c53f 6bab 773f 069c 963f
000000e0: 634a 68be 5d23 debd d936 043f 7ef2 d73d
000000f0: 8623 1fbe 46cb b3be 35bb b1bf fe21 8dbf
00000100: bcbd fe3e ade2 3fbd f59e d0be 8f8d 483f
00000110: 018f 9e3f 302c 423f 436a 5840 7beb 1140
00000120: 65de c53f f58f 0e40 420f 34be 8996 003f
00000130: e0ab 77bf 287a e8bd 215e 6e40 c680 863f
00000140: e0cc 9b3f ee00 9cbd 6201 4f3f 2b9e db3b
00000150: c904 9a3e 9ac7 963f e634 143b fddf 1fbf
00000160: 3314 db3f e892 9cbe 12cc 9fbe 6ac5 d8be
00000170: 4013 a03e 94ae f83f 10a5 44bf 440e 8f3d
00000180: f64d 66bf 862e ba3f b77a c1bf b97c 7abe
00000190: 99dc 8b3f bf0f 1a40 d908 9c3f 3e9b 03be
000001a0: 2c47 253f b485 35bf 57ca 043e bcaf b1be
000001b0: c4d5 623f 5fa2 253e b805 47bf 6777 2b3e
000001c0: 0fb0 8c3f 674a 5abf ff4f f5be cdd9 cbbf
000001d0: a0a0 27bf 74a2 093e 7e91 873f 672d fcbd
000001e0: 18da 18bf 1462 b9bf da08 033e 79e1 703e
000001f0: 7eca 9ebf f362 ad3f 0690 97be f9fb 00c0
00000200: 0ad8 34bf 4bb1 41be ba1f 04bf fe43 733f
00000210: 8db1 8eba 13cd 253f f93c ff3f 90aa 6dba
00000220: ae73 1d3e b06e 26bf 06b8 0c3f 289a 9abd
00000230: 0538 973f e3dc 903f 3c47 163f fbcd 893f
00000240: a4fc 2a3e 5169 473f 82c4 22be 6ed5 debe
00000250: e213 1cbe e880 a1be 4a1a 7c3f afe4 44c0
00000260: 0882 8a3f ca3d 35c0 0713 87bf e72a e9be
00000270: b248 8c3f ac01 a93f c26c 34bf 879d d4bf
00000280: 401d aebe 6907 f13d 394d a23f 7b71 24c0
00000290: f11e 213e 20f1 913f 87a6 54bf 7861 dcbf
000002a0: 4a12 2c3f 57d3 29bf c887 17be efc4 a9bf
000002b0: d3b8 1f3e aef1 0a3f 0cd3 c73e cc86 25bf
000002c0: 7a08 303f a77a e5bf 693c be3e 753e 08bf
000002d0: 10e7 983e 8517 813f 9d7b 0d3f 9c63 17bf
000002e0: 84ef 8ebd 1f5f 2ebe 52ea 9dbf cf33 683f
000002f0: 5002 85c0 39c8 17be 99be a13d 654f 293f
00000300: 1a31 d43e 6aea ff3e 0f3e c03e dba9 12be
00000310: b1b8 70bf b0f8 53bf cdc0 9ebe 3a39 bf3e
00000320: 7080 aebf 5aaa 14bf f4d1 b0be d957 013f
00000330: 2628 74c0 204c a1bf 26bb d5bf 2d3c f5be
00000340: 8b8e fd3e c74e 55c0 540a 423e a7d4 5e3f
00000350: f8a7 863f 4d20 903e da00 b43e a659 79bf
00000360: 95cb 5d3f f4be 91bf a949 aabe 9415 243f
00000370: 46da b03e 26dc 1a3f 7aea 9b3f c24a 093e
00000380: 043d debe 9ab3 153d 1639 fbbe da7c b53c
00000390: 732f e23d d14d 053f 38f1 823f 09f9 cbbd
000003a0: 9e7f ec3e b080 bd3e 9435 243c 1e1c 913f
000003b0: b32c 903c b956 c23e 8546 dc3e 91e1 7e3e
000003c0: 86eb a4b9 6a5c 873e 2374 25c0 92db 7fc0
000003d0: decd 15bf f72d 3a3f 56ae 10bf add6 3fbe
000003e0: 55d7 fd3e 20f6 a53c fc31 fabd b73b 433f
000003f0: 5451 67bd fcc9 c73f 4938 463f 7e31 0bc0
0.041375034 -0.74113524 -1.2424471 -0.24912745 0.78872156 -0.17342028 1.3050071 0.80936843
-0.37508696 0.8914897 -0.01941016 -0.13095732 3.772056 1.6905481 -0.036430053 -1.7511804
-0.19377305 1.2138207 0.0975664 0.19249824 -0.8236974 0.9941043 1.221969 0.25257352
1.0133498 -1.470801 0.5341006 -0.0069452324 -1.151484 0.46236983 0.42813352 0.14291021
0.58617604 0.50530535 2.072803 -0.57821035 0.45888558 0.5301715 -1.1513807 -2.040333
0.9188217 0.0813283 0.57592124 -0.7596297 -0.9726122 -0.14329597 -1.0505978 1.0987006
0.85977507 -0.6268587 -0.06602369 -0.5814439 0.35880196 1.5441241 0.9674594 1.1766365
-0.22684626 -0.10846589 0.5164619 0.105442986 -0.15540895 -0.35116023 -1.3885256 -1.1025999
0.4975413 -0.046847034 -0.40746275 0.78341 1.2387391 0.75848675 3.3814857 2.2799976
1.5458494 2.2275364 -0.17583945 0.502297 -0.96746635 -0.113514245 3.7244952 1.0508049
1.2171898 -0.07617365 0.80861485 0.0067022047 0.30081776 1.1779664 0.0022614538 -0.62451154
1.7115539 -0.3058083 -0.3121038 -0.42338115 0.31264687 1.9428277 -0.76814365 0.06985143
-0.8996271 1.4545448 -1.5115575 -0.2446164 1.0926696 2.407211 1.21902 -0.12852189
0.64561725 -0.7090714 0.12967812 -0.34704387 0.8860743 0.16175221 -0.777431 0.16744767
1.0991229 -0.8526978 -0.47912595 -1.5925843 -0.6547947 0.13440877 1.0591276 -0.12313347
-0.59707785 -1.4483056 0.12796345 0.23523511 -1.2405546 1.3545822 -0.2960207 -2.0153792
-0.7064215 -0.18915288 -0.5161091 0.9502562 -0.0010886654 0.64766043 1.9940482 -0.00090662483
0.1537616 -0.65012646 0.549683 -0.07548934 1.1813971 1.1317409 0.58702445 1.0765985
0.16697937 0.77895075 -0.15895274 -0.4352221 -0.1524196 -0.3154366 0.98477614 -3.0764577
1.0820932 -2.8318963 -1.0552682 -0.45540544 1.0959685 1.3203635 -0.7047845 -1.6610574
-0.3400669 0.117689915 1.2679816 -2.5694263 0.1573446 1.140171 -0.830666 -1.7217245
0.67215407 -0.66338104 -0.1479789 -1.3263224 0.15597849 0.54275024 0.39028203 -0.6465881
0.68762934 -1.7928056 0.37155464 -0.532203 0.29863787 1.0085303 0.55266744 -0.59136367
-0.06979278 -0.17028473 -1.2337134 0.90704054 -4.1565323 -0.14822473 0.07897682 0.6613677
0.41443712 0.4998353 0.37547347 -0.14322607 -0.94031817 -0.8280134 -0.3100647 0.37348348
-1.3632946 -0.58072436 -0.34535182 0.5052467 -3.8149505 -1.2601357 -1.6697738 -0.47897473
0.49522814 -3.3329332 0.18949252 0.8704323 1.052001 0.28149644 0.351569 -0.9740242
0.86638767 -1.1386399 -0.33259323 0.64095426 0.3454153 0.6049217 1.2180932 0.13407424
-0.43405926 0.036548235 -0.4906699 0.02215426 0.110442065 0.52071863 1.0229864 -0.09959609
0.46191114 0.37012243 0.01002254 1.1336706 0.01759944 0.3795679 0.43022552 0.24890734
-0.00031455996 0.26437694 -2.5852134 -3.9977765 -0.58517253 0.72726387 -0.56516016 -0.18734236
0.49578348 0.020258963 -0.12216565 0.7626299 -0.056474045 1.5608516 0.77429634 -2.1748958

fc2.bias f4 [64]
00000000: 905f 83be 77ff e93d b60b acbd a5fe 553e
00000010: 29e4 673e ad67 8ebe e56e 843e 8a60 d13e
00000020: 668f 04be 816f fcbc 4a51 fc3e a3b9 bebe
00000030: b3fa ba3e ab1e 673e 226c 04be 05d2 cb3d
00000040: 073f 24bd b210 9cbe 34ae 2a3d f629 31bc
00000050: d904 f0be 95b0 d0be af56 f2bc a881 bdbe
00000060: 1d50 92be 3e14 8ebe da24 1a3e 4815 85be
00000070: 267c 553e 7322 1f3e d718 60bc 6a4e 2d3d
00000080: 5fc1 23bd 7de7 453e e43f 0f3e 808a 5f3d
00000090: 499b 4c3c 941f 253d 162f 1c3f a335 f73b
000000a0: af9f 88be b71e e93c 1193 ec3c 2139 7abe
000000b0: 64a6 edbd 9969 1f3e de7c 83bd 6fe8 96bc
000000c0: b60a 823e d31b 923c f65b 67be f912 043f
000000d0: 70b1 a63b a2c3 0abe a165 00ba 844b b1bd
000000e0: 04cd b03e 2490 6ebe b6b1 a53e 20da fe3e
000000f0: 257f a33e 8615 153e 0e67 57be 8ce4 0c3e
-0.25658846 0.11425679 -0.08400671 0.2089792 0.2264563 -0.27813473 0.25865856 0.40893966
-0.12945327 -0.030814888 0.4928077 -0.37251005 0.36519393 0.22570293 -0.12931874 0.099521674
-0.04009917 -0.30481488 0.04167004 -0.010813227 -0.46878698 -0.4075972 -0.02958235 -0.37012982
-0.28576747 -0.2774982 0.1505312 -0.259928 0.2084814 0.15540485 -0.013677797 0.04231111
-0.039979335 0.19326587 0.13989216 0.054575443 0.012488195 0.04031332 0.6100935 0.007544236
-0.2668433 0.028457029 0.02887872 -0.24435855 -0.11604002 0.15567626 -0.06420301 -0.01842138
0.25398797 0.017835533 -0.22593674 0.5159145 0.00508707 -0.1355119 -0.00048979564 -0.086569816
0.34531415 -0.23297173 0.32362145 0.4977579 0.3193294 0.14558992 -0.21035406 0.13759059

fc3.weight f4 [64, 64]
00000000: 421e 39bf 03b2 08bf f7fb 1ec0 b594 2340
00000010: f1d4 1d3f aff4 2abf 7b59 afbe 8840 9ebe
00000020: 7637 c93d 30c7 273c 12dd 34c0 bb91 1c40
00000030: 3f31 7ec0 bd55 92bf a6d8 57bf 2970 483f
00000040: 510d 49bf 1f10 8ebf ae15 a4bf cfe8 033f
00000050: 7726 68bf ee36 45bf 801e 36bf fd2d 60be
00000060: 47e6 3d3f 28a0 883f 8567 3cc0 69de 83bf
00000070: d210 133f 88fb f7bf 844f f73f 24d0 e9bf
00000080: a8fa 6e3f 7cd3 b13d b27c 733f 7eab 10c0
00000090: d392 4640 08a1 d8bf f9ee 0c3f 2fd0 0dbd
000000a0: 6b38 c43e 1a8c b7be a978 953e 723d 7bc0
000000b0: e4ac f13f 2309 11bf d9fe 9cc0 f301 19bf
000000c0: 1998 21be da32 9ebe 902f a8bf a2f4 22c0
000000d0: 3332 4d3f 03b3 153f d6c5 0bc0 8a4e e93f
000000e0: 29b1 65bf 181a 04bf e2fa 74be 7202 8ebe
000000f0: c898 18c0 9735 533b 06d1 f7bf 4266 95be
00000100: 3b89 89bf e795 9cbe 3ac5 92c0 51a4 c33f
00000110: b96f 803e 16a1 28bf 4538 95be db08 5dbf
00000120: eb4e 9c3e 09fa 833f 8d4f 56c0 4f14 383f
00000130: 3fae 4cc0 aa82 833e e6a4 98bf b60f 263f
00000140: 35f1 42bf dac7 4ebf e852 66bf 8bd1 f03e
00000150: d830 a3bf f1cb a8bf 3ece 78be 73a3 ecbe
00000160: 8560 693f 016e 853f b9a8 8abe ef66 92bf
00000170: ad0e dd3e 1845 873f a772 fb3f 6c00 1abf
00000180: c307 1e3f cb17 843e e9c9 8c3f 4ed8 16c0
00000190: 04da ff3f 7e9f 7d3e 3728 073f 0bfe babd
000001a0: c487 a8bf a672 debe f30b 03be 8631 7ac0
000001b0: 7264 483f 2e8f eabf a391 6ec0 b7b6 11bf
000001c0: 8492 9cbd 7f72 cabe 9665 cfbf 6af4 16c0
000001d0: b1e7 283f 4809 423e e267 32bf 2017 e83f
000001e0: edda 34be 75a9 64bf fd70 a2bd 73d8 a5bf
000001f0: 9a75 c4bf 0c06 54be e7fa 94be 92f9 9a3e
00000200: 34c7 1cbf 8479 8ebf b1b5 963f 2be3 ab3f
00000210: 9706 52bf 5761 a0bf 9192 ec3f a118 0e3f
00000220: 289e fbbf 7b41 a73e e5a1 5dc0 20a4 7cbf
00000230: 6c9f 04bf 05c2 6d3e 4c89 983f 8542 9ebe
00000240: f262 84bd da75 c13e dd07 c9be e4d3 d03f
00000250: 235f 5f3f d6d1 38bf bee1 c13d 275e 09c0
00000260: 8095 e53f 1b2c 8cbe 9822 033f 0ed3 283e
00000270: b859 17be 9553 fa3d 8823 663e b1f9 0ec0
00000280: 9b12 263f 2f9d 2e3f 1fec 483f 26fc fe3d
00000290: 5a90 81bf 0d3d c6bf 90bd 50bf 7907 67bf
000002a0: a864 efbe ec0d 88bf 6328 8dbf a5c5 833f
000002b0: e9b6 21bf 17f9 d4be 4bbd 02be 84ef 03c0
000002c0: 53f3 883f f750 08bf 0cff 78c0 6c6a 10c0
000002d0: a76d cdbe 835c cfbf 6c3e ca3f a4d2 38c0
000002e0: b0cc 5c3f 9d67 54bf 091e 06c0 5bbe b1bf
000002f0: 64b9 6b3f cb49 723d 33d5 203e 2e18 b7bf
00000300: 7ee1 a4bf c7f6 9b3e fb60 47bf b5b8 f93f
00000310: c7af 4b3f 18c0 8cbf 7ccf 82bf b612 41bf
00000320: 7f54 afbf d318 1c3f 5fb1 e8bf 8feb 9dc0
00000330: 562a ff3e 0842 563f dfae 8dbf 2c42 043f
00000340: c359 a1be 905d 96bf 14d9 aabd 7b41 10c0
00000350: c2ca 7dbf 3b1e c4be af90 83bd ea0c d6bd
00000360: 9a46 a33f 8c4a a53f 97e5 5e3f 73e7 dcbf
00000370: 061e e23c ede1 e43f f9f2 8d3f 0ba1 8fbe
00000380: 9794 793f f08b 743f 9da0 eebe cdbf 8fbf
00000390: 5f9a 6bbf e595 033f 5dc9 853f 3803 5cbe
000003a0: 1d07 c73f 31dc 8cbe 86f8 46bf fde7 73c0
000003b0: 4415 8bbe b02b a33e 115b 92c0 b667 d4be
000003c0: c5db 9c3e 1f5e bb3e d486 acbf d868 01bf
000003d0: fb06 953f 3c51 2bbe bf6a dbbf b644 1640
000003e0: 61b0 9ebf 9ea0 9cbf bba6 c33b c169 41bf
000003f0: 7295 95be 6960 c0bf e481 f2bf 1d1e b0bf
-0.72311795 -0.53396624 -2.4841287 2.5559514 0.6165305 -0.6677961 -0.34247956 -0.30908608
0.098250315 0.010240361 -2.825993 2.4463947 -3.9717557 -1.1432415 -0.84314954 0.7829614
-0.78535944 -1.109867 -1.2819116 0.5152711 -0.9068369 -0.7703694 -0.7114029 -0.21892543
0.741795 1.0673876 -2.9438183 -1.0302249 0.5744754 -1.9373636 1.9321141 -1.8266644
0.9335122 0.086829156 0.95112145 -2.260467 3.1027114 -1.6924143 0.55052143 -0.034622367
0.38324293 -0.35849077 0.2919362 -3.9256253 1.8880887 -0.56654567 -4.9061093 -0.597686
-0.15780677 -0.30898172 -1.3139515 -2.5461812 0.8015472 0.58476275 -2.18395 1.8227093
-0.8972345 -0.51602316 -0.23923829 -0.2773624 -2.384325 0.0032227987 -1.9360664 -0.2917958
-1.0745004 -0.30583116 -4.5865755 1.528452 0.25085238 -0.658708 -0.29144493 -0.8634164
0.3052896 1.031068 -3.3486054 0.7190599 -3.1981351 0.25685626 -1.1925323 0.64867723
-0.761493 -0.807737 -0.89970255 0.4703487 -1.2749281 -1.3187238 -0.24297425 -0.46218452
0.911629 1.0424196 -0.2708185 -1.1437663 0.4317526 1.0567961 1.9644364 -0.60156894
0.61730593 0.25799403 1.0999118 -2.3569522 1.9988408 0.24767873 0.5279574 -0.09130486
-1.3166432 -0.43446845 -0.12797527 -3.9092727 0.7827827 -1.8324945 -3.727639 -0.56919426
-0.07645133 -0.3954048 -1.6202877 -2.3586679 0.65978533 0.18948853 -0.6968976 1.8132057
-0.17661639 -0.8932107 -0.07931707 -1.295668 -1.5348389 -0.20705432 -0.29097673 0.30268532
-0.6124146 -1.1130834 1.1774198 1.3428701 -0.82041305 -1.2529706 1.8482229 0.5550633
-1.965764 0.32667145 -3.4630063 -0.98687935 -0.5180576 0.23218544 1.19169 -0.30910125
-0.06464185 0.37785226 -0.39263812 1.6314664 0.8725454 -0.72195184 0.09466885 -2.1463716
1.7936249 -0.273774 0.5122466 0.16486761 -0.14780319 0.12222973 0.22474492 -2.23399
0.6487214 0.68208593 0.7848529 0.12450437 -1.0122178 -1.5487381 -0.8153925 -0.9024578
-0.46756482 -1.0629249 -1.102795 1.0294691 -0.63169724 -0.4159629 -0.12767522 -2.0614939
1.0699257 -0.5324854 -3.8905668 -2.2564955 -0.4012272 -1.6200107 1.58003 -2.8878565
0.8624983 -0.829706 -2.0955832 -1.3886217 0.9207976 0.059152406 0.15706329 -1.4304254
-1.2881315 0.30461714 -0.77882355 1.9509493 0.7956509 -1.0996122 -1.0219569 -0.75419176
-1.3697661 0.6097538 -1.8179129 -4.9350047 0.49836987 0.83694506 -1.1068991 0.5166347
-0.31513795 -1.1747303 -0.083421856 -2.2539966 -0.9913751 -0.38304314 -0.064240806 -0.10451682
1.2755921 1.2913375 0.87069076 -1.7258133 0.027602207 1.7881447 1.1089774 -0.28052554
0.97492355 0.9552603 -0.46606913 -1.1230408 -0.92032427 0.51400596 1.0452076 -0.21485603
1.5549046 -0.27511743 -0.77722967 -3.8110344 -0.27164662 0.31869268 -4.5736165 -0.41485375
0.3063642 0.36595246 -1.3478646 -0.50550604 1.1642755 -0.16730207 -1.7141951 2.3479438
-1.2397577 -1.2236516 0.0059708036 -0.7555199 -0.2921558 -1.5029422 -1.894589 -1.375919

fc3.bias f4 [64]
00000000: 6a80 09bf 03f0 18bf c34d b33e 6799 503e
00000010: 8161 d53d 05b4 163e dfc3 fb3d 94af 96bc
00000020: 4154 5bbe bca0 293c ba00 01bf f6e5 a4be
00000030: 0d1a 34bf 5280 953d c127 1ab9 0c87 ecbd
00000040: 96b5 2bbf 02f9 36be dbe2 9bbe dbfc bcbe
00000050: 9a19 15bf 4cda f3be 46f2 f9be d391 09bf
00000060: 3be7 e8be c1a8 afbe f344 53bf 75d0 343e
00000070: 7c3f e73d dda5 02bf 30fd 89bd 768a d0be
00000080: cf77 91be 8078 04bc 2ce1 1cbf 6ebf 30bf
00000090: 885b 6d3e 4af9 e3be 0cd0 74be cf1c 97be
000000a0: 9de6 5d3e 24cc 29be 9206 c0be acca 78be
000000b0: 0504 d73e 9a35 e1bd a9e2 29bd 1862 5d3d
000000c0: 8a30 b73e 40ef 0bbd 6259 d0be 1c03 9fbe
000000d0: 39f1 debd 096c 7dbe 2923 893c a8b0 55be
000000e0: 8f5e 523e e917 d5be a671 ddbe 1b71 c83d
000000f0: 34de 313d 7a43 0ebf 848c edbd f598 c63b
-0.5371157 -0.5974123 0.35020265 0.20371018 0.10418988 0.1471711 0.12293219 -0.018394269
-0.21418859 0.0103532635 -0.50391734 -0.32206696 -0.7035225 0.07299866 -0.00014701394 -0.11549196
-0.67073953 -0.17868426 -0.30446514 -0.36911663 -0.5824219 -0.47627485 -0.48817652 -0.53738135
-0.45488915 -0.34308437 -0.82527083 0.17657645 0.112914056 -0.5103434 -0.06737745 -0.40730637
-0.2841172 -0.00808537 -0.61281085 -0.690421 0.23179448 -0.4452613 -0.23907489 -0.29514167
0.21670003 -0.1658178 -0.37505013 -0.24296063 0.41995254 -0.10996552 -0.041475926 0.054048628
0.3577922 -0.034163713 -0.40693194 -0.3105706 -0.10885853 -0.24748243 0.016740398 -0.2086817
0.20543884 -0.41619805 -0.4325077 0.09787198 0.0434248 -0.5557171 -0.11599067 0.0060607144

out.weight f4 [2, 64]
00000000: 7ff1 e4bf bb11 16bf b377 11c0 9d0b 0cc0
00000010: 7e00 16c0 26f9 6dbf f0d6 423e e5ad 2cbf
00000020: aaef b03f 0338 8fbf c8dc 4e3f 64f4 a23f
00000030: 759f f73f f602 41c0 6a47 35c0 94b4 e93f
00000040: 41d7 db3f d71b 0340 c68d e0bf 66cb b7bf
00000050: 7b45 e53f 9b87 18c0 2264 823f 2de1 b93f
00000060: 9f36 ea3f 1250 913f 0dee cb3f d612 24c0
00000070: 9736 c63f cb0a 0d3f f1dc 0540 f0ec 4a3f
00000080: 1c87 28bf 555a 8fbf 55c6 ad3f 9296 843f
00000090: 523e fcbf c2bc 983f 4916 ddbe a372 b23f
000000a0: f715 54bf 2253 6f3f f3f9 84bf c043 f43f
000000b0: c9a9 50c0 a00c ebbf a122 c8bf 15d7 2ec0
000000c0: 238b 1fc0 6068 a13f 444f 0440 3fab 353f
000000d0: 6906 0ac0 3e9b da3d 5274 19c0 562c ddbf
000000e0: 4213 7abf 5963 8bbc c5f8 0ebf 4d48 cebf
000000f0: d5c9 f1bf bbc6 ec3f 9586 c4bf 24a8 c4bf
00000100: 4125 28be 626a 1abf 9e24 20bb f9ee 36bf
00000110: c7ef 3b3e 26eb 8bbe 9c31 a33f 48fb 13c0
00000120: 9a00 ffbc 6971 3ebf 2b47 a63f cf3c b7be
00000130: 74eb 653e ca39 d0be c6a9 ed3b 1023 703d
00000140: 4f8b 6ebd 8a5a fa3d fabd 943d 1296 34be
00000150: 6bec 1d3e df4a 323f 6bcf 8a3f e416 79bd
00000160: 80a2 a03b c5ab 02be b0dc 3e3f 15ae 85be
00000170: 01d6 efbd e5b6 cd3f 0b24 923d 6eeb eebe
00000180: b2a5 9c3e 7540 95bf afc0 193f 9472 8d3f
00000190: 9570 56bd 4d29 d5be f12f 20c0 d749 8abe
000001a0: a300 dfbe 036e d0bf a4aa c2be c162 e33e
000001b0: ed92 383f 0296 7f3e 070e 87bf c084 343e
000001c0: 2fcf 8f3f b8f8 0fc0 d0f0 a33b 0f85 8bbf
000001d0: 4124 9d3e 2c67 f93f d693 833e c8ee 3dbf
000001e0: 7ccb 463e 617f cf3f a1ef 86bf 7696 c8bd
000001f0: 2778 a3be c162 c53d 361f 513f aaf7 65be
-1.7886199 -0.58620805 -2.2729309 -2.1882088 -2.34378 -0.92958295 0.19027305 -0.6745284
1.382314 -1.1188968 0.80805635 1.2730832 1.9345537 -3.0158057 -2.8324838 1.8258233
1.7175065 2.0485742 -1.7543266 -1.4358947 1.7911829 -2.3832767 1.0186808 1.4521843
1.8297919 1.135256 1.5932022 -2.5636497 1.548541 0.55094594 2.0916102 0.7926779
-0.6583116 -1.1199442 1.3576151 1.035845 -1.9706519 1.1932604 -0.43181065 1.3941234
-0.82846016 0.93486226 -1.0388778 1.9083176 -3.2603629 -1.8363228 -1.5635568 -2.7318776
-2.4928672 1.2609978 2.067338 0.70964426 -2.1566412 0.10674141 -2.3977246 -1.7279155
-0.97685635 -0.017015146 -0.5584834 -1.6115814 -1.8889719 1.8498148 -1.5353571 -1.5363812
-0.16420461 -0.6031858 -0.0024435888 -0.71458393 0.18353187 -0.27327842 1.2749515 -2.312212
-0.031128217 -0.743918 1.2990469 -0.3578858 0.224531 -0.4066909 0.0072529046 0.05862719
-0.058238324 0.122243 0.07262798 -0.17635372 0.15422218 0.69645494 1.0844549 -0.060812846
0.004902184 -0.12760837 0.7455549 -0.26109377 -0.1171074 1.607144 0.07135781 -0.46663994
0.30595165 -1.1660296 0.60059637 1.1050591 -0.05235346 -0.41633072 -2.502926 -0.2700946
-0.43555173 -1.6283573 -0.38020813 0.4441128 0.7209919 0.24959567 -1.0551156 0.17628765
1.1235102 -2.2495556 0.0050030723 -1.0899981 0.30691722 1.948461 0.25698727 -0.74192476
0.1941356 1.6210748 -1.0541879 -0.09794323 -0.31927606 0.096379764 0.8168825 -0.22457758

out.bias f4 [2]
00000000: d60f 943e 30f8 a73d
0.28918332 0.08201635
