Santiago_version/models/01_pytorch_workflow_model_1.pth (torch, 139184 bytes, 8 tensors)

fc1.weight f4 [128, 4]
-0.839885 0.6569426 -0.33577022 -0.9418346 1.4485805 -1.0249999 0.799912 -2.582338
0.019752191 0.21909481 0.89233005 0.14784303 -0.19875357 -0.64335537 -0.89752954 0.45808604
-1.2753332 1.3072021 0.9639482 0.9092283 1.1356858 3.028742 1.9208572 1.1819379
-1.1423867 0.32205337 -0.3159841 0.5228159 0.9690765 -1.5743132 0.50856763 -0.17626688
-1.0752871 1.1403568 0.41980454 0.21016681 -0.98513263 0.59043473 0.8466845 -0.41933373
-1.6333605 0.8259902 -1.220666 0.33256444 1.9425918 -1.1925421 -0.8988945 0.094327025
-1.8433021 0.42795983 1.9892118 -1.4662367 -0.16127232 1.0712677 -1.9902545 -0.40791243
-0.90937626 0.6651225 -0.78500766 0.17366222 1.6259165 -0.44684157 0.36728978 -0.03251224
1.4172695 -0.42440224 -0.7064771 -0.14261122 0.7283116 -0.37834448 -0.1970792 1.0075446
-0.45083013 1.5313956 -0.4807136 0.58358747 1.8363912 -1.4430478 -1.7950633 0.92750716
-0.007992301 0.34513885 -0.15638573 -0.010849416 0.49050713 -0.36658671 0.37946168 -1.640533
0.28998846 -0.92643434 -1.0060422 0.30330053 -0.3378676 1.5488781 1.3272722 0.82495815
-0.97138363 0.57065415 0.41888416 1.3411373 2.6405294 -0.36210662 -1.3182384 1.6475364
0.20651248 -0.28577375 -0.18713388 0.62511873 0.7456465 0.38060412 1.8898677 -1.1067369
-1.265323 -2.302958 -0.12631509 -0.2615867 -0.25652894 0.59100795 -0.47944954 -0.46423987
0.97210795 0.7101904 -1.4553593 -0.21479218 1.5881729 -0.097200915 0.5028484 0.08102145
-0.62768203 -1.4476222 -1.0918859 1.2583071 1.4010515 0.2741136 0.16813047 -0.06509333
1.4943496 0.031859122 0.03379294 -1.508228 0.11585983 -1.1087036 -0.5193738 0.11664143
-0.84746325 1.1839929 -0.4801347 -1.717784 -0.8134284 -0.49303544 0.68207926 -0.4750351
0.2014166 -0.72425985 -0.35355702 -2.4585967 0.19208488 0.5500847 0.22465785 0.6599102
0.61962533 -0.41610086 0.53427994 0.40621245 1.1130008 1.3910147 0.6938406 0.03145105
-1.7997056 -0.0053114905 1.4942887 0.5662563 -1.0691309 1.0582255 -0.6211718 1.3286805
0.26547426 0.98433423 0.6271644 0.068004556 -0.82374907 0.18923023 -0.21850625 1.1867423
0.28882614 1.5069914 -0.3352858 0.09926591 0.5753462 -0.06518337 0.73708963 0.33999056
0.96838385 -1.3849587 -1.3323976 2.512507 0.36155033 -0.5757219 -0.04630121 -1.6257285
1.5478605 -2.1151605 1.0859118 -0.7329036 0.36818102 -0.9428258 0.2760279 0.04919703
0.081728846 0.44059494 0.2587645 0.12514783 -0.37400964 0.670437 0.3600108 -0.44461754
-0.29689348 -0.37969834 -0.40829957 0.5069177 1.7628101 0.6672477 0.7376786 0.054109342
-0.7638118 -0.636755 0.43748918 -0.6921777 -0.39401364 1.6071202 1.1483282 1.073433
-0.5283429 -0.7605683 -0.26032978 0.01287985 0.8170182 1.6457782 0.7101873 0.88995355
1.2872586 -0.7979875 2.0079439 -0.98857284 0.9569434 -1.1246327 0.11546661 -1.0071229
-0.1855297 -0.17168052 -0.7452737 -0.06937053 0.6198906 -1.5354111 0.038717065 0.10416765
00000000: b402 57bf 642d 283f 13ea abbe 131c 71bf
00000010: 166b b93f 3233 83bf 08c7 4c3f 0745 25c0
00000020: 59cf a13c 645a 603e be6f 643f 2a64 173e
00000030: 0e86 4bbe f0b2 24bf 7fc4 65bf 418a ea3e
00000040: 1e3e a3bf 6652 a73f 4fc5 763f 30c3 683f
00000050: 275e 913f e9d6 4140 a6de f53f be49 973f
00000060: ba39 92bf 2ee4 a43e abc8 a1be 43d7 053f
00000070: 6615 783f 1883 c9bf 7d31 023f 4e7f 34be
00000080: 02a3 89bf 36f7 913f 9ff0 d63e f835 573e
00000090: a731 7cbf bb26 173f 51c0 583f e9b2 d6be
000000a0: f511 d1bf 1874 533f c93e 9cbf e345 aa3e
000000b0: d9a6 f83f 38a5 98bf f31d 66bf 872e c13d
000000c0: 53f1 ebbf 8d1d db3e 7e9e fe3f a5ad bbbf
000000d0: 9224 25be 4d1f 893f a9c0 febf e6d9 d0be
000000e0: e2cc 68bf 7845 2a3f 43f6 48bf 82d4 313e
000000f0: 081e d03f 6bc8 e4be 680d bc3e 8e2b 05bd
00000100: 1669 b53f 404b d9be afdb 34bf ad08 12be
00000110: a172 3a3f 5eb6 c1be 21cf 49be 39f7 803f
00000120: 35d3 e6be c504 c43f 1820 f6be fd65 153f
00000130: de0e eb3f cab5 b8bf a2c4 e5bf 1c71 6d3f
00000140: 24f2 02bc 0ab6 b03e 9523 20be c0c1 31bc
00000150: c023 fb3e 41b1 bbbe cd48 c23e fcfc d1bf
00000160: 5e79 943e cd2a 6dbf fec5 80bf 354a 9b3e
00000170: fbfc acbe a341 c63f 0ee4 a93f 7530 533f
00000180: 99ac 78bf 6416 123f fc77 d63e 63aa ab3f
00000190: 6ffe 2840 0a66 b9be 09bc a8bf 79e2 d23f
000001a0: 0278 533e f050 92be 06a0 3fbe c807 203f
000001b0: b0e2 3e3f 8bde c23e 2fe7 f13f 8ea9 8dbf
000001c0: 1bf6 a1bf aa63 13c0 be58 01be b1ee 85be
000001d0: c357 83be 4c4c 173f 697a f5be d9b0 edbe
000001e0: 11dc 783f 0acf 353f 3749 babf 7bf2 5bbe
000001f0: 4049 cb3f 4611 c7bd acba 003f 93ee a53d
00000200: c5af 20bf af4b b9bf ebc2 8bbf 3510 a13f
00000210: a855 b33f 9e58 8c3e 652a 2c3e a74f 85bd
00000220: d946 bf3f b67e 023d 776a 0a3d 9d0d c1bf
00000230: eb47 ed3d 00ea 8dbf aef5 04bf b4e1 ee3d
00000240: 5af3 58bf 148d 973f 37d4 f5be 59e0 dbbf
00000250: d83c 50bf 246f fcbe bf9c 2e3f cd37 f3be
00000260: 2740 4e3e 1869 39bf 6d05 b5be a659 1dc0
00000270: e6b1 443e 5ad2 0c3f b50c 663e e0ef 283f
00000280: c49f 1e3f 2c0b d5be 92c6 083f 14fb cf3e
00000290: cf76 8e3f c50c b23f 8a9f 313f d1d2 003d
000002a0: c15c e6bf 030c aebb da44 bf3f 2cf6 103f
000002b0: 48d9 88bf ef73 873f 1d05 1fbf 3412 aa3f
000002c0: 3eec 873e 54fd 7b3f d98d 203f f945 8b3d
000002d0: 38e1 52bf 92c5 413e 1ac0 5fbe 2ce7 973f
000002e0: 05e1 933e 18e5 c03f 95aa abbe ed4b cb3d
000002f0: e349 133f dc7e 85bd e8b1 3c3f 3e13 ae3e
00000300: 01e8 773f 5446 b1bf 018c aabf eacc 2040
00000310: 201d b93e 8362 13bf 56a6 3dbd df17 d0bf
00000320: 4b20 c63f ca5e 07c0 28ff 8a3f 929f 3bbf
00000330: 3982 bc3e 085d 71bf 8753 8d3e d382 493d
00000340: 7461 a73d a995 e13e c87c 843e c126 003e
00000350: 317e bfbe c2a1 2b3f 5653 b83e e9a4 e3be
00000360: 6c02 98be d267 c2be a40c d1be 5cc5 013f
00000370: c3a3 e13f bfd0 2a3f 81d8 3c3f c2a1 5d3d
00000380: 2c89 43bf 6002 23bf 95fe df3e 8f32 31bf
00000390: 28bc c9be 1db6 cd3f 6bfc 923f 4166 893f
000003a0: 7b41 07bf 9bb4 42bf f249 85be 0206 533c
000003b0: 1b28 513f dca8 d23f d6ce 353f ffd3 633f
000003c0: e4c4 a43f e948 4cbf 2782 0040 1c13 7dbf
000003d0: 3efa 743f f7f3 8fbf c279 ec3d 67e9 80bf
000003e0: 7ffb 3dbe 05cd 2fbe 42ca 3ebf 2312 8ebd
000003f0: 26b1 1e3f 5a88 c4bf c995 1e3d d955 d53d

fc1.bias f4 [128]
0.14332785 0.020131601 -0.21733753 0.13461162 -0.4206969 0.1119614 0.026963053 -0.44037378
0.06759932 -0.46271238 -0.32670718 -0.48294595 -0.3095446 0.09626112 -0.39089337 -0.10081923
-0.35810652 0.06636885 0.16574849 -0.076314054 0.29016697 -0.05693603 0.25560337 0.48633668
-0.40294877 -0.45340192 0.3222412 -0.25905403 0.25761816 -0.1923512 0.063449554 0.26327458
-0.18855469 0.4176901 0.4376249 -0.40920195 -0.4632522 0.015249992 0.085851446 0.2802561
0.50222343 0.48477092 0.26334128 -0.048791047 0.1802784 0.060436964 -0.26412848 0.040259197
-0.48760405 0.10699848 -0.11965137 0.23545624 0.08970352 -0.28954524 0.06934815 -0.09320812
0.45608225 -0.36811358 -0.39471242 0.27597308 0.352516 0.4636357 0.40846208 0.20638014
0.13330917 0.060842168 0.30851004 -0.16496818 0.117036 0.3386692 -0.03054403 0.4381333
0.1002103 -0.16359398 0.12894018 -0.28783014 0.13714044 -0.2764602 0.011124651 0.26025596
0.2630913 -0.005043091 -0.34331906 0.10877863 0.46938217 -0.41479823 -0.02156091 0.12509374
-0.48184225 -0.4629463 -0.050420877 0.19532056 0.15933438 -0.15998259 -0.4407523 -0.40794724
0.10559196 -0.037429687 -0.07474646 -0.27184603 0.24107967 0.46784386 -0.050764266 -0.094801
0.4930891 -0.46669602 -0.11840545 -0.47880098 -0.30604786 0.4592298 0.49951923 0.41857392
-0.05819207 0.45189837 0.037324607 -0.09548519 0.07234686 -0.42650214 0.31712118 0.050077103
0.1730118 -0.31219783 0.4014348 0.23845202 -0.027596341 -0.1759093 0.30326858 -0.260348
00000000: 89c4 123e 07eb a43c bb8d 5ebe a1d7 093e
00000010: 9665 d7be 054c e53d 9fe1 dc3c ac78 e1be
00000020: 8371 8a3d a3e8 ecbe 2a46 a7be b144 f7be
00000030: a17c 9ebe 8d24 c53d 2d23 c8be 507a cebd
00000040: bd59 b7be 64ec 873d f9b9 293e 8b4a 9cbd
00000050: c490 943e c135 69bd 72de 823e 1f01 f93e
00000060: 4d4f cebe 4c24 e8be ccfc a43e bba2 84be
00000070: 87e6 833e b7f7 44be d7f1 813d edcb 863e
00000080: 7b14 41be 7adb d53e 5f10 e03e eb82 d1be
00000090: 642f edbe 1adb 793c e2d2 af3d ba7d 8f3e
000000a0: b791 003f e533 f83e abd4 863e 1fd9 47bd
000000b0: e79a 383e c08c 773d d93b 87be d4e6 243d
000000c0: 3da7 f9be 0522 db3d c70b f5bd 711b 713e
000000d0: 7bb6 b73d 463f 94be 6706 8e3d e6e3 bebd
000000e0: 9d83 e93e 6279 bcbe bf17 cabe 584c 8d3e
000000f0: fa7c b43e a961 ed3e f121 d13e 5155 533e
00000100: 3382 083e a335 793d 07f5 9d3e 6bed 28be
00000110: 92b0 ef3d 0d66 ad3e 7937 fabc 0253 e03e
00000120: 0f3b cd3d 2e85 27be e508 043e 795e 93be
00000130: 8b6e 0c3e 318c 8dbe 2b44 363c 4540 853e
00000140: e7b3 863e 8340 a5bb 84c7 afbe 55c7 de3d
00000150: dc52 f03e 6f60 d4be 81a0 b0bc 9318 003e
00000160: 07b4 f6be 4c07 edbe 1f86 4ebd 1d02 483e
00000170: 8d28 233e 7ad2 23be 49aa e1be 76de d0be
00000180: 9940 d83d df4f 19bd ac14 99bd 672f 8bbe
00000190: 97dd 763e 3b89 ef3e 31ee 4fbd 0727 c2bd
000001a0: 2d76 fc3e c8f2 eebe 8e7e f2bd 6725 f5be
000001b0: 4eb2 9cbe 2b20 eb3e fcc0 ff3e 524f d63e
000001c0: cf5a 6ebd 395f e73e b0e1 183d bd8d c3bd
000001d0: 972a 943d 7d5e dabe b55d a23e a61d 4d3d
000001e0: 012a 313e 65d8 9fbe dd88 cd3e c42c 743e
000001f0: b911 e2bc 9121 34be 0546 9b3e 554c 85be

fc2.weight f4 [128, 128]
0.06911818 -1.8940328 -0.9242277 0.44882494 -1.194209 -0.41132864 0.56541234 -2.6149442
0.40533656 -0.013796003 -0.90245944 -1.5051103 -0.08121269 -0.165026 0.46681774 -0.7788211
0.8666037 -1.290771 0.93710387 0.42035645 -0.63999856 0.8950553 0.5227533 0.35486004
-0.4520343 1.2602388 0.2872854 0.22797145 0.20715395 -0.3785147 -1.0112354 -1.4032212
0.90924156 -0.7538849 0.40437704 0.23192963 -0.38577524 1.0416541 0.97048193 0.8529867
1.2728392 1.2721376 0.4756999 -1.102774 -0.63789326 0.37965038 0.20291644 -0.039778456
1.0259328 -0.1815688 0.88036954 1.4742862 0.5448302 1.8357506 1.5384703 0.39470145
-1.4714053 0.13522196 -1.9762292 -0.23170443 -0.51428694 -0.26420814 0.65433764 -1.2735729
1.3903431 0.041285638 -0.2526413 -1.2282958 -0.55739576 -2.189226 0.5512651 -0.78706926
-0.35907617 -0.6247801 -0.39545438 -1.1172204 0.97572774 2.8709667 0.8478034 0.30508298
0.33369493 1.4960163 0.17138846 -0.58178014 1.666912 -0.64804673 -2.0187259 -0.122597165
2.1635253 0.70437235 -0.4184016 0.38075286 -0.5984607 -0.4190101 -1.9723604 1.5251882
2.6545758 0.4733031 -0.35238144 2.1118033 -0.4816913 1.4589707 -1.0673314 -0.50953805
-1.5510432 0.24065052 1.4674985 -0.48753437 1.2650962 1.1516631 -0.2763969 -1.2476034
0.11051889 -2.1797862 -0.8516562 0.2951855 1.8516245 0.4316037 0.84870994 -0.8218731
0.5039929 -0.23446044 -2.0868075 0.55698407 0.38300607 0.61478716 -1.4683846 -1.5662324
-0.528991 -0.73015815 0.2103903 0.8438067 -0.28453702 -0.46343663 1.7811036 1.2517247
-0.17093664 -2.9267964 1.8030869 -0.011064297 0.9947082 -1.1330779 -0.8155015 0.21268336
0.18382771 -0.4538215 -0.3471029 -0.47715253 -1.0024313 0.0027871164 0.08129168 -1.0301003
0.8241841 -1.3319813 -0.34531134 -0.9128522 -0.84284145 0.8533576 -0.17120248 1.2472163
-0.4654311 0.21211658 0.69815034 0.88051146 1.5732805 -0.095804155 -0.41941682 -0.9742795
-1.2602648 0.07372453 1.3137174 2.0391147 0.6037288 -1.3823785 0.28944185 1.0837033
-0.28328994 -1.032499 -1.2005695 1.211187 0.43668824 0.6114666 0.9729644 0.42333993
-1.2065603 -0.027625244 0.8688293 -0.7774108 -0.7417773 1.0079705 1.3336384 0.31748918
1.1842502 0.10946354 -0.56431353 0.3557991 -2.2472181 -1.5052811 0.13724509 0.50872266
-1.1493719 1.5181243 0.5965024 -0.24458422 -0.7567287 0.59818727 1.4388657 -0.029112482
1.0532075 0.35326183 -0.1539704 1.8829463 0.9560392 -1.4937358 0.016046219 0.15808049
-0.6732707 0.55075794 0.29841247 0.19684513 -0.014403599 -0.36868474 1.9155672 -1.3352033
1.5990882 0.9652502 0.04192007 0.58391696 0.4431418 0.7863757 -2.8673801 -0.7308428
0.0901365 -2.4008925 0.68265563 -1.2451168 -1.6924655 -1.2081518 -1.1077675 0.2626901
0.15264097 1.211313 -1.4611828 0.06771266 1.4964494 0.27035514 0.86801237 -0.52155554
0.34106398 -1.1683071 0.52264416 1.5476568 0.2734878 -0.043277845 -0.13064562 -0.36273614
00000000: d58d 8d3d ab6f f2bf 309a 6cbf 62cc e53e
00000010: d7db 98bf ab99 d2be ddbe 103f 3f5b 27c0
00000020: 4688 cf3e a108 62bc 9507 67bf 74a7 c0bf
00000030: d752 a6bd 93fc 28be bc02 ef3e d260 47bf
00000040: bdd9 5d3f fc37 a5bf 0ae6 6f3f f638 d73e
00000050: f2d6 23bf 5822 653f 29d3 053f 37b0 b53e
00000060: 0a71 e7be 814f a13f 1217 933e 5971 693e
00000070: 2a20 543e aecc c1be 2970 81bf c19c b3bf
00000080: 0ec4 683f 9afe 40bf 820a cf3e f67e 6d3e
00000090: 5584 c5be ec54 853f 8171 783f 565d 5a3f
000000a0: 65ec a23f 68d5 a23f f08e f33e b327 8dbf
000000b0: f94c 23bf 8961 c23e 54c9 4f3e bcee 22bd
000000c0: c451 833f 2ced 39be e65f 613f 69b5 bc3f
000000d0: fe79 0b3f e0f9 ea3f 98ec c43f 4f16 ca3e
000000e0: 0257 bcbf a077 0a3e 14f5 fcbf ed43 6dbe
000000f0: 4fa8 03bf 4a46 87be ac82 273f 7004 a3bf
00000100: c3f6 b13f 211b 293d 335a 81be cc38 9dbf
00000110: 7db1 0ebf 471c 0cc0 b61f 0d3f 5f7d 49bf
00000120: d5d8 b7be 97f1 1fbf ff78 cabe 1401 8fbf
00000130: 4bc9 793f ebbd 3740 a509 593f d633 9c3e
00000140: 10da aa3e 767d bf3f 7580 2f3e 8bef 14bf
00000150: 5f5d d53f 64e6 25bf ce32 01c0 3914 fbbd
00000160: 3377 0a40 bf51 343f bc38 d6be 0af2 c23e
00000170: b834 19bf 7e88 d6be 4e76 fcbf 5e39 c33f
00000180: 92e4 2940 c954 f23e 576b b4be c927 0740
00000190: 3ea0 f6be 8dbf ba3f 519e 88bf 1671 02bf
000001a0: 9588 c6bf 176d 763e fed6 bb3f 1b9e f9be
000001b0: acee a13f b269 933f e583 8dbe 78b1 9fbf
000001c0: ba57 e23d 9e81 0bc0 2406 5abf 8e22 973e
000001d0: 0802 ed3f 29fb dc3e 0e45 593f 4766 52bf
000001e0: ae05 013f 6616 70be 418e 05c0 8296 0e3f
000001f0: 5f19 c43e b162 1d3f 07f4 bbbf 4e7a c8bf
00000200: f46b 07bf a5eb 3abf 8e70 573e b703 583f
00000210: d6ae 91be 9147 edbe 34fb e33f 8438 a03f
00000220: 040a 2fbe a250 3bc0 8dcb e63f 0647 35bc
00000230: 32a5 7e3f b208 91bf b5c4 50bf abc9 593e
00000240: 553d 3c3e 4b5b e8be 79b7 b1be 564d f4be
00000250: ab4f 80bf 0ea8 363b 417c a63d 54da 83bf
00000260: bbfd 523f 5d7e aabf a6cc b0be afb0 69bf
00000270: 75c4 57bf a575 5a3f b44f 2fbe c9a4 9f3f
00000280: fc4c eebe 1735 593e fbb9 323f 3369 613f
00000290: 4161 c93f f834 c4bd cdbd d6be 626a 79bf
000002a0: 5b50 a1bf e3fc 963d e427 a83f db80 0240
000002b0: f88d 1a3f c7f1 b0bf b931 943e cab6 8a3f
000002c0: 610b 91be ed28 84bf 43ac 99bf 2d08 9b3f
000002d0: 9a95 df3e 1389 1c3f 3214 793f 03c0 d83e
000002e0: 9170 9abf 564e e2bc 996b 5e3f 6504 47bf
000002f0: 1ee5 3dbf 2d05 813f aab4 aa3f f18d a23e
00000300: 8395 973f 6c2e e03d da76 10bf 4d2b b63e
00000310: 6cd2 0fc0 0dad c0bf fa89 0c3e a63b 023f
00000320: 9e1e 93bf e651 c23f 62b4 183f 4974 7abe
00000330: f9b8 41bf cd22 193f c02c b83f 4d7d eebc
00000340: 81cf 863f bcde b43e 6baa 1dbe 6204 f13f
00000350: fcbe 743f bc32 bfbf 5c73 833c dadf 213e
00000360: 785b 2cbf 79fe 0c3f 85c9 983e c591 493e
00000370: 13fd 6bbc 3fc4 bcbe 4e31 f53f f1e7 aabf
00000380: ecae cc3f a31a 773f 61b4 2b3d 957b 153f
00000390: 7be3 e23e eb4f 493f 2883 37c0 8418 3bbf
000003a0: 7c99 b83d 39a8 19c0 85c2 2e3f fd5f 9fbf
000003b0: b6a2 d8bf b8a4 9abf 53cb 8dbf 517f 863e
000003c0: ea4d 1c3e 4e0c 9b3f 0a08 bbbf efac 8a3d
000003d0: a78b bf3f fd6b 8a3e 0f36 5e3f aa84 05bf
000003e0: f09f ae3e 168b 95bf 02cc 053f 9e19 c63f
000003f0: 9806 8c3e 1c44 31bd f7c7 05be 8db8 b9be

fc2.bias f4 [128]
-0.057351064 0.038646743 0.05214501 0.059103623 0.05352559 0.052092116 -0.073059544 -0.08496478
0.05554443 -0.051999122 -0.051882822 -0.060717344 -0.05648715 -0.06149981 -0.073509865 0.076777294
0.038252648 0.055268764 0.08571333 0.0061397264 -0.008403736 -0.025170235 -0.08128541 0.063496016
0.04702072 0.05910389 0.0138368225 -0.060306773 0.049868885 0.082432516 -0.06807281 0.078262985
0.06839391 -0.06538616 0.01551612 0.0800148 0.023142496 0.01927372 -0.051800355 -0.06491999
-0.073650025 0.043079432 0.01397446 0.027322322 0.066375285 0.0573114 0.07186368 -0.008675326
-0.071980216 0.051558368 0.013310863 0.010241526 0.051291358 -0.028426884 0.03384391 0.044809997
0.07967045 -0.023052571 -0.080040574 0.019630494 0.071416914 0.050352596 -0.033124816 0.07112296
-0.07933233 -0.03276009 -0.08700278 -0.0061145094 0.08067108 0.08411298 0.0437567 0.00861372
-0.06491703 0.079286285 -0.021321852 0.066863276 0.017817853 0.08246128 -0.076523684 0.015833309
-0.016044252 -0.017976353 0.016318753 0.027984729 -0.023343287 -0.04128912 -0.03782316 -0.07219485
-0.0059165866 -0.0741419 0.031786777 -0.01993229 0.062280994 -0.032212865 0.027461283 -0.012248881
-0.057873745 -0.07608039 -0.07858997 0.08595747 -0.017741295 -0.06782424 0.050267454 -0.006893305
-0.080724806 -0.027564539 -0.019891014 0.011727934 0.020143123 -0.004989385 -0.02635749 0.052601624
0.045987617 -0.004322938 0.0621732 0.08522094 0.01778674 -0.054972436 -0.081028394 -0.06957976
-0.0069728387 0.060039155 0.03324344 0.02744372 -0.061650667 0.017825328 -0.013105173 0.048351876
00000000: f3e8 6abd 0c4c 1e3d 0296 553d a416 723d
00000010: a63d 5b3d 8b5e 553d 3ea0 95bd 0402 aebd
00000020: 8e82 633d 08fd 54bd 1583 54bd c0b2 78bd
00000030: 125f 67bd 3ae7 7bbd 578c 96bd 6a3d 9d3d
00000040: cfae 1c3d 8061 623d 788a af3d c22f c93b
00000050: d3af 09bc cf31 cebc f778 a6bd 330a 823d
00000060: cc98 403d ec16 723d d7b3 623c 3c04 77bd
00000070: 5143 4c3d 61d2 a83d c269 8bbd 5848 a03d
00000080: 1b12 8c3d 2ee9 85bd 5337 7e3c cdde a33d
00000090: 5595 bd3c ece3 9d3c 9c2c 54bd c6f4 84bd
000000a0: d3d5 96bd 0f74 303d 22f5 643c 10d3 df3c
000000b0: c4ef 873d 5cbf 6a3d 442d 933d f422 0ebc
000000c0: 5d6a 93bd de2e 533d ce15 5a3c 13cc 273c
000000d0: e316 523d 7fdf e8bc e99f 0a3d b08a 373d
000000e0: 432a a33d bfd8 bcbc 50ec a3bd 21d0 a03c
000000f0: 0843 923d 863e 4e3d e3ad 07bd eaa8 913d
00000100: fd78 a2bd 722f 06bd 832e b2bd 395c c8bb
00000110: e136 a53d 6d43 ac3d 3a3a 333d 8f20 0d3c
00000120: 38f3 84bd d960 a23d 2aab aebc 9def 883d
00000130: bff6 913c 76e1 a83d 73b8 9cbd dbb4 813c
00000140: 3c6f 83bc 2543 93bc e8ae 853c 3b40 e53c
00000150: 6c3a bfbc c81e 29bd 75ec 1abd e5da 93bd
00000160: eddf c1bb b5d7 97bd da32 023d 0b49 a3bc
00000170: 5b1a 7f3d a3f1 03bd 7cf6 e03c 88af 48bc
00000180: 050d 6dbd 09d0 9bbd c7f3 a0bd 780a b03d
00000190: 3156 91bc 6fe7 8abd 3fe5 4d3d 3ce1 e1bb
000001a0: 0c53 a5bd 07cf e1bc 7bf2 a2bc 8526 403c
000001b0: 3103 a53c ff7d a3bb aaeb d7bc cd74 573d
000001c0: 835d 3c3d 6fa7 8dbb 53a9 7e3d 5188 ae3d
000001d0: 7fb5 913c c72a 61bd 37f2 a5bd d57f 8ebd
000001e0: 697c e4bb 9eeb 753d 462a 083d a7d1 e03c
000001f0: 6985 7cbd 6c06 923c 14b7 56bc 9e0c 463d

fc3.weight f4 [128, 128]
-1.100849 1.884207 0.81098294 1.4832717 0.6617137 -0.7250952 0.31963754 0.4557364
0.4383679 -1.3155621 1.500713 1.2105851 1.2818581 0.29761046 -0.13629602 -0.31081343
0.42281154 2.920748 -0.035179276 1.0206373 -1.176403 -1.0297246 1.0637952 0.4593125
-0.5008124 -0.58350456 -0.7900135 0.7843179 -0.08723626 -1.0663997 -0.8007475 0.66179186
1.0882641 0.8184933 0.54763895 -0.8947975 0.6201796 -0.69397306 2.668522 0.4447701
-0.19726048 1.0794123 -1.0589167 -0.55438155 -0.30089027 0.067644544 0.78060776 -0.91739243
0.84487957 0.9060481 -0.21257728 0.6211982 -0.42257828 0.1784671 0.771793 -0.8169503
-0.82734966 -0.2503196 0.85040945 1.4714141 1.0475552 0.3090868 0.66610223 1.467854
-0.5718322 -0.7768646 0.50433403 -1.4274113 -0.8243802 0.23309924 1.2251327 -0.5553213
-1.2040188 1.1719805 -0.69057274 0.31144628 -1.8630831 -0.3836259 -0.74761164 -3.2694404
0.48290545 0.22190915 0.6197147 0.5908493 -0.10041388 0.46413845 -0.41632122 1.3815012
-0.57486606 0.09557143 -0.278656 -0.32215387 1.7408717 0.75071764 -0.35553938 -0.6726471
2.3004527 -0.65758723 -2.1684856 1.3301748 -1.298949 -1.3463421 0.04729527 -1.386061
0.12824629 -0.5177106 0.05819899 0.5202947 1.5030912 0.19297825 -1.2595818 -1.0362281
0.84064627 -3.0230877 -0.51797724 1.955299 -0.7194853 -0.631133 1.0582845 1.4268179
-0.96499264 -1.2610234 -0.4632255 -0.012097453 -0.7459363 0.18160427 -0.4623371 -0.91292727
-0.0923426 0.22391708 0.15328479 0.1874612 1.3890587 1.6412652 -0.22442512 -0.3886152
-0.12016665 1.042106 -0.6530399 -0.3295095 0.3517849 0.7853214 -1.304757 0.57812977
1.2147175 0.97833395 1.0430384 -1.166489 -1.1345905 -0.52499086 -1.3407931 -0.9871202
0.73154294 -1.4828439 0.70860934 -0.40282884 -1.088199 1.1398023 -1.3824143 -1.0156298
-0.8155281 0.2536024 1.2604665 0.009041904 -1.7560697 -1.2088233 0.1531709 -0.9846881
-0.23271117 -0.35370106 -1.9889888 -0.39424002 1.9557791 1.9337085 1.1149368 -1.3236408
0.01659064 0.036879875 1.0889655 -1.056377 0.55106395 0.1397887 0.6756647 -1.128441
-0.5467327 0.20621875 -0.8687682 0.6856062 -0.4049575 -2.395022 1.177515 -0.31754357
-0.819489 -0.5056191 1.0115986 -0.52215016 0.4463031 -0.96728176 -1.8043976 0.19984083
0.6968134 1.5194159 -1.4002818 0.65896547 1.3173311 1.6378186 -0.6481822 -1.0270795
-0.548555 -0.8310877 2.1784585 0.8800156 -0.63171595 -0.56855094 -0.12883759 -0.22959755
0.05162221 -0.45355994 -2.8733995 -1.7164017 0.6142806 2.2862024 -0.39785185 -2.5392222
0.017770037 -0.18538886 -0.5124645 -0.511363 -1.130572 1.1712861 0.77434117 -1.4779277
-0.068542704 0.0791856 0.59596735 -0.04437914 2.8303366 -3.1813657 0.11885411 0.6430878
-1.4156885 1.9539448 -0.9568787 -0.4407855 -0.059596613 -1.1414585 -0.7402191 1.1283423
0.6423206 -0.027687073 -1.2019248 1.4928349 0.2820436 1.0271652 -0.67352915 -1.7720604
00000000: 9fe8 8cbf b22d f13f 949c 4f3f d9db bd3f
00000010: 1266 293f d79f 39bf 88a7 a33e 4856 e93e
00000020: c271 e03e 5764 a8bf 5d17 c03f 74f4 9a3f
00000030: ed13 a43f 6660 983e 2f91 0bbe f022 9fbe
00000040: c17a d83e 89ed 3a40 2518 10bd 3ea4 823f
00000050: 6094 96bf 04ce 83bf 712a 883f 022b eb3e
00000060: 3e35 00bf 8e60 15bf 533e 4abf 0fc9 483f
00000070: eda8 b2bd c97f 88bf cafd 4cbf 316b 293f
00000080: 3d4c 8b3f c788 513f 1132 0c3f 7311 65bf
00000090: 17c4 1e3f 38a8 31bf 10c9 2a40 e8b8 e33e
000000a0: a7fe 49be 2f2a 8a3f 958a 87bf f3eb 0dbf
000000b0: 4a0e 9abe 3989 8a3d e9d5 473f 3bda 6abf
000000c0: 074a 583f c5f2 673f dcad 59be d806 1f3f
000000d0: 2e5c d8be 14c0 363e 3a94 453f a823 51bf
000000e0: 30cd 53bf e429 80be 6fb4 593f 4c57 bc3f
000000f0: 4a16 863f a040 9e3e ad85 2a3f a4e2 bb3f
00000100: 9863 12bf 99e0 46bf 091c 013f 6ab5 b6bf
00000110: 950a 53bf 91b1 6e3e 26d1 9c3f 8929 0ebf
00000120: 4a1d 9abf 7503 963f 60c9 30bf e375 9f3e
00000130: 8279 eebf 9d6a c4be 7a63 3fbf 833e 51c0
00000140: 623f f73e 273c 633e 9fa5 1e3f e641 173f
00000150: cba5 cdbd 8ea3 ed3e 0e28 d5be 08d5 b03f
00000160: 6c2a 13bf f4ba c33d 00ac 8ebe 5af1 a4be
00000170: e2d4 de3f 082f 403f 4209 b6be 9a32 2cbf
00000180: 9e3a 1340 a357 28bf 78c8 0ac0 2b43 aa3f
00000190: f643 a6bf f054 acbf afb8 413d 726a b1bf
000001a0: ff52 033e af88 04bf 1062 6e3d 0932 053f
000001b0: 4b65 c03f 179c 453e fa39 a1bf 1fa3 84bf
000001c0: 9834 573f 457a 41c0 289a 04bf 3d47 fa3f
000001d0: 3030 38bf ef91 21bf de75 873f f8a1 b63f
000001e0: c209 77bf 3769 a1bf e52b edbe 6534 46bc
000001f0: aef5 3ebf 78f6 393e 73b7 ecbe 9ab5 69bf
00000200: 1e1e bdbd 854a 653e b0f6 1c3e d4f5 3f3e
00000210: adcc b13f fa14 d23f b3cf 65be 92f8 c6be
00000220: ef19 f6bd bb63 853f 9f2d 27bf 78b5 a8be
00000230: 271d b43e d30a 493f 4702 a7bf 5000 143f
00000240: dd7b 9b3f 1874 7a3f 4882 853f 834f 95bf
00000250: 433a 91bf cd65 06bf 1c9f abbf e9b3 7cbf
00000260: 6646 3b3f d4cd bdbf 6c67 353f 953f cebe
00000270: 1b4a 8bbf 0be5 913f f4f2 b0bf 2800 82bf
00000280: 73c6 50bf 2cd8 813e f756 a13f 7e24 143c
00000290: e4c6 e0bf b9ba 9abf d5d8 1c3e 8514 7cbf
000002a0: d64b 6ebe 4e18 b5be 2f97 febf d4d9 c9be
000002b0: f856 fa3f c383 f73f 40b6 8e3f 106d a9bf
000002c0: 18e9 873c 5a0f 173d 3963 8b3f 5d37 87bf
000002d0: 8712 0d3f c524 0f3e 5df8 2c3f c170 90bf
000002e0: adf6 0bbf 022b 533e 9867 5ebf e383 2f3f
000002f0: 9756 cfbe 0a48 19c0 d0b8 963f 1295 a2be
00000300: 08ca 51bf 4170 01bf 107c 813f a2ab 05bf
00000310: d781 e43e c79f 77bf 80f6 e6bf 13a3 4c3e
00000320: 5d62 323f 387c c23f 6f3c b3bf f6b1 283f
00000330: 4e9e a83f 0aa4 d13f 45ef 25bf 5777 83bf
00000340: 1a6e 0cbf 2ac2 54bf dd6b 0b40 b448 613f
00000350: 23b8 21bf 8e8c 11bf 00ee 03be 9f1b 6bbe
00000360: cf71 533d 0239 e8be c7e5 37c0 0db3 dbbf
00000370: 7e41 1d3f 2451 1240 3db3 cbbe 9e82 22c0
00000380: 7892 913c 94d6 3dbe e030 03bf b0e8 02bf
00000390: 95b6 90bf b4ec 953f 393b 463f bc2c bdbf
000003a0: 1e60 8cbd 0f2c a23d 5191 183f e7c6 35bd
000003b0: 3c24 3540 7f9b 4bc0 c969 f33d 67a1 243f
000003c0: 4835 b5bf dd1a fa3f 01f6 74bf a3ae e1be
000003d0: 941b 74bd 501b 92bf 007f 3dbf 856d 903f
000003e0: 1f6f 243f 00d0 e2bc acd8 99bf 3715 bf3f
000003f0: 0568 903e 267a 833f 686c 2cbf e0d2 e2bf

fc3.bias f4 [128]
-0.010083424 -0.057436824 0.016608778 -0.02356473 0.03003811 0.014288636 -0.08080452 0.05564418
0.005255375 -0.06824806 -0.011068525 0.09067023 -0.0135791 -0.035014007 0.057830576 0.064470835
0.057844758 -0.0694165 0.017018182 0.030190684 0.0641256 -0.024024513 -0.036326263 -0.038384248
0.06358112 -0.076661445 0.058990717 -0.014747918 0.0369405 -0.016728088 -0.083647415 0.013826399
-0.08060925 -0.04357454 -0.07385649 0.011619505 0.052108653 -0.011095262 0.048088063 -0.0832097
0.051344384 -6.4358464e-05 -0.036284305 0.06473323 -0.07325918 -0.023518607 0.058567148 -0.007140762
0.07916585 -0.08482572 0.014249478 0.03897117 0.0011263086 0.054728605 -0.08965554 -0.01815287
0.0049382825 0.0060217 -0.03503475 -0.04543364 0.08200698 0.03457229 -0.065479495 0.018631944
0.004717516 0.071242474 0.0080814725 0.027402587 0.04665193 -0.0038664676 0.08513135 0.057251357
0.08058759 0.07023538 0.08895671 -0.0066615264 -0.02616708 -0.046855062 -0.001287617 -0.033725176
0.08555723 0.015377308 0.027398566 -0.081087805 0.039316237 0.011713435 0.066570915 0.018994855
0.0029805414 0.0014457745 -0.047679022 0.04150396 0.023084512 -0.07110906 -0.07694033 -0.02277426
0.08483472 0.02180778 -0.006033117 0.0712627 -0.03422098 0.043598242 -0.07486085 0.052064482
-0.024043072 -0.032449253 -0.028354555 -0.011481297 -0.051969342 0.012438691 0.058107782 0.055451967
-0.07008263 0.025782982 -0.081360064 0.08425828 0.07464755 -0.045325924 0.07404777 0.014767789
-0.0148017 -0.054069135 -0.005237212 0.002673096 0.055329718 0.007308538 0.04846409 0.08967798
00000000: f234 25bc e042 6bbd 220f 883c d20a c1bc
00000010: 7c12 f63c e21a 6a3c d77c a5bd 27eb 633d
00000020: 4835 ac3b a4c5 8bbd c258 35bc 50b1 b93d
00000030: e07a 5ebc d96a 0fbd c1df 6c3d 4909 843d
00000040: a0ee 6c3d 3d2a 8ebd b769 8b3c 7452 f73c
00000050: 4854 833d 0ecf c4bc d9ca 14bd cd38 1dbd
00000060: d136 823d ad00 9dbd 40a0 713d 40a1 71bc
00000070: ec4e 173d 5809 89bc 564f abbd 1f88 623c
00000080: 7616 a5bd 387b 32bd 1242 97bd bc5f 3e3c
00000090: e26f 553d e7c8 35bc fdf7 443d d969 aabd
000000a0: 7d4e 523d 30f8 86b8 da9e 14bd db92 843d
000000b0: e908 96bd 18aa c0bc 1be4 6f3d 0efd e9bb
000000c0: b521 a23d 1bb9 adbd a476 693c 3ca0 1f3d
000000d0: a5a0 933a 1a2b 603d 539d b7bd 54b5 94bc
000000e0: 51d1 a13b ae51 c53b 9980 0fbd a018 3abd
000000f0: 47f3 a73d ac9b 0d3d 1d1a 86bd 05a2 983c
00000100: 6495 9a3b 93e7 913d 2768 043c 647b e03c
00000110: 1816 3f3d 9064 7dbb 5859 ae3d 6680 6a3d
00000120: 1b0b a53d 91d7 8f3d f02e b63d ef48 dabb
00000130: 585c d6bc 18eb 3fbd 42c5 a8ba 6923 0abd
00000140: a138 af3d 1bf1 7b3c f572 e03c 5d11 a6bd
00000150: 100a 213d b5e9 3f3c 5556 883d 199b 9b3c
00000160: 3055 433b 2480 bd3a 144b 43bd 0e00 2a3d
00000170: bb1b bd3c a0a1 91bd e492 9dbd 1691 babc
00000180: d3bd ad3d 3ba6 b23c 74b1 c5bb 2ef2 913d
00000190: 4c2b 0cbd 1294 323d a550 99bd 9141 553d
000001a0: faf5 c4bc 82e9 04bd d047 e8bc 0d1c 3cbc
000001b0: cedd 54bd a7cb 4b3c 6d02 6e3d 9a21 633d
000001c0: 7b87 8fbd d536 d33c 1ba0 a6bd 9b8f ac3d
000001d0: d1e0 983d ada7 39bd 5ba6 973d 99f4 713c
000001e0: d482 72bc 9977 5dbd eb9c abbb 1c2f 2f3b
000001f0: 6aa1 623d 767c ef3b 4882 463d 17a9 b73d

out.weight f4 [2, 128]
-3.1447775 0.35621098 -1.9025462 -0.62360555 0.6632375 0.78823483 0.47325167 0.6938443
-2.1591382 0.68598455 0.25252917 1.0372282 0.23803414 0.52637595 1.9144775 -0.36900592
-0.2538134 0.4334138 0.31223422 1.1805878 -0.27055627 1.651662 -0.8610252 0.49621168
1.0447602 -0.4260832 -0.14546224 -1.6233767 0.40742183 0.29248342 0.05701883 0.9086404
0.02522314 0.10651645 0.11840705 2.0001056 -0.3589204 0.7480528 0.71354526 0.39610285
0.20458 -0.45799306 0.782368 -0.21980238 -1.0191855 -0.8952475 0.7780552 -0.46027014
-1.3403692 -1.2626778 -0.5317678 0.38553482 0.04668142 -0.8652245 -0.41108 0.38925454
-0.08274525 0.4072505 1.5984915 -0.19015995 0.61416095 -1.943152 0.6744884 0.88109696
0.0793892 -1.6553646 0.5456252 0.3914719 0.46638405 -0.0013062259 0.06649053 2.3876808
-0.18403742 -1.8113196 -1.1250336 -0.6651094 0.11401213 1.0367212 -0.39872658 -1.1693372
-0.094606 0.19009927 -0.45082548 -0.94245124 0.8318727 1.8491582 -0.3346292 0.8453587
0.31273437 0.27975178 -0.08630108 -0.23395437 1.3726451 0.44323397 -1.5347497 -2.4219155
-1.0925125 -0.822662 -1.1479341 -1.8212149 1.5849222 0.56779474 -0.9956073 -0.15564395
1.9150653 0.034807585 -0.20990469 1.8886125 0.4877662 -0.5890699 -0.31267732 -0.7820873
-0.07976936 -0.9229967 1.525467 -0.12817518 0.98490065 0.31550932 -0.57427144 -1.3054513
0.37060633 -0.089054026 -1.231183 0.11428332 0.03977458 -0.07779687 0.5822819 -0.24943669
0.2219912 1.4279238 -0.3823872 0.7804696 0.82184726 0.3079607 -0.21036091 0.8458342
-0.7649431 1.1265323 -0.3568298 -0.27418962 0.51109165 -0.24372904 0.90951014 -0.7453293
0.41956642 2.2570097 0.85904336 -0.056438133 0.07371848 -0.18942095 0.014732 -0.7750782
-1.6656909 -1.1736022 -0.8897971 -0.24472551 0.13931212 -2.797705 1.1891432 0.42367607
-1.4669136 0.9384424 0.30002335 0.95312446 -0.49782324 0.09034172 0.8785714 1.7278479
1.0332379 1.5833225 0.72052145 -1.2577217 -0.83475053 -2.1150281 0.74019444 -0.57017213
-0.24709873 -1.7186776 0.70433176 -0.70971316 0.7716853 -0.6710238 0.77710366 1.0923533
0.75062823 1.5812979 -1.0508025 -0.68747 1.8479303 -0.9833548 -0.37087396 -1.0158609
-0.090645604 0.38207215 1.5010438 1.4597126 -0.36477816 2.5907145 -0.1811875 -1.0119892
-0.4016763 0.033099532 -1.7821741 0.13333629 -1.2100375 1.4295547 -1.0313268 -1.0810833
-0.041280963 0.48221454 -0.36093315 -0.035105936 0.47261062 -0.6585271 0.3938171 -0.115304746
0.31255502 -0.07985425 -0.8684362 1.0525725 -0.67471266 0.6726757 -0.256723 0.10378726
1.0106822 -0.27842999 -0.30436435 -0.34618586 -0.60844725 -2.0380197 -1.9166286 -1.0768299
0.8361292 0.9210745 -1.0258409 -0.3295482 -0.761396 -1.0566865 -0.44611564 0.56909144
0.1380358 0.67861754 -0.37859774 -0.63433194 -0.9337256 0.34368497 -0.5243068 -1.2511348
-0.36668107 0.20836015 -0.5527978 1.1904328 1.7164032 -0.32496226 -0.23074526 -0.46596697
00000000: 0944 49c0 4961 b63e a286 f3bf 9da4 1fbf
00000010: efc9 293f c2c9 493f 0b4e f23e c89f 313f
00000020: 522f 0ac0 af9c 2f3f 814b 813e e5c3 843f
00000030: 39bf 733e 93c0 063f 990d f53f 58ee bcbe
00000040: d4f3 81be 6ae8 dd3e 2add 9f3e 801d 973f
00000050: 5a86 8abe a969 d33f 266c 5cbf 750f fe3e
00000060: b4ba 853f 9427 dabe 0ef4 14be cfca cfbf
00000070: 9899 d03e 63c0 953e 948c 693d a89c 683f
00000080: c2a0 ce3c 4c25 da3d 657f f23d bb01 0040
00000090: 6ac4 b7be 6380 3f3f e7aa 363f fecd ca3e
000000a0: 6b7d 513e 117e eabe 4549 483f e013 61be
000000b0: ac74 82bf f12e 65bf a02e 473f 87a8 ebbe
000000c0: 3891 abbf 6d9f a1bf ef21 08bf d264 c53e
000000d0: 0435 3f3d 5a7f 5dbf 1479 d2be 5f4c c73e
000000e0: 5776 a9bd 2383 d03e 5f9b cc3f 4ab9 42be
000000f0: a739 1d3f 34b9 f8bf 46ab 2c3f 928f 613f
00000100: ce96 a23d fde2 d3bf 18ae 0b3f 016f c83e
00000110: e4c9 ee3e ab35 abba 302c 883d c3cf 1840
00000120: 4e74 3cbe 52d9 e7bf 1a01 90bf 9c44 2abf
00000130: 317f e93d 48b3 843f e425 ccbe d7ac 95bf
00000140: cac0 c1bd 62a9 423e 99d2 e6be 7c44 71bf
00000150: 9cf5 543f 37b1 ec3f 8554 abbe 6e69 583f
00000160: b81e a03e a03b 8f3e 9fbe b0bd bc91 6fbe
00000170: d6b2 af3f 90ef e23e ae72 c4bf aa00 1bc0
00000180: 73d7 8bbf fa99 52bf 81ef 92bf 921d e9bf
00000190: bbde ca3f ff5a 113f 1fe0 7ebf 2161 1fbe
000001a0: dc20 f53f 6692 0e3d 41f1 56be 0ebe f13f
000001b0: 7ebc f93e 49cd 16bf 3e17 a0be e036 48bf
000001c0: 1e5e a3bd 8349 6cbf 8142 c33f 5b40 03be
000001d0: 7322 7c3f 708a a13e 7403 13bf 0719 a7bf
000001e0: 1dc0 bd3e f561 b6bd 6897 9dbf 600d ea3d
000001f0: acea 223d f753 9fbd 6d10 153f 556c 7fbe
00000200: a951 633e 35c6 b63f 41c8 c3be dbcc 473f
00000210: 9564 523f 06ad 9d3e da68 57be 9788 583f
00000220: 50d3 43bf 3632 903f 65b2 b6be 9562 8cbe
00000230: e7d6 023f 1b94 79be a8d5 683f e7cd 3ebf
00000240: 69d1 d63e d972 1040 44ea 5b3f ac2b 67bd
00000250: b7f9 963d 91f7 41be 7d5e 713c 866b 46bf
00000260: 5c35 d5bf 9938 96bf bec9 63bf 5399 7abe
00000270: d6a7 0e3e 990d 33c0 d835 983f 12ec d83e
00000280: d3c3 bbbf c33d 703f a99c 993e f7ff 733f
00000290: b0e2 febe 1405 b93d 0eea 603f 1f2a dd3f
000002a0: 2441 843f 50aa ca3f 1874 383f 06fd a0bf
000002b0: 36b2 55bf 9f5c 07c0 627d 3d3f cdf6 11bf
000002c0: 7307 7dbe a1fd dbbf 164f 343f c3af 35bf
000002d0: 2b8d 453f 37c8 2bbf 44f0 463f 3cd2 8b3f
000002e0: 2c29 403f f867 ca3f b280 86bf 09fe 2fbf
000002f0: fb88 ec3f 24bd 7bbf 31e3 bdbe bb07 82bf
00000300: 67a4 b9bd f69e c33e 3422 c03f ddd7 ba3f
00000310: 34c4 babe 44ce 2540 3789 39be dd88 81bf
00000320: 84a8 cdbe 6093 073d 481e e4bf 4f89 083e
00000330: 82e2 9abf a6fb b63f 8402 84bf f060 8abf
00000340: 3a16 29bd d3e4 f63e 3bcc b8be 3ecb 0fbd
00000350: 05fa f13e 3b95 28bf 65a2 c93e e524 ecbd
00000360: 3607 a03e a08a a3bd d651 5ebf b2ba 863f
00000370: f8b9 2cbf 7a34 2c3f 3271 83be 6a8e d43d
00000380: 095e 813f 608e 8ebe a5d5 9bbe 463f b1be
00000390: 33c3 1bbf ea6e 02c0 1654 f5bf 90d5 89bf
000003a0: 900c 563f 8acb 6b3f c14e 83bf 8bba a8be
000003b0: d9ea 42bf 8141 87bf 4569 e4be faaf 113f
000003c0: 4259 0d3e e1b9 2d3f 90d7 c1be 9463 22bf
000003d0: a408 6fbf 7af7 af3e f838 06bf 2f25 a0bf
000003e0: 9fbd bbbe 5d5c 553e 2884 0dbf 1a60 983f
000003f0: 1ab3 db3f 7461 a6be 7c48 6cbe 3993 eebe

out.bias f4 [2]
-0.058621522 -0.050368883
00000000: 1f1d 70bd 9a4f 4ebd
