Santiago_version/models/Umbumping_cars_V5.pth (torch, 39352 bytes, 8 tensors)

fc1.weight f4 [64, 8]
0.31178173 0.26684666 -0.20438118 0.094337836 0.34810838 0.641461 0.21532139 -0.042794343
0.042915195 -0.022300392 0.13077083 0.08373813 0.25893953 0.7210459 0.05493256 0.018202323
-0.11215345 0.16861074 -0.24024634 -0.24667396 0.01027865 -0.33559 -0.10575109 0.15546998
-0.044819597 0.35047576 -0.30358094 -0.4291419 0.12584786 0.5957433 -0.011968513 -0.11660994
-0.0916809 0.20786247 -0.1379232 -0.35987553 -0.101518616 -0.7092233 -0.17367241 -0.26968858
0.2824384 0.5404944 0.08502819 0.20578879 0.19035503 0.7281129 0.25161222 0.027099598
0.6021899 0.42203468 -0.073921084 -0.16086788 -0.11361082 -0.25536588 0.051468056 0.20807987
-0.26968434 0.08156868 -0.07242925 0.32277155 -0.44117445 -0.68364877 0.26473647 -0.050317377
0.31120405 0.24225809 0.4389032 0.44280818 0.26734394 -0.7225573 0.10592389 0.0007536874
0.43061432 0.048821654 0.41350478 0.20526263 0.51270574 -0.43154922 0.09790175 0.21364848
-0.34246632 -0.04438329 0.037112907 0.23678541 -0.5116406 0.15067048 0.053067397 -0.048976295
-0.072765484 -0.18333498 0.36130145 0.34575418 -0.34828636 -0.16292275 0.29964837 0.25106153
0.23162055 -0.3265679 -0.19708459 0.29084074 0.38420397 0.5779284 -0.014583974 0.09168565
-0.4611794 -0.5837882 0.2246012 0.16235171 -0.20196657 0.6047053 0.20460156 0.15445454
0.33213988 0.10524751 0.18467902 0.20666422 0.32574186 0.4071404 0.10314718 -0.20178807
0.14325428 0.21726695 0.16796216 0.16848959 -0.077610984 0.06457419 -0.07492123 0.28321454
-0.060463414 0.45989954 -0.32136065 0.049050923 0.33511275 0.047413737 -0.29752117 0.13234547
-0.2604566 -0.35358402 0.017686319 0.23882864 0.18904084 -0.5507985 0.07818939 0.022262696
0.34975183 0.104949124 -0.25112763 -0.40908808 -0.09250505 0.41660613 -0.24709405 0.21981336
0.25368094 0.21106869 -0.00066542625 -0.40960538 0.06456401 0.35645002 0.0026689938 -0.29860875
0.12105715 -0.33291113 0.06506246 0.061958063 0.11199547 0.6212083 -0.015240761 0.15031314
0.06984206 0.08381937 0.20613651 -0.32886386 -0.14110617 -0.6073754 -0.010359415 0.23956633
-0.37951314 0.36332798 -0.03846285 0.030095445 -0.4554164 -0.58217406 -0.1906784 -0.026221244
0.14283557 -0.46967965 0.19825564 -0.009884559 0.011162893 -0.40198827 0.11612144 -0.011877777
0.07283021 0.34947872 -0.32564458 -0.10290587 -0.1494959 0.8237524 -0.20757817 0.06567921
0.1428531 -0.40924582 0.048205696 0.09531767 0.06978821 0.21605192 0.10760516 0.19097447
0.5146341 0.06937433 -0.012034718 0.35985664 0.13177373 -0.42661723 0.07855126 0.18801175
0.07938408 -0.20175417 0.26284757 0.12613438 0.14741443 0.3087902 -0.2275767 0.096986346
-0.15548895 -0.2777571 0.50505525 0.059729986 -0.27099386 0.36852896 0.07667713 -0.056183808
0.0035272508 0.044683363 0.38391307 -0.3877508 0.013370219 -0.07422755 0.037004434 -0.24571757
0.45938063 -0.25260118 0.08333034 0.1199958 -0.00683618 -0.3985022 -0.07314464 0.2377903
-0.049862742 -0.14441568 0.12734537 0.23190457 0.13366531 0.7916938 0.02501703 -0.2163616
00000000: dba1 9f3e 20a0 883e 4d49 51be 3234 c13d
00000010: 433b b23e ca36 243f 367d 5c3e 1f49 2fbd
00000020: d8c7 2f3d 50af b6bc cae8 053e e67e ab3d
00000030: b993 843e 7796 383f f700 613d 0a1d 953c
00000040: b5b0 e5bd 4ba8 2c3e 2303 76be 1998 7cbe
00000050: c867 283c 74d2 abbe 0794 d8bd 8633 1f3e
00000060: c194 37bd 8f71 b33e f66e 9bbe 7db8 dbbe
00000070: 43de 003e a282 183f 9517 44bc 31d1 eebd
00000080: 32c3 bbbd e6d9 543e bd3b 0dbe 9b41 b8be
00000090: fee8 cfbd a88f 35bf 2ed7 31be 9f14 8abe
000000a0: c49b 903e d75d 0a3f 4223 ae3d 4cba 523e
000000b0: 6eec 423e 9b65 3a3f 51d3 803e faff dd3c
000000c0: 1e29 1a3f ee14 d83e f063 97bd 8dba 24be
000000d0: caac e8bd 51bf 82be 2bd0 523d e412 553e
000000e0: 1114 8abe 7b0d a73d c955 94bd 5042 a53e
000000f0: 9ee1 e1be 9b03 2fbf 8a8b 873e 9819 4ebd
00000100: 2356 9f3e 8112 783e ecb7 e03e c1b7 e23e
00000110: 4ee1 883e 84f9 38bf a0ee d83d 1b93 453a
00000120: 7b79 dc3e 37f9 473d e6b6 d33e 5e30 523e
00000130: af40 033f 05f4 dcbe b680 c83d abc6 5a3e
00000140: bf57 afbe 41cb 35bd b403 183d e077 723e
00000150: e1fa 02bf 5d49 1a3e 335d 593d 5e9b 48bd
00000160: 1206 95bd 2abc 3bbe 81fc b83e b106 b13e
00000170: 9752 b2be 39d5 26be 836b 993e 238b 803e
00000180: f02d 6d3e e833 a7be 8bd0 49be 14e9 943e
00000190: 62b6 c43e 1ef3 133f 9ff1 6ebc b0c5 bb3d
000001a0: b51f ecbe 2573 15bf dbfd 653e 873f 263e
000001b0: 53d0 4ebe f7cd 1a3f 1283 513e 5529 1e3e
000001c0: 3d0e aa3e 028c d73d 7f1c 3d3e c99f 533e
000001d0: a3c7 a63e b574 d03e d43e d33d 88a1 4ebe
000001e0: 40b1 123e 3a7b 5e3e 46fe 2b3e 8988 2c3e
000001f0: 82f2 9ebd 793f 843d 4d70 99bd 7f01 913e
00000200: 7ca8 77bd f477 eb3e 6289 a4be 9fe9 483d
00000210: e693 ab3e e834 423d b254 98be 9285 073e
00000220: 915a 85be f708 b5be e6e2 903c 7f8f 743e
00000230: ec93 413e 2101 0dbf c221 a03d 4260 b63c
00000240: ac12 b33e 91ef d63d cd93 80be fe73 d1be
00000250: 4a73 bdbd 664d d53e 3906 7dbe c116 613e
00000260: 78e2 813e 6422 583e 0070 2eba ccb7 d1be
00000270: 233a 843d 9e80 b63e 49ea 2e3b 3fe3 98be
00000280: d0ec f73d 5473 aabe 783f 853d bdc7 7d3d
00000290: e25d e53d 8207 1f3f 63b4 79bc b0eb 193e
000002a0: 5b09 8f3d 7da9 ab3d 7315 533e d860 a8be
000002b0: 237e 10be f47c 1bbf 89ba 29bc e050 753e
000002c0: 8c4f c2be 2006 ba3e 398b 1dbd b98a f63c
000002d0: 572c e9be 5c09 15bf 3341 43be efcd d6bc
000002e0: 7d43 123e da79 f0be 8703 4b3e d8f2 21bc
000002f0: 91e4 363c 68d1 cdbe 14d1 ed3d 029b 42bc
00000300: 0128 953d e0ee b23e e3ba a6be 50c0 d2bd
00000310: 7415 19be 70e1 523f 5f8f 54be d282 863d
00000320: 1548 123e ab88 d1be 5673 453d e935 c33d
00000330: 1fed 8e3d b73c 5d3e 1860 dc3d d08e 433e
00000340: 0fbf 033f 2114 8e3d 442d 45bc 213f b83e
00000350: b1ef 063e 936d dabe 7cdf a03d 2786 403e
00000360: 1f94 a23d a598 4ebe f593 863e 5f29 013e
00000370: cff3 163e c019 9e3e de09 69be c7a0 c63d
00000380: 7f38 1fbe 2e36 8ebe 4d4b 013f 6ea7 743d
00000390: b5bf 8abe d4af bc3e e608 9d3d fe20 66bd
000003a0: 7329 673b e705 373d 4190 c43e 4687 c6be
000003b0: c30e 5b3c 9d04 98bd f691 173d 639d 7bbe
000003c0: f033 eb3e f154 81be 19a9 aa3d 5cc0 f53d
000003d0: 0902 e0bb 7b08 ccbe dbcc 95bd 4d7f 733e
000003e0: e03c 4cbd b4e1 13be d366 023e 6478 6d3e
000003f0: 8fdf 083e 72ac 4a3f 84f0 cc3c e58d 5dbe

fc1.bias f4 [64]
-0.1052858 0.34128618 -0.06265071 0.32101506 0.105801195 0.036450192 -0.31295088 -0.03724773
-0.24068391 -0.1308437 0.34204087 -0.011826915 0.0887318 0.55229026 0.011116043 -0.33091745
0.04145685 0.005255304 0.18471009 -0.076534666 0.10535492 -0.13534991 -0.24816667 -0.31654856
0.23670016 0.22578596 -0.22877955 -0.12897821 -0.025240859 -0.20736586 0.1171487 0.17057231
-0.20656453 0.3554554 -0.04781158 0.35912043 0.34270018 0.23115002 -0.09440923 -0.3111202
0.19544825 -0.21102327 0.13687305 -0.058359798 -0.037704356 -0.27847445 -0.0694015 0.33977857
0.11366538 0.08292776 -0.09342848 0.10120066 -0.3901649 0.042241592 -0.029223766 -0.127817
-0.15674192 0.33632007 -0.4696138 -0.11890473 0.16519134 0.30279303 0.09712362 0.12711948
00000000: 15a0 d7bd 10bd ae3e 044f 80bd 165c a43e
00000010: 4cae d83d cc4c 153d 193b a0be 1391 18bd
00000020: d875 76be e4fb 05be fb1f af3e adc5 41bc
00000030: 05b9 b53d e562 0d3f 1020 363c 036e a9be
00000040: a8ce 293d af34 ac3b a424 3d3e 35be 9cbd
00000050: 52c4 d73d 2b99 0abe 671f 7ebe a712 a2be
00000060: 8761 723e 6f34 673e 3045 6abe dd12 04be
00000070: ebc5 cebc b757 54be a8eb ef3d 82aa 2e3e
00000080: a785 53be 40fe b53e 13d6 43bd a2de b73e
00000090: 6676 af3e 97b2 6c3e a059 c1bd 264b 9fbe
000000a0: 9623 483e 7c16 58be 7328 0c3e af0a 6fbd
000000b0: e26f 1abd 3494 8ebe 6022 8ebd 75f7 ad3e
000000c0: 65c9 e83d 08d6 a93d 6e57 bfbd 4b42 cf3d
000000d0: b2c3 c7be 8505 2d3d ae66 efbc 76e2 02be
000000e0: f480 20be 2532 ac3e 3871 f0be 5384 f3bd
000000f0: eb27 293e b007 9b3e c0e8 c63d 9c2b 023e

fc2.weight f4 [64, 64]
-0.35115284 -0.29162607 0.10238139 -0.1250548 0.06663168 -0.16929589 -0.081291795 0.09046042
-0.16323608 -0.14323372 0.14063165 -0.05197998 -0.28351346 -0.25732064 -0.12948619 -0.23373273
0.16946346 0.09918145 -0.16084965 -0.2048556 -0.24270058 -0.032639388 0.15763147 -0.14458267
-0.08937673 -0.24295498 -0.008254154 -0.09095875 -0.3060924 -0.07805032 -0.23532516 -0.2646626
-0.29809764 0.08484635 -0.25558788 -0.30294272 -0.25519663 0.112258315 -0.28965446 -0.16342442
0.013509639 -0.15824333 0.12570149 0.16518141 -0.15918863 0.14519064 -0.1897976 0.0850948
-0.2524908 -0.12021026 -0.24429294 -0.20689406 -0.0948385 -0.011779968 0.11672359 -0.17147535
0.20944089 0.10122059 -0.18026432 0.048601758 -0.10043056 0.026135562 0.21042167 -0.011122326
0.1719978 0.50202984 -0.045198027 -0.023695486 -0.20201945 0.13182724 0.35554445 -0.22789973
0.030527715 0.17420955 -0.084107175 -0.09146281 0.28517383 0.2637482 0.27833492 0.06693131
0.10469965 0.09783913 0.105943 0.20877466 0.45298067 0.08709385 -0.2545874 -0.08552069
0.09376694 0.24695139 -0.0063038776 0.2283056 -0.00895332 0.07401623 -0.017751278 0.25019148
-0.012109046 -0.069312416 -0.1512653 0.16708955 -0.022507647 0.10900289 0.49415794 0.09376872
-0.14214355 -0.17117213 -0.107147016 -0.05713113 0.09088256 -0.0012252079 0.06078144 0.03197194
0.08077726 0.24206235 0.36563462 0.25616145 0.15590389 0.1440575 -0.09674712 0.20935626
-0.16438128 -0.07241121 -0.09592707 -0.13517943 -0.035712987 0.12172725 -0.07958095 0.09081953
-0.19178882 -0.15489234 -0.17358905 -0.14703694 0.0053793252 -0.22462748 -0.046809115 0.32780978
0.12557517 -0.21686359 0.13059276 0.2283472 -0.057320178 -0.20473486 -0.19576022 -0.04243235
0.07841724 -0.11079712 -0.2905359 -0.20144919 -0.23713571 -0.118598096 0.10044725 -0.031356778
-0.11305177 -0.3611914 0.051285304 -0.14140753 0.1610786 0.033000223 -0.095229834 -0.14415789
-0.12697005 0.2550726 -0.0026674166 0.053737883 0.071144745 -0.010647014 -0.35359177 0.06332763
0.10685889 -0.05179407 0.12838687 0.10897153 -0.07306771 0.06930806 -0.05463236 -0.027425308
-0.009858231 -0.4332566 -0.04784266 -0.26972786 0.013986119 -0.21497796 -0.044735055 -0.23065345
0.12673351 0.19899297 0.056691885 0.091184765 0.022912135 0.056916803 0.05555428 0.068601325
-0.10000099 -0.101020664 0.0044030966 0.1694031 0.5292544 -0.095963985 -0.006777204 0.31482062
0.25356615 0.15469794 -0.013819777 -0.024723215 -0.03050466 -0.12635657 -0.20616266 -0.10278857
-0.09895952 0.3623426 -0.051832363 -0.17287973 -0.16622925 0.14750788 0.08007003 0.34045297
-0.17031753 0.14540109 0.3332073 -0.01579844 -0.15686747 0.06497803 0.28864777 -0.20392115
0.39880228 0.2103588 -0.04961411 -0.0039750566 0.040124275 0.23346542 -0.38632336 0.12308922
0.29271168 0.019978182 0.20846894 0.12145338 -0.026193436 0.05636699 0.010340535 0.3494273
0.23407169 0.18069637 0.020997057 -0.0034212156 0.009328923 0.28860137 0.21474329 -0.09147588
0.3364677 0.23866282 -0.101487435 -0.0061022113 -0.114627995 -0.114104375 0.06308138 0.18473613
00000000: 4eca b3be 0350 95be 56ad d13d 5e0e 00be
00000010: 3176 883d e75b 2dbe 507c a6bd 5043 b93d
00000020: 5c27 27be dcab 12be be01 103e f6e8 54bd
00000030: ad28 91be 88bf 83be 0798 04be a257 6fbe
00000040: d487 2d3e a51f cb3d c5b5 24be abc5 51be
00000050: 8086 78be e1b0 05bd 256a 213e 7b0d 14be
00000060: 260b b7bd 31c9 78be 6e3c 07bc 9548 babd
00000070: 25b8 9cbe d9d8 9fbd 14f9 70be db81 87be
00000080: 41a0 98be ecc3 ad3d 6adc 82be 4f1b 9bbe
00000090: 22a9 82be b0e7 e53d 974d 94be bb58 27be
000000a0: 8857 5d3c 8a0a 22be e4b7 003e 5125 293e
000000b0: 5802 23be dbac 143e 4d5a 42be 2f46 ae3d
000000c0: 7946 81be cc30 f6bd ee27 7abe 09dc 53be
000000d0: b03a c2bd c400 41bc c70c ef3d 3c97 2fbe
000000e0: ac77 563e be4c cf3d 3697 38be a312 473d
000000f0: 8aae cdbd 3f1a d63c c778 573e 6b3a 36bc
00000100: 3120 303e 0785 003f 9121 39bd 091d c2bc
00000110: 30de 4ebe b8fd 063e ec09 b63e 8c5e 69be
00000120: 4215 fa3c fd63 323e 6240 acbd db50 bbbd
00000130: 4e02 923e 010a 873e ea81 8e3e 4813 893d
00000140: c56c d63d e25f c83d a5f8 d83d 06c9 553e
00000150: 15ed e73e 435e b23d 4859 82be 7925 afbd
00000160: e208 c03d d3e0 7c3e c290 cebb f1c8 693e
00000170: f2b0 12bc d295 973d 216b 91bc 1919 803e
00000180: 0565 46bc abf3 8dbd 4ae5 1abe 8619 2b3e
00000190: f561 b8bc e83c df3d 4502 fd3e d109 c03d
000001a0: 148e 11be bf47 2fbe e56f dbbd 5502 6abd
000001b0: a320 ba3d 2897 a0ba f6f5 783d 02f5 023d
000001c0: 8c6e a53d 31df 773e 7634 bb3e 9827 833e
000001d0: 45a5 1f3e cf83 133e 5b23 c6bd 7d61 563e
000001e0: 9153 28be 544c 94bd 6975 c4bd 7a6c 0abe
000001f0: c847 12bd 234c f93d 56fb a2bd 97ff b93d
00000200: 4a64 44be 199c 1ebe 54c1 31be da90 16be
00000210: 0d45 b03b bf04 66be eaba 3fbd afd6 a73e
00000220: c796 003e 7d11 5ebe 1cba 053e d9d3 693e
00000230: 90c8 6abd 04a6 51be 5e75 48be 8bcd 2dbd
00000240: 3899 a03d 9ae9 e2bd 1fc1 94be b248 4ebe
00000250: b4d3 72be 8fe3 f2bd 4ab7 cd3d f76f 00bd
00000260: b087 e7bd 14ee b8be 8a10 523d 23cd 10be
00000270: caf1 243e 3e2b 073d dc07 c3bd 209e 13be
00000280: 7004 02be e098 823e d3cf 2ebb 411c 5c3d
00000290: 56b4 913d d070 2ebc fb09 b5be ebb1 813d
000002a0: d5d8 da3d 0526 54bd d977 033e 772c df3d
000002b0: 86a4 95bd 62f1 8d3d 2ec6 5fbd 0aab e0bc
000002c0: 6b84 21bc cfd3 ddbe aaf6 43bd c519 8abe
000002d0: 0926 653c 2f23 5cbe 1b3c 37bd 6b30 6cbe
000002e0: 6ec6 013e d0c4 4b3e c035 683d 14bf ba3d
000002f0: 3bb2 bb3c 9821 693d e28c 633d da7e 8c3d
00000300: 52cd ccbd ece3 cebd da47 903b 0278 2d3e
00000310: 377d 073f c488 c4bd 4f13 debb 2b30 a13e
00000320: 6cd3 813e 2369 1e3e 596c 62bc 5788 cabc
00000330: e9e4 f9bc 9e63 01be 4e1c 53be d082 d2bd
00000340: 4aab cabd f884 b93e 2c4e 54bd 6207 31be
00000350: 0038 2abe 4e0c 173e c2fb a33d da4f ae3e
00000360: b867 2ebe 06e4 143e 269a aa3e bb6b 81bc
00000370: dea1 20be 3413 853d a4c9 933e b5d0 50be
00000380: d02f cc3e 4c68 573e 2a38 4bbd 3141 82bb
00000390: 5a59 243d 8f11 6f3e 2dcc c5be 3316 fc3d
000003a0: 4ede 953e 49a9 a33c e278 553e 8dbc f83d
000003b0: 9e93 d6bc 13e1 663d 596b 293c 23e8 b23e
000003c0: 7db0 6f3e 7808 393e 0502 ac3c 7936 60bb
000003d0: 57d8 183c 8fc3 933e aae5 5b3e b557 bbbd
000003e0: 7f45 ac3e 0764 743e a5d8 cfbd 0ff5 c7bb
000003f0: 15c2 eabd 8eaf e9bd d030 813d 782b 3d3e

fc2.bias f4 [64]
0.095010564 0.1659849 -0.09664171 0.09837325 -0.020402482 0.020728698 -0.14338416 -0.030678054
-0.035467423 -0.04115564 0.10056334 -0.022231357 -0.07106848 0.24625793 -0.04608924 -0.05371748
0.09537422 0.2644069 0.1993338 -0.20432295 -0.022125328 0.08574513 -0.064114645 0.21697408
0.07935209 0.009050747 -0.07496432 0.26086497 -0.13834244 -0.09760352 -0.010867572 0.025833307
-0.19543426 -0.099461764 -0.023180813 0.20909417 -0.23797561 -0.21001135 0.043078616 -0.068161406
-0.20768693 -0.0041450057 -0.10083326 -0.06176148 0.16289614 0.012880321 -0.05546285 -0.11042751
-0.22341324 -0.15282835 -0.056523923 -0.12545475 -0.00024628843 -0.034419905 0.026391067 0.07154707
0.17938834 -0.0014403865 -0.01599732 0.04601759 0.005678589 0.044361345 0.1333273 0.11222635
00000000: e694 c23d f2f7 293e 17ec c5bd ea77 c93d
00000010: 1b23 a7bc 3bcf a93c 4cd3 12be 8b50 fbbc
00000020: 4a46 11bd d192 28bd 27f4 cd3d 891e b6bc
00000030: 5a8c 91bd 0a2b 7c3e 12c8 3cbd dc06 5cbd
00000040: 8f53 c33d 5760 873e 291e 4c3e 093a 51be
00000050: 2d40 b5bc 259b af3d 8a4e 83bd 742e 5e3e
00000060: 5983 a23d 9649 143c e586 99bd 1890 853e
00000070: a4a9 0dbe 5be4 c7bd e70d 32bc 5fa0 d33c
00000080: eb1f 48be 9cb2 cbbd b0e5 bdbc c81c 563e
00000090: e1af 73be 370d 57be 3473 303d 3598 8bbd
000000a0: e2ab 54be d4d2 87bb ab81 cebd 9bf9 7cbd
000000b0: 3fce 263e fb07 533c 032d 63bd d227 e2bd
000000c0: 71c6 64be 097f 1cbe a185 67bd 3677 00be
000000d0: 4620 81b9 e3fb 0cbd 1432 d83c 4587 923d
000000e0: 94b1 373e 5acb bcba d00c 83bc f17c 3c3d
000000f0: 7513 ba3b 3eb4 353d f486 083e eed6 e53d

fc3.weight f4 [64, 64]
-0.106011994 0.13633853 -0.30770236 0.23132671 0.12833036 0.06500351 -0.25709397 -0.20916604
-0.06928506 -0.16394176 -0.2673738 -0.040723253 -0.10189217 -0.18817559 -0.07440852 0.100717984
-0.08997846 -0.052173864 -0.13361453 0.0036192157 0.06660344 -0.11583607 0.11292951 -0.16295785
0.22814086 -0.031503163 -0.03796548 -0.0026474304 0.03310051 0.03944847 0.13140985 0.10535856
0.008655782 -0.17479073 -0.12994848 0.13336548 0.1192486 0.09740768 -0.20217843 -0.03678144
0.24696898 0.08165076 -0.19702254 0.06814664 0.04102858 0.081489645 -0.026078472 -0.07962719
-0.12174312 -0.16077943 0.16642721 -0.06615851 0.0628431 0.09313465 -0.15227605 -0.0075895633
0.09798069 0.036968153 0.04208465 0.038211733 0.07573496 -0.3336815 -0.30599725 -0.23219259
-0.034513876 0.2121135 -0.29270583 -0.11018656 -0.09332166 0.07313887 -0.10589039 0.1257639
-0.34312263 -0.12231486 -0.08879156 -0.29246163 0.09911854 0.18361574 -0.06932439 -0.11993613
0.22566348 0.1564889 0.29361194 0.07462889 -0.19730392 0.033334427 0.10593331 0.25157633
0.034854032 -0.010461607 0.065915726 0.12015526 0.20753577 -0.28811154 -0.16013789 0.14131452
0.049583476 -0.0052819643 0.13260543 0.09263524 -0.111741856 -0.21919738 0.15325588 0.22935502
-0.027504193 -0.265547 -0.01414665 -0.32565242 0.100417376 0.17527531 0.19113673 0.20663708
0.16915952 0.0065619648 0.19556315 0.12785217 0.03150649 -0.0076311426 -0.17247625 -0.08706064
0.117295004 -0.010916112 -0.107105546 -0.03621594 0.21967995 0.23771924 -0.019809766 -0.047104593
0.14070565 0.007065149 0.32037064 -0.035005968 -0.10243118 0.14645256 0.057460785 -0.038397383
0.16396773 -0.04845675 0.37265578 0.11964903 0.03705228 -0.19257365 -0.015133792 0.00079182844
0.039920565 0.037778538 -0.063389406 0.12575765 -0.1448673 0.060042612 0.07277424 -0.08817204
0.08816339 -0.040339317 0.13694616 0.20967649 0.02108812 -0.06179109 0.018627603 0.072936505
-0.18495026 -0.094424434 -0.11549584 0.023864202 -0.07513803 -0.20883404 -0.41280562 -0.12936923
0.26301622 0.097164035 -0.07828769 0.10963017 0.10663611 -0.17497419 -0.008447712 -0.105419554
-0.07681411 0.083716065 0.084598444 0.014544868 0.23903665 -0.104889534 -0.12864906 -0.26997238
-0.08438119 -0.013614678 0.21132244 0.14959751 -0.16784886 -0.40129915 0.12841977 -0.097172454
-0.0072818403 0.14262958 0.0015403221 0.12784982 -0.12909149 0.07105577 -0.11843245 0.1383831
0.021279776 0.04295659 -0.22190922 -0.19709495 0.0038691766 0.05035512 0.028888226 -0.045701295
0.083195254 -0.0246494 0.29319373 0.07464779 0.019926906 0.18357451 0.011751572 0.38317207
0.041658077 -0.16247942 0.18261105 0.07738967 0.21215862 -0.01725598 -0.25549284 0.20615602
-0.10665422 -0.05059592 -0.07344426 0.19667539 0.015361813 -0.176814 0.07385839 0.101322494
-0.0125473505 -0.09337711 0.054933812 -0.42845902 0.18405159 0.007731609 -0.028197553 0.076804146
0.16579807 -0.11952046 0.070656106 0.0147802485 0.19217435 0.18064061 0.084325224 -0.22556551
0.049911346 0.021714978 -0.03787605 0.018132007 0.27944306 0.2749256 -0.019313265 0.13857265
00000000: d11c d9bd 549c 0b3e 2a8b 9dbe e9e0 6c3e
00000010: 0969 033e 8f20 853d d2a1 83be 9f2f 56be
00000020: 53e5 8dbd 59e0 27be 38e5 88be 6dcd 26bd
00000030: d8ac d0bd 1ab1 40be 7e63 98bd 3b45 ce3d
00000040: a046 b8bd 43b4 55bd 3fd2 08be 5d30 6d3b
00000050: 6267 883d 763b edbd 9647 e73d 6cde 26be
00000060: c29d 693e 7609 01bd b181 1bbd 8380 2dbb
00000070: 6694 073d b894 213d 4e90 063e 3bc6 d73d
00000080: fbd0 0d3c 57fc 32be 3711 05be f690 083e
00000090: 9c38 f43d ad7d c73d dd07 4fbe 23a8 16bd
000000a0: 70e5 7c3e 8338 a73d 47c0 49be 7790 8b3d
000000b0: 960d 283d 0be4 a63d 85a2 d5bc 9513 a3bd
000000c0: 7554 f9bd 5da3 24be e56b 2a3e 1d7e 87bd
000000d0: e2b3 803d 61bd be3d 41ee 1bbe dfb1 f8bb
000000e0: 1aaa c83d eb6b 173d f460 2c3d e883 1c3d
000000f0: ee1a 9b3d 4dd8 aabe acab 9cbe e5c3 6dbe
00000100: 6c5e 0dbd 4834 593e 8add 95be 7ea9 e1bd
00000110: 6d1f bfbd d5c9 953d 10dd d8bd 40c8 003e
00000120: c5ad afbe 3780 fabd 59d8 b5bd 88bd 95be
00000130: a9fe ca3d c405 3c3e f2f9 8dbd 13a1 f5bd
00000140: 5414 673e a03e 203e 4e54 963e 08d7 983d
00000150: 0a0a 4abe ae89 083d 90f3 d83d 9dce 803e
00000160: 1ac3 0e3d 2967 2bbc d3fe 863d f613 f63d
00000170: 4284 543e 5b83 93be 30fb 23be c1b4 103e
00000180: 0b18 4b3d 5414 adbb b8c9 073e 8bb7 bd3d
00000190: ead8 e4bd 4775 60be 1cef 1c3e 0bdc 6a3e
000001a0: 7950 e1bc c7f5 87be 5ac7 67bc eabb a6be
000001b0: a0a7 cd3d 5f7b 333e 59b9 433e ac98 533e
000001c0: 2738 2d3e c005 d73b b541 483e aeeb 023e
000001d0: f30c 013d aa0e fabb 9d9d 30be d94c b2bd
000001e0: 5d38 f03d 7ed9 32bc 275a dbbd 2a57 14bd
000001f0: c8f3 603e ac6c 733e 1748 a2bc bff0 40bd
00000200: 2415 103e c482 e73b 9f07 a43e 6b62 0fbd
00000210: 70c7 d1bd a9f7 153e 005c 6b3d 9346 1dbd
00000220: 28e7 273e 967a 46bd bdcc be3e 8d0a f53d
00000230: 22c4 173d 0732 45be b9f3 77bc b592 4f3a
00000240: bf83 233d abbd 1a3d 4ed2 81bd 9dc6 003e
00000250: 1858 14be 3eef 753d a90a 953d 8b93 b4bd
00000260: 028f b43d d73a 25bd 9d3b 0c3e 6fb5 563e
00000270: fec0 ac3c a718 7dbd ea98 983c bc5f 953d
00000280: 9a63 3dbe 9961 c1bd 1589 ecbd dc7e c33c
00000290: f8e1 99bd 97d8 55be 425b d3be 5e79 04be
000002a0: 10aa 863e f0fd c63d 4c55 a0bd c885 e03d
000002b0: 0864 da3d 6f2c 33be 4668 0abc 35e6 d7bd
000002c0: b750 9dbd 5473 ab3d f341 ad3d 994d 6e3c
000002d0: 06c6 743e 53d0 d6bd 94bc 03be d239 8abe
000002e0: 0cd0 acbd 1910 5fbc e964 583e 1730 193e
000002f0: 92e0 2bbe 1577 cdbe 7980 033e 5a02 c7bd
00000300: 819c eebb 7d0d 123e a2e4 c93a 10eb 023e
00000310: 8f30 04be b085 913d b68c f2bd 4db4 0d3e
00000320: ed52 ae3c 40f3 2f3d 2c3c 63be 42d3 49be
00000330: 0392 7d3b 2c41 4e3d 00a7 ec3c 4831 3bbd
00000340: 4662 aa3d 8aed c9bc 7d1d 963e f1e0 983d
00000350: c03d a33c f5fa 3b3e aa89 403c 212f c43e
00000360: a9a1 2a3d 0161 26be 64fe 3a3e 7a7e 9e3d
00000370: 1c40 593e 6a5c 8dbc f5cf 82be 901a 533e
00000380: 876d dabd ab3d 4fbd f269 96bd 4665 493e
00000390: 1db0 7b3c bb0e 35be 1143 973d 2b82 cf3d
000003a0: 6793 4dbc 803c bfbd 4702 613d fb5e dbbe
000003b0: 0578 3c3e 7059 fd3b 8efe e6bc 7e4b 9d3d
000003c0: f8c6 293e 25c7 f4bd 26b4 903d db28 723c
000003d0: 5ac9 443e daf9 383e b4b2 ac3d a5fa 66be
000003e0: d76f 4c3d 9ce3 b13c eb23 1bbd 9389 943c
000003f0: 2913 8f3e 0cc3 8c3e da36 9ebc fde5 0d3e

fc3.bias f4 [64]
0.23541376 0.02280266 -0.06474621 0.1408613 0.25330913 -0.23920551 0.033892754 -0.052797638
-0.10955464 0.100156106 -0.07890209 0.07043169 -0.08366328 -0.13787739 -0.17990571 -0.08024821
-0.17184268 0.13490689 -0.21337107 -0.14555308 0.20825481 0.1024978 -0.121328026 0.19376573
-0.10948138 0.21109556 -0.034307383 0.18799743 -0.05754679 -0.0922664 0.005176068 -0.04495093
0.07199962 0.050665792 0.01908348 -0.17303061 -0.08070148 0.17171088 0.043416105 0.05176374
0.14711294 -0.006260508 -0.00017142194 -0.028398896 0.12391986 0.24871388 -0.14416681 0.053083133
-0.13430858 -0.13278697 0.08403986 -0.030494392 0.06647911 0.14142469 0.10357481 -0.099997245
0.14974345 -0.10160675 0.14949778 0.21973151 0.0026390434 0.21241201 -0.07832809 0.089100085
00000000: 4e10 713e a5cc ba3c a999 84bd f23d 103e
00000010: bcb1 813e 4af2 74be 21d3 0a3d 5642 58bd
00000020: 2f5e e0bd a51e cd3d 6b97 a1bd 7d3e 903d
00000030: a757 abbd bb2f 0dbe 3439 38be 2c59 a4bd
00000040: 87f7 2fbe 0825 0a3e f27d 5abe de0b 15be
00000050: c040 553e 5eea d13d d47a f8bd 866a 463e
00000060: c637 e0bd 6f29 583e e685 0cbd 6682 403e
00000070: 2fb6 6bbd 2bf6 bcbd 019c a93b 771e 38bd
00000080: 8974 933d ef86 4f3d f554 9c3c f02e 31be
00000090: d146 a5bd fad4 2f3e 16d5 313d 3706 543d
000000a0: c6a4 163e f324 cdbb babf 33b9 cda4 e8bc
000000b0: b2c9 fd3d daae 7e3e 77a0 13be b36d 593d
000000c0: 3088 09be 4ff9 07be 171d ac3d 60cf f9bc
000000d0: 3326 883d a2d1 103e 081f d43d 5bcb ccbd
000000e0: 5956 193e 3317 d0bd f215 193e 4c01 613e
000000f0: cdf3 2c3b 8982 593e 7a6a a0bd 1b7a b63d

out.weight f4 [2, 64]
-0.18042918 0.05642878 0.21509035 -0.052438244 -0.36766964 0.22011486 0.22021961 0.15249456
0.11133505 -0.028169861 0.40509936 -0.08583194 0.3319547 0.4617583 0.42017758 -0.0777834
0.5016132 0.10293692 0.46811828 0.20053849 0.32509547 0.22024131 0.4428241 -0.059750147
0.38678944 -0.19895956 0.4689559 -0.059217434 0.22277236 0.18873116 0.45287803 0.21366125
-0.1809843 0.29185772 0.44321215 0.46327922 0.35391113 -0.2707854 -0.17480533 0.1933984
-0.15375137 0.12785107 -0.09545333 0.016409954 0.25146082 -0.23334986 0.40424657 0.20423724
0.08820453 0.10510347 0.45938876 -0.072348416 -0.27925104 -0.064318754 -0.060053185 -0.067402415
-0.08762307 0.53754383 -0.19138826 -0.08664464 -0.0855075 -0.034044545 0.26455417 0.024495523
-0.063321255 0.10005332 -0.15565817 0.04055545 -0.11075389 -0.11728677 0.109094515 0.008948588
0.1618244 -0.10493423 0.027339684 0.22259267 -0.07206621 -0.07026804 0.030990666 0.10170908
0.18600997 -0.2101939 0.045255687 0.14675178 0.2287701 0.14569542 -0.097453766 0.14477992
-0.01012248 -0.039730478 -0.10713891 -0.05833094 0.04790101 0.006005613 0.0962579 0.08431158
-0.08233363 -0.2396964 0.10009451 0.06883238 0.030838411 -0.06987528 0.11351007 -0.19687608
-0.20389313 0.10119082 0.03409727 0.28145927 0.055994987 0.11813691 -0.1230892 -0.11830703
-0.076806344 0.16405877 0.24910872 -0.030878602 -0.051162977 -0.033357847 -0.051890388 0.0013042815
0.19574708 0.042190623 -0.23875146 -0.14399777 0.056135908 -0.04836607 0.10127292 0.16193524
00000000: 6dc2 38be dd21 673d a540 5c3e 7cc9 56bd
00000010: 323f bcbe ca65 613e 4081 613e 8927 1c3e
00000020: a103 e43d 7bc4 e6bc 2f69 cf3e a8c8 afbd
00000030: f7f5 a93e 956b ec3e 8421 d73e e74c 9fbd
00000040: b969 003f 98d0 d23d 33ad ef3e f659 4d3e
00000050: ea72 a63e f086 613e d7b9 e23e 92bc 74bd
00000060: 4409 c63e 0ebc 4bbe fd1a f03e fb8d 72bd
00000070: 701e 643e be42 413e a1df e73e 04ca 5a3e
00000080: f353 39be 606e 953e b4ec e23e ef32 ed3e
00000090: d733 b53e 62a4 8abe 2b00 33be 3b0a 463e
000000a0: 0071 1dbe 64eb 023e 097d c3bd 2b6e 863c
000000b0: 79bf 803e 44f3 6ebe 68f9 ce3e 9123 513e
000000c0: 94a4 b43d 7d40 d73d 0135 eb3e 682b 94bd
000000d0: fef9 8ebe 8db9 83bd 54fa 75bd 470a 8abd
000000e0: b973 b3bd 799c 093f 49fb 43be bf72 b1bd
000000f0: 8e1e afbd 4b72 0bbd a573 873e d6aa c83c
00000100: 93ae 81bd c1e8 cc3d db64 1fbe 791d 263d
00000110: efd2 e2bd 0c34 f0bd f26c df3d 199d 123c
00000120: 4cb5 253e c2e7 d6bd 79f7 df3c 55ef 633e
00000130: 7397 93bd b1e8 8fbd 23e0 fd3c da4c d03d
00000140: 6679 3e3e 123d 57be 075e 393d 1946 163e
00000150: b642 6a3e 2e31 153e d795 c7bd 3041 143e
00000160: c2d8 25bc 6dbc 22bd a56b dbbd 6cec 6ebd
00000170: d933 443d bcca c43b dd22 c53d 8dab ac3d
00000180: 899e a8bd f972 75be 5afe cc3d fef7 8c3d
00000190: d6a0 fc3c c51a 8fbd f877 e83d e299 49be
000001a0: 5cc9 50be 223d cf3d 94a9 0b3d 6e1b 903e
000001b0: 005b 653d c4f1 f13d 3116 fcbd f54a f2bd
000001c0: a54c 9dbd 06ff 273e 5b16 7f3e 1ff5 fcbc
000001d0: 4590 51bd 3da2 08bd 048b 54bd 6df4 aa3a
000001e0: ec71 483e 13d0 2c3d 437b 74be 2774 13be
000001f0: c4ee 653d 801b 46bd 2d68 cf3d 5ad2 253e

out.bias f4 [2]
-0.16417472 -0.14879133
00000000: 6b1d 28be c15c 18be
