Santiago_version/models/Umbumping_cars_V1.pth (torch, 38840 bytes, 8 tensors)

fc1.weight f4 [64, 6]
0	0x3f988bf4	1.191771
1	0xbf2f48da	-0.6847054
2	0x3f52113d	0.82057554
3	0xbefdb5fd	-0.4955291
4	0x3dd0e432	0.10199775
5	0xbe170673	-0.14748554
6	0x3f55167a	0.8323742
7	0xbf2d0d81	-0.6759873
8	0x3fa3dc7e	1.2801664
9	0xbd92b0cb	-0.07162627
10	0xc02516d1	-2.5795176
11	0x3f0399a2	0.514063
12	0x3f3758b3	0.7161972
13	0xbf9073fb	-1.1285394
14	0x3f61f320	0.88261604
15	0x3f30b45d	0.6902521
16	0xbecf0eed	-0.40441075
17	0x3eede94e	0.4646706
18	0x3fa7551c	1.3072848
19	0xbf7cbeb3	-0.98728484
20	0x3f489b6d	0.7836216
21	0x3f7dc4a5	0.9912818
22	0xbda3b0ad	-0.079926826
23	0xbee74c7b	-0.45175537
24	0x3e0866e1	0.13320495
25	0x3f9f4aef	1.2444743
26	0x3e63a19b	0.22229616
27	0xbf0a8d03	-0.54121417
28	0x400b91fd	2.1807854
29	0xbf641484	-0.89093804
30	0x3e952b26	0.29134482
31	0xbea4fb51	-0.3222299
32	0x3fca6de5	1.5814787
33	0x3e63f2a4	0.22260529
34	0xbe09a3f4	-0.1344145
35	0x3fd5e518	1.6710539
36	0x3f69652e	0.9117001
37	0x3e3e694a	0.18594852
38	0x3e9090ae	0.28235382
39	0x4008ec74	2.139432
40	0x3f791e73	0.97312087
41	0xbf12d2c7	-0.5735287
42	0x3fc5782b	1.5427297
43	0xbf84d95f	-1.0378836
44	0xbebd1f84	-0.36938107
45	0x3f815d03	1.010651
46	0xbf138800	-0.57629395
47	0x3f58bc5e	0.84662426
48	0xbe3a25fb	-0.18178551
49	0x3fd9bf62	1.701153
50	0xbe3fb939	-0.18723
51	0xbea9df78	-0.33178306
52	0x3f494bb4	0.7863114
53	0xbfb90147	-1.4453515
54	0x3ee53773	0.44768867
55	0xbed84c3c	-0.42245662
56	0xbdaf8923	-0.08571079
57	0x3e86d611	0.26335195
58	0xbebcc3a8	-0.36868024
59	0xbfa250e1	-1.2680932
60	0xbecd072e	-0.4004454
61	0xbea31e47	-0.31859037
62	0xbeb1cdab	-0.34727225
63	0x3e8cf729	0.27532318
64	0x3ff69c02	1.926636
65	0xbc98fd75	-0.018675545
66	0x3e31be00	0.17357635
67	0x3fa5fd6d	1.2967964
68	0xbf71d309	-0.9446264
69	0xbf504b04	-0.81364465
70	0x3f72daa7	0.94864887
71	0xbf245e17	-0.6420607
72	0x3fb4be9b	1.4120668
73	0x3fc980d7	1.5742444
74	0x3f937535	1.1520144
75	0xbecdbe35	-0.4018418
76	0x3f01e04b	0.5073287
77	0x3ec58a3c	0.38582027
78	0x3f812b52	1.0091345
79	0x3ef0e962	0.47053057
80	0x3f414d21	0.75508314
81	0xbf66c2b2	-0.9014083
82	0xbe1dd0f3	-0.15411739
83	0x3e560499	0.20900191
84	0x3e82ad16	0.2552268
85	0x3f468a94	0.77555203
86	0xc0368f61	-2.8525012
87	0x3d39217e	0.045197956
88	0x3f46b5d1	0.7762118
89	0xbd28c83b	-0.04120658
90	0x3f50bf1b	0.81541604
91	0xc06033ba	-3.5031571
92	0x3dc98336	0.098394796
93	0x3f35ee14	0.71066403
94	0x3e261668	0.16219485
95	0xbfb974d8	-1.4488783
96	0xbf2bfd49	-0.6718336
97	0xbe22a6c5	-0.1588393
98	0x3f33fa26	0.7030357
99	0xbf3b9a4d	-0.7328232
100	0x3f07daa4	0.53067994
101	0xbf080a9a	-0.53141177
102	0x3f1dc2bd	0.6162527
103	0x3f080f8f	0.5314874
104	0xbf37aa47	-0.717442
105	0x3fdd5f09	1.7294627
106	0x3f6fb558	0.93636084
107	0x3f891488	1.0709391
108	0xbfd32581	-1.649582
109	0xbfe9d993	-1.8269523
110	0xbdb94f73	-0.09048357
111	0xbf8aafa7	-1.0834855
112	0xbf15a100	-0.5844879
113	0xc0017214	-2.0225878
114	0x3f1007cb	0.5626189
115	0x4018bf4b	2.3866756
116	0x3f73696c	0.95082736
117	0xbf4752c2	-0.77860653
118	0xc01475b4	-2.319684
119	0x3f6f964e	0.9358872
120	0x3fcbec0e	1.5931413
121	0xbd16dc0e	-0.036830954
122	0xbf34eea9	-0.70676666
123	0xbfcd3d8f	-1.6034411
124	0x3e66a9fc	0.22525781
125	0x3f14adf1	0.58077914
126	0x3f9fd97b	1.2488245
127	0xbff54ffb	-1.9165033
128	0x3debb79d	0.11509631
129	0x3f7d7664	0.99008775
130	0xbed7ee0d	-0.42173806
131	0xbeeda697	-0.4641616
132	0xbee04fde	-0.43810934
133	0x3fb97885	1.4489905
134	0x3ec40a7e	0.38289255
135	0x3f30cbee	0.6906117
136	0x3f9dbbe1	1.2322961
137	0xbf4bc45b	-0.7959649
138	0xbfa93862	-1.3220332
139	0xbf126efb	-0.5720059
140	0x3f747865	0.9549621
141	0x3f03b9fc	0.51455665
142	0x3fa7d380	1.311142
143	0x3f83b75c	1.0290332
144	0xbfa3d457	-1.2799176
145	0x3fa65c13	1.2996849
146	0x3f8ea321	1.1143533
147	0x3ef2a808	0.47393823
148	0x3f488198	0.78322744
149	0xbe85143b	-0.25991997
150	0x3e8e275a	0.27764398
151	0x3e8999fd	0.26875296
152	0xbf8adef0	-1.0849285
153	0xbf184afd	-0.59489423
154	0x3fb24cfb	1.3929743
155	0x3f315bc9	0.6928068
156	0x3f89d095	1.0766779
157	0x3fd67982	1.6755831
158	0x3e822bef	0.25424144
159	0xbecd65f3	-0.40116844
160	0xbf5bca1a	-0.8585526
161	0xbec28b90	-0.37997103
162	0x3f63f5cb	0.89046925
163	0xbe9d3ddf	-0.30711266
164	0x3e331937	0.17490087
165	0xbfdebce8	-1.74014
166	0xbfab6fcb	-1.3393492
167	0xbfa6cc16	-1.3031032
168	0xbdacc5b8	-0.08436149
169	0xbfb2f71a	-1.398166
170	0x3edf89eb	0.4365991
171	0x3f8c7bd6	1.0975292
172	0x3fa6b153	1.3022865
173	0x3ee1941b	0.44058308
174	0x3f9fd99f	1.2488288
175	0xbf6c3315	-0.92265445
176	0xbeecddb4	-0.46262896
177	0x3f7a87a6	0.97863233
178	0x3ed4fad6	0.41597623
179	0x4005d294	2.0909777
180	0x3f87b1a1	1.0601083
181	0x3e726ebe	0.23675057
182	0xbf20c6cd	-0.62803346
183	0xbec5920a	-0.3858798
184	0x3f625e6e	0.8842534
185	0x3e8f9746	0.280451
186	0x3f4915f1	0.78549105
187	0xbf6e3233	-0.9304535
188	0x3f89a502	1.0753481
189	0x3e040962	0.12894204
190	0xbd0d6b6e	-0.03452628
191	0xbfa6db03	-1.3035587
192	0xbfe53af8	-1.7908621
193	0xbf32c848	-0.69836855
194	0x3f635020	0.88794136
195	0xbf1c0845	-0.6095012
196	0x3f8efd35	1.1171023
197	0x3f11d457	0.5696463
198	0x3fa4666f	1.284376
199	0xbef9d7d2	-0.4879747
200	0xbf01d7bd	-0.50719815
201	0xbe8adfed	-0.27123967
202	0x3eb97362	0.36220843
203	0x40034d66	2.051599
204	0xbea493cf	-0.3214402
205	0xbf491d03	-0.78559893
206	0x3f8b1061	1.0864373
207	0xbf06feb2	-0.52732384
208	0xbe9e4e9e	-0.30919355
209	0xbfbe0753	-1.4845985
210	0xbf9ae333	-1.2100586
211	0xbd8764c4	-0.066110164
212	0xbee4a913	-0.44660243
213	0xbdc9bccc	-0.09850463
214	0xbff3b7a8	-1.9040422
215	0x3da4b3a9	0.0804208
216	0xbee2f265	-0.44325557
217	0x3e9e2009	0.30883816
218	0x3e4cbf9d	0.1999497
219	0x3f9a0429	1.203252
220	0xbfc6a644	-1.551949
221	0x3feefaa3	1.8670238
222	0xbfd3d7c4	-1.6550221
223	0x3e781a02	0.24228671
224	0x3d0de9cd	0.034646798
225	0x3ee9c0e2	0.4565497
226	0x3d20b401	0.039234165
227	0xbfb28781	-1.3947603
228	0xbef80404	-0.48440564
229	0xbf8f8a0a	-1.1214001
230	0x3f4d5935	0.80214244
231	0xbebc4198	-0.36768794
232	0x3e9f805f	0.31152627
233	0x3fdaebc3	1.7103199
234	0xbf734106	-0.9502109
235	0x3e5fb866	0.21847686
236	0x3facdde2	1.3505213
237	0x3e538c89	0.20659079
238	0x3fad252c	1.3526969
239	0xbf153911	-0.582902
240	0xbf157430	-0.58380413
241	0xbf933099	-1.1499206
242	0x3f484882	0.7823564
243	0xbe646bb4	-0.2230671
244	0xbf4d9d19	-0.80317837
245	0xbf765f62	-0.9623929
246	0xbd5f6cb2	-0.05454702
247	0xbd82a6b8	-0.06379455
248	0x3e91d8cd	0.28485718
249	0xbf4ee87d	-0.808235
250	0x3fc0024a	1.5000699
251	0xbf138dfb	-0.5763852
252	0x3f8ee4bf	1.1163558
253	0xbebc4a15	-0.3677527
254	0x3da353d5	0.07974974
255	0x3ec33cd2	0.3813234

fc1.bias f4 [64]
0	0xbd1c36ba	-0.03813813
1	0x3edfa10b	0.43677554
2	0x3c441541	0.011967958
3	0x3da93290	0.08261597
4	0xbe216f22	-0.1576505
5	0xbcdeee80	-0.027213335
6	0x3dade610	0.084911466
7	0xbe640cfb	-0.22270577
8	0xbeb39c1e	-0.35080045
9	0xbebdad8e	-0.37046474
10	0xbd87d397	-0.066321544
11	0x3e251473	0.16121082
12	0x3ea0454d	0.31302872
13	0xbd8d42a6	-0.06897478
14	0x3de67192	0.112521306
15	0xbe17ec69	-0.14836277
16	0xbe985608	-0.29753137
17	0x3e967a8c	0.2939037
18	0xbea4bb02	-0.32173926
19	0x3ea3ff02	0.32030493
20	0x3e6db06d	0.23211832
21	0xbecb0c7c	-0.39657962
22	0xbd189da1	-0.0372597
23	0xbd07a5af	-0.033116993
24	0xbbd12598	-0.0063826554
25	0x3d41d7b2	0.047324844
26	0x3eb562be	0.35426897
27	0xbec0195c	-0.37519348
28	0xbca09339	-0.019601451
29	0xbe92bda0	-0.28660297
30	0xbe20848b	-0.15675561
31	0x3db823c3	0.08991196
32	0x3dc15951	0.09440864
33	0x3e88c35b	0.26711544
34	0x3e8daef0	0.2767253
35	0xbe1a1f0f	-0.1505091
36	0x3e3c911f	0.18414734
37	0xbec3f4d6	-0.38272732
38	0x3eb79d02	0.35861975
39	0x3dce8e87	0.10085779
40	0xbcc51209	-0.024056451
41	0x3d57264d	0.05252676
42	0xbea0d798	-0.31414485
43	0xbe80ed50	-0.25181055
44	0xbe511732	-0.20419005
45	0xbeee84e1	-0.46585754
46	0xbe9685dd	-0.29399005
47	0xbe8b8bf7	-0.27255222
48	0xbe9f3be0	-0.31100368
49	0xbeecd5d2	-0.46256882
50	0xbdf003c7	-0.117194705
51	0x3d9bb51e	0.07602905
52	0x3dc837d0	0.097762704
53	0x3e89b4a1	0.2689562
54	0xbed82a61	-0.42219833
55	0xbcc17930	-0.023617357
56	0xbebf481f	-0.37359712
57	0x3dd5be4f	0.10436689
58	0xbebc43c9	-0.36770466
59	0xbe94ef93	-0.2908903
60	0x3d9efca4	0.07763031
61	0xbe6f0ff3	-0.23345928
62	0xbcc381d2	-0.023865614
63	0xbeb0234c	-0.3440193

fc2.weight f4 [64, 64]
0	0x3bd74a5d	0.006570144
1	0x3cd7f009	0.026359575
2	0x3e144e3f	0.14482974
3	0xbda01cd1	-0.07817996
4	0xbdd33eb0	-0.10314691
5	0xb9d212f4	-0.00040068442
6	0xbd84c4c3	-0.06482842
7	0x3dd4f789	0.10398776
8	0xbd99c9ac	-0.07509169
9	0xbcdf02fa	-0.027223099
10	0xba2d97cb	-0.0006622045
11	0x3c8b1d8d	0.016981864
12	0x3cd31a18	0.025769278
13	0x3d2e81eb	0.04260437
14	0x3d8ec082	0.06970312
15	0x3e03313f	0.12811755
16	0x3dcbe25d	0.09955285
17	0xbe371af9	-0.17881383
18	0x3d4dfb92	0.050288744
19	0x3d4b4962	0.04963053
20	0xbe06dd68	-0.13170397
21	0x3dda0f93	0.10647502
22	0xbde718e0	-0.112840414
23	0xbdac797c	-0.08421609
24	0x3d8f1eab	0.06988271
25	0x3dad11a0	0.08450627
26	0x3cfac9b8	0.030613765
27	0xbdc9b005	-0.09848026
28	0x3dd0040e	0.10157023
29	0x3df7508b	0.12075909
30	0x3dbc2018	0.09185809
31	0x3ca5914d	0.020210886
32	0xbc92fd38	-0.01794301
33	0x3d93e667	0.0722168
34	0xbb9f067d	-0.0048530684
35	0x3d1bf84d	0.038078595
36	0x3e26fb81	0.16306879
37	0xbd9798bf	-0.07402181
38	0x3e1dccf1	0.1541021
39	0xbe08dce8	-0.13365519
40	0x3dcc7305	0.09982876
41	0xbda8c65f	-0.08240961
42	0xbcbe86c9	-0.02325763
43	0xbc3602cc	-0.011109065
44	0x3d43e203	0.047822963
45	0xbddb897f	-0.10719585
46	0xbd9b120d	-0.07571802
47	0xbda1f1d3	-0.079074524
48	0x3d4398a3	0.047752988
49	0x3db60117	0.088869266
50	0xbd87abd9	-0.06624574
51	0x3d335fc0	0.043792486
52	0x3db20b44	0.08693555
53	0x3bd9a6dd	0.006642206
54	0xbd3a85ac	-0.045537636
55	0x3d8bdf33	0.06829681
56	0x3e2dcc16	0.16972384
57	0xbcf9bdde	-0.030486044
58	0x3d27141a	0.040790655
59	0x3cd434e6	0.02590413
60	0xbe1aabde	-0.15104625
61	0x3cba59c1	0.022747876
62	0xbdfde002	-0.12396242
63	0x3dd4a432	0.1038288
64	0xbdce8f38	-0.100859106
65	0xbe85695e	-0.2605695
66	0xbda1c3fa	-0.07898708
67	0xbdd9ff12	-0.10644354
68	0x3db525c0	0.08845091
69	0xbdb89250	-0.09012282
70	0x3d9eac7a	0.07747741
71	0xbdffad33	-0.12484207
72	0xbc041696	-0.0080620255
73	0xbd1f2a02	-0.03885842
74	0x3e1c41bc	0.1525945
75	0x3dfcfacf	0.123525254
76	0xbbab1890	-0.005221434
77	0x3981e8cd	0.00024778247
78	0xbe01b2d0	-0.12665868
79	0x3d2158ff	0.039391514
80	0xbdc93666	-0.09824829
81	0x3db312f0	0.087438464
82	0x3c1f9eee	0.009742482
83	0xbc1c8279	-0.0095525915
84	0xbda3c58f	-0.07996666
85	0xbd272678	-0.04080817
86	0x3d51f96d	0.05126326
87	0xbdc4489e	-0.09584163
88	0xbdf5fc0f	-0.12010967
89	0x3ddb0403	0.106941245
90	0xbdc296a1	-0.095013864
91	0x3b9623d9	0.00458191
92	0x3dc7695b	0.09736892
93	0xbda89c30	-0.082329154
94	0xbbe1e9f8	-0.0068943463
95	0x3cb2d167	0.021828366
96	0xbc0ebd97	-0.008712194
97	0x3d0cedb4	0.03440638
98	0x3d8e16f1	0.069379695
99	0xbe24eb7f	-0.1610546
100	0x3db5835c	0.088629454
101	0x3de2a1ea	0.11066039
102	0x3d79e65e	0.06101071
103	0xbd0d9182	-0.034562595
104	0x3d5b9dd7	0.053617325
105	0x3e409e70	0.18810439
106	0xbcc06912	-0.023487601
107	0x3d49ec50	0.04929763
108	0x3d57a1d4	0.052644566
109	0xbd17c68a	-0.037054576
110	0xbdc913f7	-0.09818261
111	0x3db9c4f3	0.09070768
112	0xbb87c014	-0.0041427705
113	0xbe04d165	-0.12970503
114	0x3e0507e1	0.12991287
115	0xbd2b8179	-0.04187152
116	0xbd0ea95f	-0.034829494
117	0xbe3498c1	-0.17636396
118	0xbd6cb696	-0.057791315
119	0xbdb4a225	-0.08819989
120	0x3ccf4298	0.025300309
121	0x3d969d20	0.07354188
122	0x3b1e4a9b	0.0024153355
123	0xbcab5fdd	-0.020919735
124	0xbca07d30	-0.019590944
125	0xbdd6617e	-0.10467814
126	0x3c8f4b7f	0.017492054
127	0x3cf4aacd	0.0298666
128	0x3d971025	0.07376126
129	0x3d39d74e	0.045371346
130	0x3db2e04b	0.08734187
131	0xbe128701	-0.14309312
132	0xbe05dbbd	-0.13072105
133	0xbcde7315	-0.027154485
134	0x3c0cd80b	0.0085964305
135	0xbd9273a5	-0.07150964
136	0xbe015e24	-0.12633568
137	0xbc6a175e	-0.014287798
138	0x3db5993f	0.0886712
139	0x3c586c63	0.013209435
140	0xbd91b03b	-0.071136914
141	0xbd868eb7	-0.065701894
142	0x3de55bf8	0.11199182
143	0x3d592647	0.05301502
144	0xbdbe422e	-0.092899665
145	0xbe075aa1	-0.13218166
146	0x3d3ebf24	0.046569005
147	0xbd41e994	-0.047341898
148	0xbcfd7074	-0.03093741
149	0xbc888cab	-0.016668638
150	0xbdc7e263	-0.09759977
151	0xbc72e8cd	-0.014826012
152	0x3d637d83	0.05553962
153	0x3cdbc115	0.026825467
154	0xbc47dde4	-0.012198899
155	0x3d3a2b94	0.045451716
156	0xbd0f8242	-0.035036333
157	0x3ca443df	0.020051895
158	0xbd71a4db	-0.05899511
159	0xbe00cc59	-0.12577952
160	0x3d787ad8	0.060664028
161	0x3da5e944	0.081011325
162	0xb9208ed9	-0.00015312004
163	0x3c309c66	0.010779476
164	0xbcf5a812	-0.029987369
165	0xbd8da049	-0.069153376
166	0x3d465315	0.048419077
167	0xbced8b5c	-0.028997116
168	0x3d017ba4	0.031612054
169	0x3c8853c4	0.016641505
170	0xbda3a227	-0.079899125
171	0x3db8ba3b	0.09019896
172	0xbe0e4055	-0.13891728
173	0x3d69dd41	0.05709577
174	0x3d082a54	0.033243492
175	0xbdeb5931	-0.11491621
176	0x3d4eef33	0.050521087
177	0xbd891742	-0.06693889
178	0xbcb9d580	-0.022684813
179	0xbdf245d6	-0.118297264
180	0xbcbe2cf1	-0.02321479
181	0x3d54fb92	0.05199773
182	0xbd89e3d0	-0.06732905
183	0x3d2f8a9b	0.042856794
184	0x3ce361a1	0.027756514
185	0xbdb29da1	-0.087214716
186	0xbbd055e5	-0.0063578957
187	0x3d47e5af	0.048803028
188	0x3d502366	0.05081501
189	0x3d0768c5	0.0330589
190	0xbdd4ec1e	-0.10396598
191	0x3db73ccf	0.08947145
192	0x3d8afa98	0.06786078
193	0x3e5bf4f9	0.21480168
194	0x3db86d81	0.09005261
195	0xbbf4de21	-0.007472769
196	0xbd3ae5de	-0.045629375
197	0x3d9ba864	0.07600477
198	0x3db0558f	0.08610069
199	0xbc995163	-0.018715566
200	0xbccaf097	-0.024772925
201	0xbe0bf59a	-0.13667908
202	0x3d7da21f	0.06192219
203	0x3c34e5bd	0.011041102
204	0x3c7a95dc	0.015294518
205	0x3cf2c438	0.02963458
206	0xbdac8a04	-0.08424762
207	0x3d4b516b	0.049638193
208	0xbd550df0	-0.052015245
209	0x3d371362	0.04469622
210	0x3c1d17bb	0.009588177
211	0x3e2b062f	0.16701578
212	0x3d76fa5e	0.060297363
213	0xb984597c	-0.00025243673
214	0xbd0e9ace	-0.034815602
215	0x3d04801b	0.032348733
216	0x3d804f22	0.062650934
217	0xbdb4ff74	-0.08837786
218	0x3e183cdc	0.14866966
219	0x3bb2b460	0.0054536313
220	0xbc829723	-0.015941208
221	0xbd4e2ac8	-0.050333768
222	0xbc1547d8	-0.009111367
223	0xbd6deed8	-0.058089107
224	0xbd646101	-0.055756573
225	0xbd7107bb	-0.058845263
226	0xbddff33f	-0.109350674
227	0xbac82dc3	-0.0015272427
228	0x3ded01ec	0.11572632
229	0xbd127a93	-0.035761427
230	0xbdede221	-0.11615396
231	0xbc939ea1	-0.018019976
232	0xbe190aba	-0.14945498
233	0xbdd38328	-0.103277504
234	0xbda5ca86	-0.08095269
235	0x3d9525a5	0.07282571
236	0xbe1e440c	-0.15455645
237	0x3db3cb82	0.087790504
238	0x3cec69e3	0.028859084
239	0x3d03c196	0.03216704
240	0xbe132ef9	-0.14373387
241	0x3d220dc9	0.039563928
242	0xbd23af9a	-0.03996239
243	0xbd7f232b	-0.0622894
244	0xbdbb7c57	-0.09154575
245	0x3df4d986	0.11955552
246	0xbda7ff20	-0.08202958
247	0x3db33579	0.087504335
248	0xbd326bee	-0.04355996
249	0x3c721d18	0.014777444
250	0xbd9e6818	-0.07734698
251	0x3def7ece	0.11694108
252	0xbdbd5449	-0.09244592
253	0xbd50e68c	-0.051001117
254	0xbe04851c	-0.12941402
255	0x3dcba3fc	0.09943387

fc2.bias f4 [64]
0	0x3d0ce7f9	0.034400914
1	0x3d990463	0.0747154
2	0x3ce59976	0.028027277
3	0xbd403e97	-0.04693469
4	0x3d15c230	0.036562145
5	0xbdde86c5	-0.10865549
6	0xbd671ce6	-0.056424044
7	0xbd1a61ca	-0.037690915
8	0xbb83fb05	-0.0040277266
9	0xbda2cbfa	-0.07949062
10	0x3d610555	0.054936726
11	0x3dc034c5	0.09385065
12	0x3c3de71c	0.011590745
13	0x3c1c6851	0.009546355
14	0x3ce2e7fb	0.027698508
15	0xbda41155	-0.08011118
16	0x3da7089c	0.08155939
17	0xbce761db	-0.028244903
18	0x3aebf59e	0.0018002277
19	0x3d60bca0	0.054867387
20	0xbe17bfc4	-0.14819247
21	0xbc571d11	-0.013129489
22	0xbcd293aa	-0.025705177
23	0xbda388f0	-0.07985103
24	0xbd9251b1	-0.07144488
25	0x3d289058	0.041153282
26	0xbda99fcf	-0.08282434
27	0xbcba9d80	-0.02278018
28	0xbc38db62	-0.011282774
29	0xbbd38c1b	-0.006455911
30	0x3dbf657e	0.0934553
31	0x3de0dc85	0.10979561
32	0xbe102d89	-0.1407987
33	0xbdb2f03e	-0.08737229
34	0xbd8b1380	-0.06790829
35	0xbdf329d4	-0.118732125
36	0x3ddeee2a	0.1088527
37	0xbdd1150d	-0.10209093
38	0x3dc3381f	0.095321886
39	0x3d941e56	0.072323486
40	0xbdc38fee	-0.09548937
41	0x3cc2af77	0.023765309
42	0x3d7c3073	0.061569642
43	0xbddb279f	-0.107009165
44	0xbd1939de	-0.037408702
45	0xbdcd5be3	-0.100272916
46	0xbe0b965c	-0.13631576
47	0xbdd60412	-0.10449995
48	0xbc180b40	-0.009280026
49	0x3d990ceb	0.07473167
50	0x3db396c2	0.08768989
51	0x3e1a5843	0.15072732
52	0x3d5b9f52	0.053618737
53	0xbd1449c2	-0.036203153
54	0xbe0410d4	-0.12897044
55	0x3b8bef0f	0.0042704414
56	0x3d3e5fb4	0.04647799
57	0x3d5d195c	0.053979263
58	0x3cc6901c	0.024238639
59	0xbd43a421	-0.047763947
60	0x3e014074	0.12622243
61	0x3ce4cd42	0.027929906
62	0xbde2d032	-0.11074866
63	0x3b7ee889	0.0038895926

fc3.weight f4 [64, 64]
0	0x3b1dfc2c	0.0024106605
1	0xbdb11f2a	-0.08648522
2	0xbdf7cf0a	-0.121000364
3	0xbe1072c4	-0.1410628
4	0x3d705748	0.058676988
5	0xbdb0075f	-0.08595156
6	0x3dedb380	0.116065025
7	0xbdacb371	-0.08432663
8	0xbd9fef73	-0.07809343
9	0x3cb145c8	0.02163972
10	0x3d9b8162	0.07593037
11	0xbe172686	-0.1476079
12	0xbdd231ba	-0.10263391
13	0x3e2420f5	0.16028197
14	0x3dd8179d	0.10551379
15	0xbca5fa4b	-0.02026095
16	0x3c2b79a4	0.010466013
17	0xbaf91a72	-0.0019005074
18	0xbdda5b87	-0.10661989
19	0x3b8edd40	0.004359871
20	0xbd762b74	-0.060100034
21	0xbe073deb	-0.13207214
22	0xbc84bcc5	-0.016203294
23	0x3d54f204	0.051988617
24	0xbcb5cf3d	-0.022193545
25	0xbc933bb0	-0.017972797
26	0xbd17ea9f	-0.037088986
27	0x3da14f3e	0.078764424
28	0x3dfdf5ca	0.12400396
29	0xbc784fcd	-0.015155745
30	0x3dc2f2f6	0.09518997
31	0xbdd62b6f	-0.10457503
32	0x3ca7be7e	0.020476576
33	0xbdfc9c0e	-0.123344526
34	0xbdc7dc39	-0.09758801
35	0x3ded8450	0.11597502
36	0x3ca21e83	0.01978994
37	0x3d891704	0.06693843
38	0xbd22bbdc	-0.039729938
39	0x3bf56dc0	0.00748989
40	0xbd36aa04	-0.044595733
41	0xbc6fd176	-0.014637342
42	0x3d3c5222	0.045976765
43	0xbe12719d	-0.14301153
44	0xbd0bd0d4	-0.0341347
45	0x3dcf5738	0.101240575
46	0xbd0ddfea	-0.03463737
47	0xbd2c3bd0	-0.04204923
48	0xbdb84f5b	-0.08999511
49	0x3d6b3bee	0.0574302
50	0xbd8ad4a5	-0.0677884
51	0x3de6e326	0.11273794
52	0xbcf4fb48	-0.029904976
53	0xbdbe1c40	-0.09282732
54	0x3c2452cc	0.010029506
55	0xbcbfbf29	-0.023406582
56	0xbb8903ce	-0.0041813618
57	0xbc06982f	-0.008214994
58	0x3c0f72fd	0.008755443
59	0x3c4e048b	0.012574325
60	0xbdf5da10	-0.12004483
61	0xbdb93b4c	-0.09044513
62	0x3d64809c	0.055786714
63	0xbe32c383	-0.17457394
64	0xbd6056be	-0.054770224
65	0x3dc398e1	0.09550644
66	0x3ce42569	0.02784987
67	0xbc595a9f	-0.013266235
68	0x3d8971e8	0.06711179
69	0xbdccaa3e	-0.099934086
70	0xbd2f5d3b	-0.04281352
71	0x3cad28f0	0.021137685
72	0xbdabc76d	-0.08387647
73	0xbd153584	-0.03642799
74	0xbd72d66f	-0.05928653
75	0xbe110b9d	-0.14164586
76	0xbbcfc1a2	-0.0063402215
77	0xbdd9a270	-0.106266856
78	0xbde4e388	-0.11176211
79	0x3d1f6e39	0.038923476
80	0x3db8c160	0.09021258
81	0x3dacea9b	0.08443185
82	0x3d585324	0.052813664
83	0x3c0800a7	0.008300937
84	0x3ca66f59	0.020316767
85	0xbd805460	-0.06266093
86	0xbd06e807	-0.032936122
87	0xbd8fac3e	-0.070152745
88	0xbd7f56d9	-0.062338684
89	0x3dd473a6	0.10373621
90	0x3c67980b	0.014135371
91	0xbda99dd6	-0.08282058
92	0x3d462da4	0.04838337
93	0xbd1d8609	-0.038457904
94	0xbd186229	-0.037202988
95	0x3bf5d1f5	0.0075018355
96	0xbc8af58e	-0.016962793
97	0xbdd27f0e	-0.1027814
98	0x3e076bec	0.13224763
99	0xbc146a30	-0.00905852
100	0xbdf7c6c5	-0.12098459
101	0x3db221c7	0.08697849
102	0x3d26a0fa	0.040680863
103	0x3cace14b	0.021103522
104	0x3cc8f37a	0.024530161
105	0x3d4d32bc	0.050097212
106	0xbb878af3	-0.004136437
107	0xbc9530c2	-0.018211726
108	0xbda4d35d	-0.08048127
109	0xbc53248e	-0.012887133
110	0xbd0f0007	-0.034912135
111	0x3db55a93	0.08855166
112	0xbd5fc3bb	-0.054630022
113	0x3dc86081	0.09784032
114	0xbdb8b81e	-0.090194926
115	0x3e0599b0	0.13046908
116	0xbc9689e8	-0.018376306
117	0x3dc0aee2	0.09408356
118	0xbcd18fbe	-0.025581237
119	0xbd668eed	-0.05628865
120	0x3d197ff7	0.037475552
121	0x3a9d019d	0.001197863
122	0xbc638a23	-0.013887915
123	0x3bcb90cf	0.006212331
124	0xbd5dbf1d	-0.054137338
125	0x3c486d7f	0.012233137
126	0x3dfacdf5	0.122463144
127	0x3d904e4d	0.07046185
128	0xbd1602ee	-0.036623888
129	0xbd94bac4	-0.07262185
130	0xbdc4d8af	-0.096116416
131	0x3dc00a2f	0.09376942
132	0xbdca395a	-0.0987422
133	0x3daff3f6	0.08591454
134	0x3ba36ef4	0.004987592
135	0x3de18864	0.110123426
136	0xbd92fedc	-0.07177517
137	0xbda9b55e	-0.08286546
138	0xbe3f3cea	-0.1867558
139	0xbde7f693	-0.11326327
140	0x3dbb6512	0.09150137
141	0xbd029fc9	-0.031890664
142	0xbd6cc5ff	-0.05780601
143	0x3cc6b0df	0.02425426
144	0x3de39cd2	0.111138955
145	0x3d49a05e	0.049225204
146	0xbc99b9df	-0.018765388
147	0xbde378c6	-0.1110702
148	0x3df057b8	0.11735481
149	0x3d91dabc	0.071217984
150	0xbcb6518a	-0.022255678
151	0xbdb872ac	-0.09006247
152	0x3cac0d73	0.021002507
153	0xbd3b0ab0	-0.04566449
154	0xbd6c523d	-0.057695616
155	0xbc2337c0	-0.009962022
156	0x3d702291	0.058626715
157	0xbde95b91	-0.11394418
158	0x3db6a788	0.08918673
159	0x3defde1f	0.11712288
160	0xbdd3a680	-0.10334492
161	0x3d63d098	0.055618852
162	0x3d35c11b	0.044373613
163	0xbdf2a612	-0.11848082
164	0xbd53f0eb	-0.05174343
165	0xbd38e8ff	-0.045144077
166	0xbdf2f5c6	-0.11863284
167	0xbbac4660	-0.005257413
168	0x3e039872	0.12851122
169	0xbd93027c	-0.07178208
170	0xbda36e50	-0.07980025
171	0x3d4ae04f	0.049530324
172	0x3d33e9e9	0.043924246
173	0xbe0aa41e	-0.13539168
174	0xbd943cd0	-0.072381616
175	0xbc33d0f9	-0.010975116
176	0xbd9e0169	-0.07715113
177	0xbd89d0a7	-0.067292504
178	0xbd7ccf6c	-0.06172125
179	0xbdc69d85	-0.09698013
180	0xbdc5c85b	-0.096573554
181	0x3def412a	0.11682351
182	0x3c130f04	0.008975748
183	0x3cd9cf51	0.026588114
184	0xbe2aa10a	-0.16662994
185	0x3c1d2900	0.009592295
186	0xbdb537d4	-0.08848539
187	0x3d145b84	0.03622009
188	0xbdacf419	-0.084449954
189	0xbcf89861	-0.030346097
190	0xbc4065f0	-0.011743054
191	0x3d9b53c6	0.07584338
192	0xbc6b6c1c	-0.014369037
193	0x3da7af98	0.08187789
194	0x3d3c2c3d	0.045940626
195	0x3d8d9661	0.06913448
196	0xbdd37f12	-0.10326971
197	0xbded3e52	-0.11584152
198	0x3d7f092e	0.062264614
199	0xbc137021	-0.008998902
200	0xbcd91c51	-0.02650276
201	0x3c9268a8	0.01787217
202	0x3d81be80	0.06335163
203	0xbda7b5d1	-0.081889756
204	0x3dca5a64	0.09880522
205	0x3dab7fc1	0.083739765
206	0x3dc9fb66	0.098624036
207	0xbd3a9eb9	-0.045561526
208	0xbd28986b	-0.041160982
209	0xbd7c4b4a	-0.06159524
210	0x3db5a0dc	0.08868572
211	0xbccd30a6	-0.025047611
212	0x3dac4836	0.08412211
213	0x3d5bf7b8	0.05370304
214	0xbd8c1a51	-0.06840957
215	0xbdf16262	-0.11786343
216	0xbd464b33	-0.04841156
217	0xbd8d178e	-0.06889258
218	0xbddcc91d	-0.10780547
219	0xbcf5bbf8	-0.029996857
220	0xbdeb817a	-0.11499305
221	0xbd9c85f7	-0.07642739
222	0x3dd389a6	0.10328989
223	0xbdd9102b	-0.10598787
224	0xbe06cfd5	-0.13165219
225	0x3bcff7a0	0.006346658
226	0xbd07a6da	-0.033118106
227	0xbce42f58	-0.027854607
228	0xbd227927	-0.03966632
229	0xbe02c5db	-0.12770788
230	0x3b1bc2d3	0.0023767247
231	0x3dda8fb7	0.10671943
232	0xbab53880	-0.0013826042
233	0xbbd05c55	-0.006358663
234	0xbd3ddba7	-0.046352055
235	0xbd6eca38	-0.05829832
236	0x3d3ea6e0	0.046545863
237	0x3ce9847f	0.028505562
238	0x3d2590b7	0.040421214
239	0xbd0d06b1	-0.03443021
240	0x3b69bfa0	0.0035667196
241	0xbd20feb9	-0.039305422
242	0x3d020328	0.03174129
243	0x3d7901a4	0.06079258
244	0x3c68c375	0.014206757
245	0xbda0dc42	-0.07854511
246	0x3c7a38b6	0.01527231
247	0x3d4a992c	0.049462482
248	0xbc166fd0	-0.009181932
249	0xbd918f0d	-0.07107363
250	0x3d3747f8	0.04474637
251	0x3da35155	0.07974497
252	0x3d23daca	0.040003575
253	0xbddec780	-0.10877895
254	0xbd099cdc	-0.03359686
255	0xbe013831	-0.12619092

fc3.bias f4 [64]
0	0xbe0ab721	-0.1354642
1	0x3d663ad7	0.056208458
2	0xbcef1328	-0.02918394
3	0xbd98e78c	-0.07466039
4	0x3e210bc4	0.15727144
5	0xbdb901fe	-0.09033583
6	0xbd7a8afc	-0.061167702
7	0xbd9f6ffd	-0.07785032
8	0xbdef25a6	-0.11677103
9	0xbdc1278a	-0.094313696
10	0x3b856445	0.004070791
11	0x3db18033	0.0866703
12	0xbdd2c52a	-0.10291512
13	0xbd9fa043	-0.07794239
14	0x3dca98bb	0.09892412
15	0xbd2eb4e2	-0.042652972
16	0xbac5352c	-0.0015045754
17	0x3dbcc99f	0.09218144
18	0x3cac6f38	0.021049127
19	0x3cb56ba1	0.022146048
20	0xbb82a3e1	-0.003986821
21	0x3d1eb4df	0.03874671
22	0xbd240828	-0.04004684
23	0xbda6cce7	-0.08144551
24	0x3db70e76	0.08938305
25	0x3df4f74f	0.11961233
26	0x3d41da39	0.047327254
27	0xbd8fd3c2	-0.070228115
28	0xbc0fdb45	-0.008780305
29	0x3ddfbb81	0.109244354
30	0x3d51b20e	0.051195197
31	0x3d8db2a0	0.06918836
32	0x3d843377	0.06455129
33	0x3d8489d9	0.06471605
34	0x3d879aab	0.066212974
35	0x3ce7f86f	0.028316705
36	0xbc931ef3	-0.017959094
37	0xbc8cbbe6	-0.01717944
38	0x3ce05f1d	0.027389104
39	0x3d9b2807	0.07575994
40	0x3dc1d6d2	0.09464802
41	0x3bdf7b4a	0.006820117
42	0x3d14eb91	0.036357466
43	0x3d88be3b	0.066769086
44	0xbd2ff575	-0.042958695
45	0xbdb1c522	-0.08680178
46	0xbc55a1fb	-0.013039107
47	0xbc6fbed1	-0.0146328965
48	0x3cf63396	0.030053895
49	0xbd6020fe	-0.054718964
50	0x3cc3afec	0.023887597
51	0x3cca9d3f	0.024733184
52	0x3d9d46ec	0.07679543
53	0xbd61eb7f	-0.055156227
54	0xbd8483bf	-0.06470441
55	0xbe16ed5c	-0.14738983
56	0xbdce4fb0	-0.10073793
57	0x3d01fa8e	0.03173309
58	0x3dd86b6b	0.10567363
59	0xbda8d9b4	-0.082446486
60	0x3d4d33d8	0.05009827
61	0x3d90af36	0.07064669
62	0x3d026308	0.031832725
63	0x3def4c38	0.116844594

out.weight f4 [2, 64]
0	0x3d166245	0.03671481
1	0xbc59406f	-0.013259991
2	0xbc2d93f9	-0.010594361
3	0xbd3c998d	-0.046044875
4	0xbdd0d576	-0.101969644
5	0x3dcdb3d2	0.10044064
6	0xbe0dc2bd	-0.13843818
7	0xbd75da8e	-0.060022883
8	0xbc4dd7df	-0.012563675
9	0x3ce5620c	0.028000854
10	0xbd86a479	-0.065743394
11	0xbdb0f75a	-0.086409286
12	0xbb8a3f26	-0.0042189537
13	0xbd5b5835	-0.053550918
14	0xbde1efe5	-0.110320844
15	0xbe1796bb	-0.14803593
16	0x3e126276	0.14295372
17	0x3d396684	0.045263782
18	0xbdaef17a	-0.08542152
19	0x3db69cef	0.089166515
20	0x3d9e047e	0.077157006
21	0xbcffc651	-0.031222494
22	0x3d0b9b79	0.034083817
23	0x3d14e683	0.036352646
24	0xbb4790d6	-0.003045132
25	0x3bc32e89	0.005956475
26	0x3cdef4d3	0.02721635
27	0x3dd8da70	0.10588539
28	0xbdd5fb9b	-0.104483806
29	0xbe0467c5	-0.1293021
30	0x3d43b130	0.0477764
31	0x3d9163c6	0.070991084
32	0xbcb51c22	-0.022108141
33	0xbc8fc211	-0.017548593
34	0xbcc134f0	-0.023584813
35	0xbd9f9336	-0.0779175
36	0xbd19f1c2	-0.037584074
37	0x3db54ec8	0.08852917
38	0x3da317aa	0.07963498
39	0x3be2d497	0.0069223153
40	0xbc5ae2b7	-0.013359717
41	0x3d1dd2a8	0.038530976
42	0xbce129fd	-0.027485842
43	0x3cb159f6	0.021649342
44	0xbca1d9d6	-0.019757193
45	0x3d9bfd8f	0.07616722
46	0x3d94fd58	0.07274884
47	0xbd448919	-0.04798231
48	0xbd9a0ffb	-0.07522579
49	0xbba08648	-0.00489882
50	0x3dba5c9d	0.09099696
51	0xbd45474f	-0.04816371
52	0xbdb2fd79	-0.08739752
53	0xbd0cd34d	-0.0343812
54	0xbd5c16d1	-0.053732697
55	0x3d1575fd	0.036489476
56	0x3dad3190	0.08456719
57	0x3d4fc801	0.050727848
58	0xbccaa454	-0.02473656
59	0x3e2802fa	0.16407385
60	0x3ce2eec5	0.027701745
61	0x3d2b2551	0.041783635
62	0xbbfc3bf6	-0.0076975776
63	0x3de7b7ac	0.113143295
64	0x3dc1922a	0.09451707
65	0xbdf8be2a	-0.12145646
66	0xbc65ba74	-0.014021505
67	0x3d7b4b18	0.06135091
68	0xbdee40ab	-0.11633428
69	0x3c2caf9e	0.010539917
70	0xbe200e66	-0.15630493
71	0xbdf129cc	-0.1177555
72	0x3d4d4ff2	0.05012507
73	0xbc16b886	-0.009199267
74	0xbe04a652	-0.12954071
75	0xbe6cc307	-0.23121272
76	0xbe296f5b	-0.16546385
77	0xbd144b2e	-0.03620451
78	0xbdb84788	-0.089980185
79	0xbe02d76c	-0.1277749
80	0xbe307802	-0.1723328
81	0xbdc4e127	-0.09613257
82	0xbcf53cd8	-0.02993624
83	0x3ccf6fcd	0.025321865
84	0x3c3047d9	0.010759317
85	0x3d7cba2c	0.061700985
86	0xbd521964	-0.051293746
87	0x3dc21eeb	0.094785534
88	0xbda86e95	-0.08224217
89	0xbdd6f619	-0.10496158
90	0xbe0f6f3f	-0.14007281
91	0x3d11bc3c	0.035579905
92	0xbc622c61	-0.013804526
93	0xbe0bc0ab	-0.13647716
94	0xbcd48424	-0.025941916
95	0x3d3f6b97	0.046733465
96	0xbdd485c0	-0.10377073
97	0xbc630447	-0.013856
98	0xbdbef811	-0.09324659
99	0xbe17b337	-0.14814459
100	0x3d58227b	0.05276726
101	0x3e41cfec	0.18926972
102	0xbb912a4c	-0.004430091
103	0xbd67b02a	-0.056564488
104	0xbe13a788	-0.14419377
105	0xbe006fc4	-0.12542635
106	0x3b5a2dc1	0.0033291432
107	0x3b99dfbc	0.0046958607
108	0xbd6ce301	-0.057833675
109	0xbc8bc761	-0.017062845
110	0x3de61129	0.11233742
111	0xbe61b446	-0.22041425
112	0xbcb70e04	-0.02234555
113	0xbdfa1542	-0.12211086
114	0xbe0eb745	-0.139371
115	0xbd79f7f2	-0.061027475
116	0xbde5183f	-0.11186265
117	0x3dcb218e	0.099185094
118	0x3c97c007	0.018524183
119	0xbdf0626f	-0.11737525
120	0xbbaefe32	-0.005340361
121	0x3cc0ea2f	0.023549167
122	0xbd267f37	-0.040648665
123	0xbba38ffa	-0.0049915286
124	0xbe670ac6	-0.22562703
125	0xbe1ff73b	-0.15621655
126	0x3c74cdac	0.014941614
127	0xbdb60350	-0.088873506

out.bias f4 [2]
0	0xbd94bac5	-0.07262186
1	0xbdb41653	-0.087933205
