Santiago_version/models/Umbumping_cars_V4.pth (torch, 38840 bytes, 8 tensors)

fc1.weight f4 [64, 6]
0	0x3e822821	0.2542124
1	0xbea37ad9	-0.31929663
2	0x3e1046b9	0.14089479
3	0x3e3f942b	0.18708865
4	0x3e35e0fd	0.17761607
5	0x3ece8fbe	0.40344042
6	0x3d3241b8	0.043519706
7	0x3ed12e3c	0.40855587
8	0x3e37f631	0.17965008
9	0x3e7a2705	0.24428947
10	0xbe8e86dc	-0.27837265
11	0x3ea52e06	0.32261676
12	0x3e5d01f8	0.21582782
13	0x3ed0d1cb	0.4078506
14	0xbe3a27fe	-0.18179318
15	0x3e7b773e	0.24557206
16	0xbe6fda1a	-0.23423043
17	0xbd60c0c8	-0.05487135
18	0x3ec4e390	0.38454866
19	0xbe57ea70	-0.21085525
20	0xbd65c1a7	-0.056092884
21	0xbdb5de8e	-0.088803396
22	0x3e2f9635	0.17147143
23	0xbe960ada	-0.29305154
24	0xbd87fa76	-0.066395685
25	0x3ecb03a6	0.3965122
26	0xbea94eb0	-0.33067846
27	0xbe4720dd	-0.1944613
28	0xbd2ddb18	-0.042445272
29	0x3e46932a	0.19392076
30	0xbdfbcaec	-0.12294564
31	0x3eda37a4	0.42620575
32	0xbd77d6c3	-0.060507547
33	0xbe05a8b0	-0.1305263
34	0x3e692b27	0.22770368
35	0xbd1359ba	-0.03597424
36	0xbd115ed9	-0.035490844
37	0x3ded8ec9	0.115995
38	0xbd7eed5e	-0.06223809
39	0xbd3541c6	-0.04425218
40	0xbe3cd819	-0.1844181
41	0x3e1a8c61	0.15092613
42	0xbe515525	-0.20442636
43	0xbe0b46bc	-0.13601202
44	0xbe286bbc	-0.16447347
45	0x3e6b7112	0.22992352
46	0x3e1d363f	0.15352724
47	0xbdb0f26a	-0.08639987
48	0x3e535280	0.2063694
49	0xbe2cf2a6	-0.16889438
50	0x3d87add8	0.06624955
51	0xbec85931	-0.39130548
52	0x3e39707d	0.18109317
53	0x3e909268	0.282367
54	0x3ea88426	0.3291332
55	0x3ea35148	0.3189795
56	0x3cb1ecad	0.021719301
57	0xbe86883d	-0.26275817
58	0x3db9f8d3	0.090806626
59	0x3d9bacb5	0.076013006
60	0x3d68fb73	0.056880426
61	0x3e36945b	0.1783003
62	0x3e574892	0.21023777
63	0xbeceed29	-0.40415314
64	0xbe13b608	-0.14424908
65	0x3eb06afd	0.34456626
66	0x3e66c398	0.2253555
67	0xbe3c8fa6	-0.18414173
68	0xbdb9b22b	-0.09067186
69	0xbd7e567e	-0.062094204
70	0x3e292606	0.16518411
71	0x3dfade76	0.12249462
72	0x3e9a9782	0.30193716
73	0xbd7a7a2f	-0.06115168
74	0xbe473641	-0.1945429
75	0x3e3d1192	0.18463734
76	0xbcb1d5de	-0.021708425
77	0x3dadc1a8	0.084842026
78	0x3ddb76cd	0.10716019
79	0xbeb615cd	-0.35563508
80	0x3bdff17a	0.006834206
81	0xbdc361b6	-0.09540121
82	0xbe57fb9d	-0.21092077
83	0x3ea9ed72	0.3318897
84	0x3ea0f840	0.314394
85	0x3e8edd5e	0.27903265
86	0xbe3637f3	-0.1779478
87	0xbba3ed81	-0.005002678
88	0x3e357cac	0.1772334
89	0xbeb70a8d	-0.35750237
90	0xbd031817	-0.032005396
91	0xbe351899	-0.17685165
92	0xbdbfb360	-0.09360385
93	0xbdc119de	-0.09428762
94	0x3cdf4b4f	0.02725759
95	0x3e9ea3bb	0.3098429
96	0x3e38e08c	0.18054408
97	0xbe4196d6	-0.18905196
98	0xbe3d0ebb	-0.1846265
99	0x3cb5063d	0.022097701
100	0xbd4ac1ee	-0.049501352
101	0xbeb1c01a	-0.34716874
102	0xbdf6d02c	-0.120514244
103	0xbe82cd78	-0.25547385
104	0xbe0a8bd2	-0.135299
105	0xbd8b2d88	-0.06795794
106	0xbdef5d9b	-0.11687776
107	0xbd3f9e45	-0.046781797
108	0x3eac52be	0.33656877
109	0xbdfcd97f	-0.123461716
110	0x3e00f126	0.12591991
111	0x3c262a35	0.010141899
112	0xbe5eaf6b	-0.21746604
113	0xba843614	-0.0010086917
114	0xbe1e8001	-0.15478517
115	0xbe62df4a	-0.2215549
116	0xbd1ad267	-0.03779831
117	0x3eaba383	0.33523187
118	0x3ecedde9	0.4040368
119	0xbe5e6dfe	-0.21721646
120	0x3d576914	0.052590445
121	0xbe336a5b	-0.1752104
122	0x3e8e035b	0.27736935
123	0xbe9b14dc	-0.30289352
124	0xbc8a37ba	-0.016872276
125	0xbe76b140	-0.24091053
126	0xbe85fd1b	-0.26169667
127	0x3cf61451	0.030038984
128	0xbcd7f227	-0.026360584
129	0x3d32fe07	0.04369929
130	0x3e127a10	0.14304376
131	0xbeac83a2	-0.33694178
132	0xbe41666f	-0.18886732
133	0xbebe0710	-0.37114763
134	0x3d358525	0.04431643
135	0xbe0777f7	-0.13229357
136	0xbe564af5	-0.20927031
137	0x3e9fdb30	0.31221914
138	0xbeba1fda	-0.36352426
139	0x3e8bfd25	0.2734157
140	0xbe3894be	-0.1802549
141	0x3ebf2fd4	0.37341177
142	0xbdc6ed06	-0.097131774
143	0x3ec2e2db	0.38063702
144	0xbcbb5474	-0.022867419
145	0xbedc34d9	-0.4300907
146	0xbcf047db	-0.029331138
147	0x3e3cd5a5	0.18440874
148	0x3e1802f8	0.14844882
149	0x3eb3ae51	0.3509393
150	0x3e53434e	0.20631143
151	0xbdf33ae3	-0.11876466
152	0xbdb4ff15	-0.088377155
153	0xbc4a6363	-0.012352797
154	0xbea7ed0a	-0.32798034
155	0xbe830ffc	-0.25598133
156	0xbde97c42	-0.114006534
157	0x3ca19f22	0.0197292
158	0x3ea38ae8	0.31941915
159	0x3e09acba	0.13444796
160	0xbec44a1b	-0.38337788
161	0xbde76317	-0.11298197
162	0x3ec1297b	0.3772696
163	0xbddb0690	-0.10694611
164	0x3ec9aac5	0.393881
165	0xbcc0ea2f	-0.023549167
166	0xbe57b510	-0.21065164
167	0x3e925a37	0.28584453
168	0xbe9cb05c	-0.30603302
169	0xbe9af0ca	-0.30261832
170	0x3e6c7387	0.23090945
171	0xbd6e2672	-0.058142133
172	0x3e82c83b	0.2554339
173	0xbdbaa5d0	-0.091136575
174	0xbe2636a4	-0.16231781
175	0x3eb6522c	0.35609567
176	0x3ec33c9f	0.38132188
177	0xbecd8db4	-0.40147173
178	0x3cc42dbb	0.023947587
179	0x3e823091	0.25427678
180	0xbdc437d6	-0.09580962
181	0x3e20b9d4	0.15695888
182	0xbd77f395	-0.060535032
183	0x3d91485b	0.07093879
184	0x3eafdc48	0.3434775
185	0xbeb783ef	-0.35842845
186	0xbe44da5f	-0.19223927
187	0xbe10f1f5	-0.141548
188	0xbb9fc1ef	-0.0048754136
189	0xbe6dad5b	-0.23210661
190	0x3eaef042	0.34167677
191	0x3eb05ee9	0.3444741
192	0xbdff01ae	-0.12451492
193	0x3e7de212	0.2479327
194	0xbecc645c	-0.39920318
195	0x3e4c5e6b	0.19957893
196	0xbe1f14a8	-0.15535223
197	0xbd91e003	-0.07122805
198	0x3acca2ab	0.0015612444
199	0xbeccf807	-0.4003298
200	0xbe2e0806	-0.16995248
201	0x3d0fe0b5	0.035126407
202	0xbe1b13d3	-0.15144281
203	0xbe090593	-0.13381033
204	0x3cbae8cf	0.02281609
205	0x3e9ab4f0	0.3021617
206	0x3e3c7971	0.18405701
207	0x3e001bb0	0.12510562
208	0x3d6436cc	0.05571632
209	0xbe19f54f	-0.15034984
210	0xbedc4138	-0.43018508
211	0xbe102dd2	-0.14079979
212	0xbe061bc4	-0.13096529
213	0x3e1093e6	0.14118919
214	0xbe59f1dd	-0.2128367
215	0xbe6b5a1f	-0.22983597
216	0x3eb20b3c	0.34774196
217	0xbeb5a401	-0.35476688
218	0xbe0fa5ef	-0.14028142
219	0xbe4d7398	-0.20063627
220	0x3ec59581	0.38590625
221	0xbdd89a6e	-0.1057633
222	0xbcbd6a75	-0.023122052
223	0x3ec5b71c	0.38616264
224	0x3c49feec	0.0123288445
225	0x3de9dbb5	0.11418859
226	0x3d94a801	0.07258607
227	0xbd9f2107	-0.07769971
228	0x3e613ebd	0.21996589
229	0x3d6d7ffc	0.057983384
230	0x3e191113	0.1494792
231	0x3d0279df	0.031854507
232	0x3ec18d89	0.37803295
233	0xbd984c84	-0.07436469
234	0x3dc8e8e6	0.09810047
235	0xbe09c7d4	-0.13455135
236	0x3ec30297	0.38087913
237	0x3e8429ac	0.25813043
238	0xbdd59ae9	-0.104299374
239	0x3e12436d	0.14283533
240	0xbe2b9437	-0.16755758
241	0xbd7fbd0d	-0.062436152
242	0x3e4246cc	0.1897232
243	0x3e9cf2ce	0.30653995
244	0xbe6431c5	-0.2228461
245	0x3e3baedd	0.18328424
246	0x3e5709e8	0.20999873
247	0x3e9b4e6b	0.30333266
248	0xbe981e53	-0.29710636
249	0x3e00b1a5	0.12567766
250	0x3d6b7d56	0.057492577
251	0x3e9cf03b	0.3065203
252	0xbd6cb5ec	-0.05779068
253	0x3e8645ad	0.26225033
254	0xbdc294f9	-0.095010705
255	0xbe572787	-0.21011172

fc1.bias f4 [64]
0	0xbe9fc3af	-0.31203982
1	0xbe08f60f	-0.13375114
2	0x3ca72331	0.020402523
3	0x3d97a4a2	0.07404448
4	0x3d80c36a	0.06287272
5	0x3e80d8ca	0.25165397
6	0x3e9dade2	0.30796725
7	0xbe0e5ad4	-0.13901836
8	0x3d12c96d	0.035836626
9	0x3e3572c7	0.17719565
10	0x3deb4955	0.11488596
11	0x3e0e1844	0.13876444
12	0x3e046810	0.12930322
13	0xbe80a763	-0.25127706
14	0xbdae3cc1	-0.08507682
15	0x3eafa80a	0.3430789
16	0x3daa2b77	0.083090715
17	0x3e663927	0.2248274
18	0xbec78837	-0.3897111
19	0xbeaa4a07	-0.33259603
20	0x3e90156c	0.28141344
21	0x3ec12416	0.37722844
22	0x3dcf9de2	0.10137536
23	0xbd99464b	-0.074841104
24	0x3dde5f94	0.10858074
25	0xbe55db50	-0.20884442
26	0xbecdc1df	-0.40186974
27	0xbe28a391	-0.16468646
28	0xbde9a0de	-0.11407636
29	0xbdf409a8	-0.11915904
30	0xbdf7c3e5	-0.12097911
31	0xbe011763	-0.12606578
32	0xbed24f8e	-0.4107632
33	0xbd5066d2	-0.050879307
34	0xbde3b377	-0.111182146
35	0x3ea992b9	0.33119753
36	0x3ce235d3	0.027613556
37	0xbea0f322	-0.31435496
38	0xbe80d724	-0.2516414
39	0x3e196943	0.1498156
40	0xbeaad8ee	-0.3336863
41	0x3d75a0d7	0.059967842
42	0xbde66dc4	-0.11251405
43	0x3e255be4	0.16148335
44	0x3e768f5d	0.24078126
45	0xbe68f2eb	-0.22748916
46	0xbb77b610	-0.0037797727
47	0x3e97b042	0.29626662
48	0x3ebf04bf	0.37308308
49	0xbda0247d	-0.078194596
50	0x3e8eea77	0.27913257
51	0xbe530175	-0.20606025
52	0x3eb98c3f	0.36239812
53	0xbe139a7d	-0.14414401
54	0xbeb514bb	-0.3536738
55	0xbe27f8d9	-0.16403522
56	0xbd3ac68b	-0.0455995
57	0x3e98d322	0.29848582
58	0x3dfd3c93	0.12365069
59	0xbe6f692d	-0.23379965
60	0x3e877ed2	0.26463944
61	0x3e11561c	0.14193004
62	0xbdf81493	-0.12113299
63	0xbe1097d2	-0.14120415

fc2.weight f4 [64, 64]
0	0x3d937002	0.07199098
1	0x3d3b506d	0.045730997
2	0x3d9fcccc	0.07802734
3	0xbd60b630	-0.054861248
4	0x3de3ba37	0.11119502
5	0xbd78c173	-0.060731363
6	0x3b56517a	0.0032702372
7	0x3d9c2bd0	0.07625544
8	0xbe006ef6	-0.12542328
9	0xbda6515e	-0.08120988
10	0x3d896ce0	0.067102194
11	0x3db02d0c	0.08602342
12	0xbdcac5cd	-0.09901009
13	0xbdf3fbf4	-0.119132906
14	0xbd214659	-0.03937373
15	0x3c5ce334	0.013481904
16	0xbb4fb326	-0.0031692474
17	0xbd7aa68c	-0.061193988
18	0xbdef62dc	-0.11688778
19	0xbddaa539	-0.10676045
20	0xbd2d1a4a	-0.0422614
21	0x3d9aedab	0.07564863
22	0xbd318b04	-0.043345466
23	0x3d58e006	0.05294802
24	0xbdc9e07c	-0.0985727
25	0xbd50e2f3	-0.050997686
26	0xbd655802	-0.055992134
27	0xbdf4b5ca	-0.11948736
28	0xbc9963d7	-0.018724365
29	0x3de0e3c1	0.109809406
30	0xbc414b40	-0.011797726
31	0xbdeb39e4	-0.11485651
32	0x3da0b5d5	0.07847182
33	0xbda3997e	-0.07988261
34	0x3d6fcaff	0.0585432
35	0xbdcfe194	-0.101504475
36	0xbda433c4	-0.08017686
37	0x3da1bbf7	0.078971796
38	0xbdddc938	-0.10829395
39	0x3c5d6d1d	0.013514784
40	0xbd232450	-0.039829552
41	0x3c818e45	0.01581491
42	0x3e0df2b6	0.13862118
43	0xbe0844f4	-0.13307554
44	0x3dfb0d7f	0.122584336
45	0xbdbfb10c	-0.09359941
46	0x3dd209aa	0.102557495
47	0x3d6bdeb6	0.05758544
48	0x3e0da692	0.13833073
49	0x3dee8178	0.11645788
50	0xbc890c63	-0.01672954
51	0x3dd61fa1	0.104552515
52	0x3d824745	0.0636125
53	0xbe0c5bd8	-0.1370691
54	0x3d871cb5	0.06597272
55	0x3dd3a205	0.10333637
56	0xbbdeb056	-0.006795923
57	0x3d92a476	0.07160275
58	0xbde7b161	-0.11313129
59	0x3db123b1	0.08649386
60	0xbe0c1119	-0.13678397
61	0x3d8bd3f9	0.0682754
62	0x3dbc5b62	0.091971174
63	0x3d12bad2	0.035822697
64	0xbd8544e7	-0.06507283
65	0xbdeb29a6	-0.11482553
66	0xbdc9f9b8	-0.09862083
67	0xbb80c48a	-0.0039296793
68	0x3d8ff7a4	0.070296556
69	0x3dac8555	0.084238686
70	0xbd8267d2	-0.063674584
71	0x3c83b5ca	0.016077895
72	0x3d91b37f	0.07114314
73	0xbb853694	-0.004065344
74	0xbd8c572f	-0.068525665
75	0x3dd51d6e	0.10406004
76	0x3d400e99	0.04688892
77	0xbd9e1d4f	-0.07720434
78	0xbdbc7025	-0.09201077
79	0x3d6a95c8	0.05727175
80	0xbdcf4c0e	-0.10121928
81	0x3d71eecb	0.05906562
82	0x3d9919da	0.07475634
83	0x3d803496	0.0626003
84	0x3e05be07	0.13060771
85	0xbd88f3bd	-0.066871144
86	0x3bda8002	0.0066680918
87	0xbd61a4fe	-0.05508899
88	0xbc44574b	-0.011983703
89	0x3dce4b9d	0.10073016
90	0xbd10690e	-0.035256438
91	0x3c9c73ac	0.019098125
92	0xbd010d2b	-0.0315067
93	0xbe12b9e7	-0.14328729
94	0xbdf850c0	-0.12124777
95	0x3e0a2c4e	0.13493463
96	0xbdf828aa	-0.12117131
97	0xbd9bc912	-0.076067105
98	0xbd6b02da	-0.057375766
99	0xbd367769	-0.044547472
100	0x3dc91dc1	0.09820128
101	0xbbd88e3c	-0.0066087525
102	0xbc3a0a3b	-0.011354978
103	0xbc34074c	-0.010988068
104	0x3e0d6dc5	0.13811405
105	0xbdeb6531	-0.1149391
106	0x3dbb9d77	0.091608934
107	0x3cef5553	0.02921549
108	0xbd4c7e6d	-0.049925257
109	0xbdf48815	-0.11940018
110	0x3dc55471	0.096352465
111	0xbca6c6de	-0.0203585
112	0xbd3b01fb	-0.045656186
113	0x3dabeddb	0.08394977
114	0xbd3c1a5c	-0.045923576
115	0x3d273127	0.04081836
116	0xbdcfe3f0	-0.101508975
117	0xbc94bb25	-0.018155644
118	0xbdc28120	-0.09497285
119	0x3cbd456b	0.02310439
120	0x3cbe2df0	0.023215264
121	0xbd81fcfb	-0.0634708
122	0xbdbf1c6e	-0.093315944
123	0xbe0396a9	-0.12850441
124	0x3d81a908	0.06331068
125	0x3dcbd874	0.099533945
126	0x3d50723d	0.050890196
127	0x3c003d0b	0.007827054
128	0xbd82fd30	-0.06395948
129	0xbc5b8cec	-0.013400298
130	0xbda57c99	-0.08080406
131	0x3dcdf5eb	0.10056671
132	0xbd9c867d	-0.07642839
133	0x3d98b3c2	0.07456161
134	0x3d2a773c	0.041617617
135	0x3e08d6cb	0.13363187
136	0x3df0d23f	0.11758851
137	0xbd283533	-0.04106636
138	0x3c99ced5	0.018775383
139	0x3e0d1002	0.13775638
140	0xbc7ec42d	-0.015549702
141	0x3dcb8c50	0.09938872
142	0xbd295143	-0.041337263
143	0x3d230a46	0.03980472
144	0xbdaba297	-0.08380621
145	0x3dcb591d	0.099291064
146	0x3e0ad5ae	0.13558075
147	0x3d10ed65	0.035382647
148	0x3e1973ef	0.14985631
149	0x3c803c6f	0.015653817
150	0x3dc88a5b	0.09792014
151	0x3b5574d7	0.0032570863
152	0xbcfc6775	-0.03081105
153	0xbd8e0308	-0.06934172
154	0x3d91cdc6	0.07119326
155	0xbd10a636	-0.03531476
156	0x3db230d6	0.08700721
157	0xbcc6eb4c	-0.02428212
158	0x3db1efad	0.08688293
159	0x3d0d4472	0.034489103
160	0xbda89450	-0.08231413
161	0x3dad38c5	0.084580936
162	0xbc3e14a4	-0.011601601
163	0xbd17ea48	-0.037088662
164	0x3d7104e5	0.05884256
165	0xbe117bfa	-0.1420745
166	0x3ddccd90	0.107813954
167	0x3d53664f	0.05161124
168	0xbdc78650	-0.09742415
169	0xbdcd6569	-0.10029108
170	0xbcf66b5f	-0.030080495
171	0xbd1b0dee	-0.03785508
172	0xbe0df22b	-0.13861911
173	0xbe02e6d1	-0.12783362
174	0xbdb22cee	-0.08699976
175	0x3d31e439	0.04343054
176	0xbe13ae89	-0.14422049
177	0xbe0e31ca	-0.1388618
178	0x3dcab00c	0.098968595
179	0x3d0bc61f	0.03412449
180	0xbdf6b82c	-0.12046847
181	0x3cf57594	0.029963292
182	0xbd4894ca	-0.04897002
183	0xbc5e17d6	-0.013555488
184	0xbd8e818f	-0.06958305
185	0xbd868dbb	-0.06570002
186	0xbcb17f52	-0.021667156
187	0x3d49e362	0.049289115
188	0x3dedb827	0.1160739
189	0x3e0936fc	0.13399881
190	0x3dd73acd	0.10509262
191	0xbd58b96e	-0.052911215
192	0x3daa955b	0.083292685
193	0xbca6c89d	-0.020359332
194	0xbdb93b98	-0.0904457
195	0xbc6b3b27	-0.014357365
196	0x3e0f2efa	0.13982764
197	0x3e0d053c	0.13771528
198	0x3ce81e49	0.028334754
199	0xbdac97d9	-0.084274
200	0xbb877778	-0.004134115
201	0xbbf01410	-0.0073266104
202	0x3c4a05df	0.012330501
203	0xbd3a61ba	-0.045503356
204	0xbd7e687f	-0.062111374
205	0xbd0864f3	-0.033299398
206	0x3e08b3b8	0.13349807
207	0x3c911528	0.017710283
208	0xbd93ad43	-0.072107814
209	0xbd6c1eb3	-0.057646465
210	0x3d7472d2	0.059679814
211	0x3dbb0928	0.09132606
212	0xbc82c8e6	-0.015964936
213	0x3daf8b7c	0.085715264
214	0x3c89577c	0.016765349
215	0xbc680f25	-0.014163767
216	0xbe0142bc	-0.12623113
217	0xbc45cbbd	-0.012072501
218	0xbe0e5914	-0.13901168
219	0x3d812b1b	0.0630705
220	0xbcafcadc	-0.021459036
221	0xbd82912f	-0.06375348
222	0x3d3c204f	0.04592925
223	0x3d035478	0.032062978
224	0xbd8da700	-0.06916618
225	0x3d61a14d	0.05508547
226	0x3bcfeb8b	0.0063452176
227	0xbdeb348e	-0.114846334
228	0x3cb21b53	0.021741545
229	0x3e1b95a2	0.15193799
230	0x3d571dfd	0.052518833
231	0xbdd18e1e	-0.10232185
232	0xbe19e00b	-0.15026872
233	0x3d443407	0.04790118
234	0x3c8e1d07	0.017347826
235	0xbca3f7b9	-0.020015584
236	0xbd797e7b	-0.060911637
237	0x3dfd6057	0.12371891
238	0x3bb9fbef	0.005675785
239	0x3e088841	0.13333227
240	0xbda3b5f1	-0.07993687
241	0x3d13938a	0.036029376
242	0xbd9db69f	-0.07700848
243	0xbd86c416	-0.06580369
244	0xbd328514	-0.043583944
245	0xbe1b680c	-0.1517641
246	0xbe12d7b4	-0.14340097
247	0xbdca0c26	-0.098655984
248	0xbcca5534	-0.024698831
249	0xbdb36272	-0.08759011
250	0xbdc03fb3	-0.0938715
251	0x3dee3534	0.116312414
252	0xbdc74b25	-0.097311296
253	0xbda117da	-0.078658774
254	0x3daee268	0.08539277
255	0x3d85f64b	0.06541117

fc2.bias f4 [64]
0	0x3d5c40a2	0.053772576
1	0xbdc7c070	-0.097535014
2	0xbdc85f0d	-0.097837545
3	0xbd9a7c39	-0.07543225
4	0x3df8ec85	0.121544875
5	0xbc2013de	-0.009770362
6	0xba6b56e0	-0.0008977484
7	0x3daa5078	0.083161294
8	0xbdb5e89c	-0.08882257
9	0xbc8f3bb8	-0.01748453
10	0x3cc894d1	0.024485024
11	0x3d8ac6e7	0.06776219
12	0xbd886369	-0.06659586
13	0x3c1a719c	0.009426501
14	0xbd5724eb	-0.052525442
15	0x3dd2f52f	0.10300671
16	0x3d8bd933	0.06828537
17	0x3d601ca9	0.054714832
18	0xbb3b5def	-0.0028589924
19	0x3dd8b6a0	0.10581708
20	0x3dcec4ed	0.10096154
21	0x3cb39dbd	0.021925801
22	0xbe00bd4b	-0.1257221
23	0xbcc6d7b6	-0.02427278
24	0x3d9610ef	0.073274486
25	0x3ddddfcf	0.10833704
26	0xbd199e11	-0.03750426
27	0x3db4e912	0.08833517
28	0xbdae9d62	-0.08526112
29	0x3c63a342	0.013893904
30	0xbd928dd2	-0.07155956
31	0xbc47e673	-0.0122009395
32	0x3c8fefe0	0.017570436
33	0xbd7de2f0	-0.061984003
34	0xbd9d2044	-0.0767217
35	0xbd172bbb	-0.03690694
36	0xbdf54917	-0.119768314
37	0x3bcb56a5	0.006205397
38	0xbdc5b9b1	-0.096545584
39	0x3d44ba75	0.04802938
40	0x3d1a224d	0.037630368
41	0x3dd4e6eb	0.103956066
42	0x3de178cb	0.110093676
43	0xbdea9b9c	-0.114554614
44	0xbd139910	-0.036034644
45	0x3de44ae0	0.11147094
46	0x3ddc7487	0.10764413
47	0xbd39aa71	-0.04532856
48	0x3cb744b7	0.022371633
49	0xbd691fd1	-0.056915108
50	0x3da14ca8	0.07875949
51	0xbdd4581f	-0.1036837
52	0x3dbc288f	0.091874234
53	0xbdbcca2e	-0.0921825
54	0x3cc450c8	0.0239643
55	0x3da8e3dc	0.08246586
56	0xbd8d5cfd	-0.06902502
57	0xbca05b4e	-0.019574787
58	0xbd4e6d18	-0.05039701
59	0xbda4a53e	-0.0803933
60	0x3d2bc73d	0.041938055
61	0xbde0c982	-0.109759346
62	0x3da6398f	0.08116447
63	0x3ca97c3e	0.020689126

fc3.weight f4 [64, 64]
0	0x3d0b0a19	0.033945177
1	0xbd4b3126	-0.04960742
2	0xbacf298e	-0.0015805231
3	0xbdb928f0	-0.09041011
4	0xbc49ee2b	-0.01232485
5	0x3b0e190a	0.0021682405
6	0xbdef252f	-0.11677014
7	0x3d9fa065	0.07794265
8	0xbd63acf6	-0.05558487
9	0x3b126038	0.0022335183
10	0x3bed0956	0.007233779
11	0xbddff5ed	-0.109355785
12	0x3c64fa6d	0.013975722
13	0xbc00bfb0	-0.007858202
14	0xbd88f867	-0.06688004
15	0xbd3bd689	-0.045858894
16	0x3da916d9	0.08256311
17	0x3d164ca5	0.036694188
18	0xbdb023c6	-0.08600573
19	0x3dc3b753	0.09556451
20	0x3da0425d	0.07825158
21	0xbdbe779e	-0.09300159
22	0x3c9085dc	0.017641954
23	0x3d08829f	0.033327695
24	0xbd369d48	-0.04458359
25	0x3df0a6c4	0.11750558
26	0xbc95c1d8	-0.018280908
27	0x3dbba86f	0.091629855
28	0x3d8dd715	0.06925789
29	0x3db2af06	0.08724789
30	0x3e0752b1	0.13215138
31	0xbd668273	-0.05627675
32	0xbd8a4c99	-0.06752891
33	0xbd83193c	-0.064012975
34	0xbe0215ee	-0.12703678
35	0x3de0b913	0.109728
36	0xbd4cc2c4	-0.04999043
37	0xbd06835e	-0.032840125
38	0xbd14f9fe	-0.036371224
39	0x3d6dc678	0.058050603
40	0xbccb82f3	-0.024842715
41	0x3daf1193	0.08548274
42	0x3daac5a6	0.0833848
43	0x3dec6c55	0.115441
44	0x3dbceeaa	0.09225209
45	0xbd39cbed	-0.045360494
46	0x3d674e8a	0.056471385
47	0xbd994103	-0.07483103
48	0x3de346b4	0.1109747
49	0xbd812fb4	-0.06307927
50	0x3d95f9c6	0.07323031
51	0x3da172d8	0.07883233
52	0xbdbc2473	-0.0918664
53	0xbd10b956	-0.035333
54	0xbd345e9f	-0.04403555
55	0xbd441623	-0.047872674
56	0x3d8cf88e	0.068833455
57	0x3db447cc	0.08802757
58	0x3d957ae0	0.07298827
59	0xbcc7537f	-0.024331806
60	0xbdaab45d	-0.08335183
61	0x3b3e93e0	0.002907984
62	0x3de2155e	0.11039232
63	0xbcf70b79	-0.030156838
64	0xbddf23a8	-0.10895473
65	0xbd4c31e2	-0.04985226
66	0x3d2c09a4	0.04200138
67	0x3db5781d	0.088608004
68	0xbcdba3f3	-0.026811576
69	0xbde26639	-0.11054654
70	0xbd952796	-0.07282941
71	0xbbba84ed	-0.0056921155
72	0xba2d4534	-0.00066097383
73	0x3da04fef	0.07827746
74	0xbbc32952	-0.0059558535
75	0x3de8161f	0.11332344
76	0xbc752f60	-0.014964908
77	0x3cab85d0	0.02093783
78	0xbd14f1a0	-0.036363244
79	0x3def75d3	0.11692395
80	0x3cc08a4a	0.023503441
81	0xbdce7da1	-0.100825556
82	0x3daaed08	0.083459914
83	0xbd6786cc	-0.056525037
84	0xbd23d2ed	-0.039996076
85	0x3d540af3	0.051768254
86	0x3ca6d37a	0.020364512
87	0xbd269620	-0.040670514
88	0x3bc72b04	0.006078126
89	0x3cf67ef3	0.030089831
90	0xbcc6107a	-0.024177779
91	0x3df62f30	0.12020719
92	0xbd82405f	-0.06359934
93	0x3cc777d2	0.024349127
94	0xbdc76fb7	-0.09738105
95	0x3bb387fe	0.005478858
96	0x3df56a17	0.11983126
97	0x3d05cc72	0.032665677
98	0xbdb9a0ef	-0.09063899
99	0xbc25418c	-0.010086428
100	0xbda8822b	-0.082279526
101	0xbd5c0fef	-0.053726133
102	0xbce93f7f	-0.02847266
103	0xbdf6a332	-0.12042846
104	0x3da64a46	0.08119635
105	0x3d0739d7	0.033014145
106	0xbdcda831	-0.100418456
107	0x3c8046f3	0.015658831
108	0x3cf08078	0.029358134
109	0xbdb30416	-0.08741014
110	0xbdf01662	-0.11723019
111	0xbdfa3b3d	-0.1221833
112	0xbd51503e	-0.051101916
113	0xbdedbdef	-0.116084926
114	0xbdbab41f	-0.091163866
115	0xbdd57ea3	-0.10424545
116	0xbdce1fc0	-0.100646496
117	0xbd8f2542	-0.06989528
118	0x3de0a83b	0.109695874
119	0xbb130640	-0.0022434145
120	0x3d32ff08	0.043700248
121	0xbd2b11eb	-0.041765135
122	0xbdfd79d7	-0.12376755
123	0x3d92bf81	0.07165433
124	0x3dfc1380	0.12308407
125	0xbd06a8ca	-0.032875814
126	0x3a501c00	0.00079387426
127	0x3d700014	0.058593825
128	0x3d2478ce	0.04015427
129	0x3d651a63	0.055933367
130	0x3d2eb24e	0.042650513
131	0xbdfdb055	-0.12387148
132	0x3da242d7	0.07922905
133	0x3b81b6d9	0.0039585647
134	0xbd5455b6	-0.051839553
135	0x3ba8f56b	0.005156209
136	0xbc8a5083	-0.016884094
137	0x3dd8cb42	0.10585643
138	0xbd51eb49	-0.051249776
139	0xbd4635ad	-0.048391033
140	0x3e0d6123	0.13806586
141	0xbd0bb46e	-0.034107618
142	0xbd3b6aa2	-0.04575599
143	0x3dc7d49f	0.09757351
144	0xbc1b1c4c	-0.009467196
145	0x3d57452f	0.052556213
146	0x3a2d5b6a	0.0006613048
147	0x3d83d463	0.06436994
148	0xbcf93f6a	-0.030425746
149	0x3db3d5a5	0.08780984
150	0xbd9a590d	-0.07536516
151	0xbdfbc622	-0.1229365
152	0xbdbc53d9	-0.0919568
153	0xbd983cd4	-0.07433477
154	0x3d74f6d8	0.05980572
155	0xbdaeec39	-0.0854115
156	0xbd2ec780	-0.042670727
157	0xbd91d66a	-0.07120974
158	0xbcca4cd5	-0.02469484
159	0xbd2f05c6	-0.042730115
160	0x3d23bf50	0.03997737
161	0xbdd3c235	-0.103397764
162	0x3cd969ec	0.026539765
163	0x3dc0603b	0.093933545
164	0xbdadc277	-0.08484357
165	0x3e02bd83	0.12767605
166	0x3c659456	0.014012417
167	0xbde39482	-0.1111231
168	0x3de8dfcd	0.113708116
169	0xbb2e8230	-0.002662789
170	0x3def552a	0.11686166
171	0x3dd0eee2	0.10201813
172	0x3dc6acaa	0.09700902
173	0x3dba60ee	0.09100519
174	0xbc929f36	-0.017898183
175	0xbb7d69ed	-0.0038667873
176	0xba42a0ca	-0.0007424472
177	0xbd822c75	-0.06356136
178	0x3dd8ff9c	0.105956286
179	0x3d2d3341	0.042285208
180	0xbb9f1f83	-0.0048560514
181	0x3bcdcf44	0.0062808115
182	0xbd2ec1df	-0.04266536
183	0xbd91cfd1	-0.07119716
184	0xbde5c7f5	-0.112197794
185	0xbdb7f491	-0.08982194
186	0xbd28ba3d	-0.041193236
187	0x3dee4913	0.116350316
188	0x3ca8db41	0.02061236
189	0x3d96c406	0.07361607
190	0xbde9901f	-0.11404442
191	0xbd4bd38f	-0.049762305
192	0x3dc713e4	0.09720591
193	0xbd093d4c	-0.033505723
194	0xbd815127	-0.06314307
195	0x3db44088	0.08801371
196	0x3d839f34	0.0642685
197	0xbd787ab6	-0.0606639
198	0xbd8636f1	-0.06553448
199	0xbc232bac	-0.009959143
200	0xbd17876f	-0.036994394
201	0x3dcf9a7a	0.10136886
202	0xbda0ab34	-0.078451544
203	0x3c8e2524	0.017351694
204	0x3a51746b	0.0007990065
205	0xbddd4478	-0.10804075
206	0x3db2a7f6	0.08723442
207	0x3de1da08	0.11027914
208	0x3c5d9293	0.013523716
209	0x3ca4ac2b	0.020101627
210	0x3dfb3fc7	0.12268024
211	0x3d7dc8f1	0.06195921
212	0xbd9fbb19	-0.07799358
213	0x3d307f08	0.043089896
214	0xbdcf5e2b	-0.10125383
215	0x3ded8a70	0.115986705
216	0x3d31484f	0.04328185
217	0x3d581c41	0.05276132
218	0xbd8a7873	-0.06761255
219	0x3d4b81e2	0.049684413
220	0xbd82cc2a	-0.063865975
221	0xbd601118	-0.054703802
222	0x3dba4793	0.09095683
223	0xbdd0b168	-0.101900876
224	0xbda1e628	-0.07905227
225	0xbd19f2b3	-0.03758497
226	0x3cac20ee	0.021011796
227	0x3d1057b7	0.0352399
228	0xbd0950c8	-0.033524305
229	0xbe0438ee	-0.12912342
230	0x3d33825e	0.0438255
231	0x3d9be099	0.07611198
232	0xbdb6d848	-0.08927971
233	0x3dff7228	0.124729455
234	0x3d3f87a3	0.046760213
235	0x3ca754fe	0.02042627
236	0xbded65e7	-0.11591702
237	0xbdb9c8fe	-0.09071539
238	0x3dac9445	0.08426718
239	0x3d9a23a3	0.075263284
240	0x3b27fd25	0.0025633064
241	0xbdb6d510	-0.08927357
242	0xbe0d55b5	-0.13802226
243	0xbdf13bc1	-0.11778975
244	0x3df0a3cd	0.117499925
245	0xbd516102	-0.051117904
246	0xbdc893ce	-0.097938165
247	0xbd2e06ea	-0.042487063
248	0xbb8ba235	-0.00426128
249	0x3db69170	0.08914459
250	0x3dcefc69	0.10106737
251	0xbc3effc7	-0.011657662
252	0xbda40cea	-0.08010276
253	0x3dcc4d04	0.09975627
254	0xbda4f657	-0.08054798
255	0xbdcbbda6	-0.09948282

fc3.bias f4 [64]
0	0x3d9eac9c	0.077477664
1	0xbda1c80e	-0.078994855
2	0xb94732f7	-0.00018997105
3	0x3d573570	0.052541196
4	0x3c09e55d	0.008416501
5	0xbdbb5f04	-0.09148982
6	0x3d0cacb5	0.034344394
7	0x3d4af133	0.04954643
8	0xbd98de3b	-0.07464262
9	0x3b3f00fc	0.0029144874
10	0x3d4e4f2e	0.05036848
11	0x3cc197a7	0.023631884
12	0x3d0e4519	0.034733865
13	0xbccbc3a7	-0.024873568
14	0xbd34e313	-0.044161867
15	0xbdc10bcb	-0.094260775
16	0x3d109107	0.03529456
17	0xbdfa07bd	-0.12208507
18	0xbdb4adc4	-0.08822206
19	0x3d5a005c	0.053223
20	0xbd1258fd	-0.035729397
21	0x3d77833f	0.0604279
22	0xbca9b7ad	-0.020717466
23	0x3d6f1801	0.0583725
24	0xbda13c5d	-0.078728415
25	0xbd83c077	-0.06433194
26	0x3ae84a16	0.0017722275
27	0xbc930c60	-0.017950237
28	0xbd41c616	-0.04730805
29	0xbd62391b	-0.05523024
30	0xbc8afbdb	-0.016965797
31	0xbd99d7ca	-0.075118616
32	0xbd158ef7	-0.036513295
33	0x3d886786	0.066603705
34	0x3dd9a83a	0.1062779
35	0x3af8f522	0.0018993954
36	0x3dabf759	0.08396787
37	0xbda7ac06	-0.08187108
38	0x3d2513cc	0.040302083
39	0xbab454fb	-0.0013758236
40	0xbd1d7a14	-0.0384465
41	0xbd04f1a7	-0.03245702
42	0xbcf99a01	-0.030468943
43	0x3dcc7a20	0.09984231
44	0x3db2ff9c	0.0874016
45	0x3de27884	0.11058143
46	0xbbaa8510	-0.0052038506
47	0x3dc767dc	0.097366065
48	0x3dba2483	0.09088995
49	0xbddd6445	-0.108101405
50	0xbdd825e7	-0.10554104
51	0xbbaad7f1	-0.0052137305
52	0x3d8602c8	0.06543499
53	0xbd8f6ebe	-0.07003544
54	0xbd308af0	-0.04310125
55	0x3d1f7450	0.038929284
56	0xbdab8434	-0.08374825
57	0x3d160b03	0.036631595
58	0xbd074fb5	-0.033035
59	0xbdb0255c	-0.08600876
60	0xbc9ea459	-0.019365476
61	0xbd25e29d	-0.04049932
62	0x3d49a40d	0.049228717
63	0x3dc812db	0.097692214

out.weight f4 [2, 64]
0	0xbdfb9af7	-0.122854166
1	0x3ddd423a	0.10803647
2	0x3d981e65	0.07427672
3	0xbddc195d	-0.10747025
4	0xbdd884be	-0.105721936
5	0x3d743484	0.059620395
6	0xbdcc20da	-0.099672034
7	0xbd896b5c	-0.0670993
8	0xbd7f554e	-0.062337212
9	0xbdde67aa	-0.10859616
10	0xbc20e76d	-0.009820801
11	0x3d8ca169	0.06866724
12	0xbdc086aa	-0.09400685
13	0xbda45b6b	-0.08025249
14	0x3d86326a	0.065525845
15	0xbce28e1d	-0.027655656
16	0x3dbc2b1f	0.09187912
17	0xbd704145	-0.058655996
18	0x3dad0f49	0.08450181
19	0x3ded34d0	0.11582339
20	0x3c9f8127	0.019470764
21	0xbdf45178	-0.119296014
22	0x3cf5d19b	0.030007174
23	0x3dd1b02d	0.10238681
24	0x3d9d7e5d	0.076901175
25	0xbd34e0c3	-0.044159662
26	0x3db5c6af	0.088757865
27	0xba99a4aa	-0.0011722047
28	0x3a3745be	0.00069912884
29	0x3cb8869a	0.02252512
30	0x3e035664	0.12825924
31	0x3c2cd651	0.010549144
32	0x3d8acb9b	0.06777116
33	0x3dbe87c6	0.093032405
34	0x3dced008	0.100982726
35	0xbd626f6c	-0.05528204
36	0xbdaa3f7e	-0.083128914
37	0xbdeaeb22	-0.11470629
38	0x3dbd5de5	0.092464246
39	0x3cf596dc	0.029979162
40	0x378dda6c	1.691022e-05
41	0xbd8b7dd1	-0.06811107
42	0xbdd6b87f	-0.104844086
43	0x3ddad296	0.10684697
44	0x3d415278	0.04719779
45	0x3dd560cf	0.104188554
46	0xbdef045c	-0.11670753
47	0xbd3318cd	-0.043724824
48	0xbdb4bcf7	-0.08825105
49	0xbdb7f57e	-0.08982371
50	0x3de39128	0.11111671
51	0x3c4810a5	0.012211
52	0xbd7f086c	-0.06226389
53	0x3d1ac476	0.037785016
54	0xbb2e3ca9	-0.002658645
55	0xbcd46983	-0.025929218
56	0xbd7bd339	-0.061480734
57	0xbdb9dc37	-0.09075206
58	0x3da41c5a	0.0801322
59	0xbcfdfcc1	-0.031004312
60	0x3d3ee52c	0.046605274
61	0x3dc3476e	0.095351085
62	0x3d3b0325	0.045657296
63	0x3d8c37ce	0.068465814
64	0x3d37ff99	0.04492149
65	0x3d61fa14	0.055170134
66	0xbd98955d	-0.07450364
67	0x3d78a47b	0.060703736
68	0x3d61129c	0.054949388
69	0x3d801d37	0.06255572
70	0xbdf2b613	-0.11851134
71	0x3d3e8481	0.046513084
72	0x3df12650	0.11774886
73	0x3d81cd92	0.063380376
74	0x39db67da	0.0004184831
75	0xbd3b185e	-0.045677535
76	0x3c957086	0.018242132
77	0xbd1a59a3	-0.03768314
78	0x3db7f80a	0.089828566
79	0xbda200c0	-0.07910299
80	0x3db12076	0.086487696
81	0xbc89f6d4	-0.01684133
82	0x3adc5ea7	0.0016812877
83	0xbd43b5fd	-0.04778098
84	0x3def15f2	0.116741076
85	0x3cdddae5	0.027081916
86	0x3dd1fa86	0.10252862
87	0x3d2770e8	0.04087916
88	0xbdbc19c5	-0.09184603
89	0x3d6512c9	0.055926118
90	0xbd73370c	-0.05937867
91	0xbc9a915e	-0.018868145
92	0x3de32aa5	0.11092118
93	0xbd9db00c	-0.07699594
94	0x3cdeb187	0.027184261
95	0x3cf29a3b	0.029614558
96	0xbd62648b	-0.055271666
97	0x3c29e6aa	0.010369936
98	0xbdf4313d	-0.11923454
99	0x3d64ad32	0.055829234
100	0x3c0ce286	0.008598929
101	0x3df18893	0.117936276
102	0xbdf816e6	-0.121137425
103	0xbceb89f6	-0.028752308
104	0x3d9453b6	0.07242529
105	0x3dadbdec	0.0848349
106	0xbde5a0cf	-0.112123124
107	0xbda1e3bc	-0.07904765
108	0x3d9f7692	0.07786287
109	0xbcbc93fe	-0.023019787
110	0xbdad9a0d	-0.084766485
111	0xbdd9fbb9	-0.106437154
112	0xbdaf2da1	-0.08553625
113	0x3d8dd827	0.069259934
114	0xbddd5a03	-0.10808184
115	0xbc5e4e06	-0.013568407
116	0x3d043ed8	0.032286495
117	0x3c977ea3	0.018493002
118	0x3d318318	0.04333791
119	0x3df4ae6d	0.119473316
120	0x3da48443	0.080330394
121	0x3dc83857	0.09776371
122	0xbd15775a	-0.036490776
123	0x3cfee427	0.03111465
124	0x3d966bb4	0.073447615
125	0x3cfc9d17	0.030836625
126	0x3c625401	0.013813973
127	0xbd6c0c85	-0.057629127

out.bias f4 [2]
0	0x3ca0ef6f	0.01964542
1	0x3cd7abfa	0.026327122
