Santiago_version/models/Umbumping_cars_V4.pth (torch, 39352 bytes, 8 tensors)

fc1.weight f4 [64, 8]
0	0xbdfafa50	-0.122547746
1	0x3e12ad8e	0.14324018
2	0x3cad9933	0.021191215
3	0xbe8edf54	-0.2790476
4	0xbe3cc828	-0.18435729
5	0x3d9a872c	0.07545313
6	0xbe552b21	-0.20817234
7	0xbd53ea29	-0.051736984
8	0x3e872846	0.26397914
9	0xbea32cae	-0.31870025
10	0x3e65fb45	0.22459133
11	0x3d8ab5ee	0.067729816
12	0xbe30a769	-0.17251362
13	0x3d8a4a24	0.067524225
14	0xbe3365e6	-0.1751934
15	0x3e172063	0.14758448
16	0xbe39a92b	-0.18130939
17	0xbab5b350	-0.0013862643
18	0x3de4fd2a	0.111811
19	0xbe3a12fb	-0.18171303
20	0xbe92a9ee	-0.2864527
21	0xbe5edfe1	-0.2176509
22	0xbd5eb408	-0.05437091
23	0xbde5c24a	-0.11218698
24	0x3c15a14c	0.009132694
25	0xbe8f1490	-0.27945375
26	0xbe94abaa	-0.2903722
27	0x3ebfe24c	0.37477338
28	0xbd0add38	-0.033902377
29	0xbe10e0e2	-0.14148286
30	0xbc468eb9	-0.012118989
31	0xbe4b19ac	-0.19834012
32	0xbe987043	-0.2977315
33	0xbe9c7aaf	-0.3056235
34	0xbb959a8f	-0.004565544
35	0xbdaa4531	-0.083139785
36	0xbd97b9eb	-0.07408508
37	0xbefb7e93	-0.49120006
38	0xbd133a34	-0.03594418
39	0x3e8ad1e2	0.27113253
40	0x3dcce4b3	0.100045584
41	0x3e982a90	0.29719973
42	0x3d3a4e9c	0.045485124
43	0x3e90044a	0.28128272
44	0x3d5dc31d	0.054141153
45	0xbe85d458	-0.26138568
46	0x3e625788	0.22103703
47	0xbc10e595	-0.008843799
48	0x3eca23ce	0.39480442
49	0x3e1140ec	0.14184922
50	0x3e5d527e	0.216135
51	0x3e55fd28	0.20897353
52	0x3eb9c871	0.36285737
53	0x3eae659a	0.3406189
54	0x3e94eca6	0.29086798
55	0x3ea321a2	0.31861597
56	0x3e0b5a6a	0.13608709
57	0x3dca97cf	0.098922364
58	0xbe4d0a88	-0.20023549
59	0x3edf29fa	0.43586713
60	0xbda8e3f9	-0.08246607
61	0xbe7e37cd	-0.24825974
62	0xbeae1f6b	-0.34008345
63	0xbeb48d70	-0.35264158
64	0x3eb44ab5	0.35213247
65	0x3e29f70e	0.1659815
66	0x3e9c20c7	0.30493757
67	0xbe3ba85e	-0.18325946
68	0x3db79ed1	0.08965839
69	0x3ebb8295	0.36623064
70	0x3e837510	0.2567525
71	0xbe1171ab	-0.14203517
72	0xbe055415	-0.13020356
73	0x3e60c332	0.21949461
74	0xbdeb151e	-0.11478637
75	0xbe985b9a	-0.29757386
76	0xbea9fac4	-0.3319913
77	0xbebf1f87	-0.3732874
78	0xbe2ea3ad	-0.17054625
79	0x3ea05502	0.31314856
80	0xbd85d2fe	-0.06534384
81	0xbe345b99	-0.17613067
82	0x3ea357d0	0.31902933
83	0x3e0219e8	0.12705195
84	0x3d902bf9	0.07039637
85	0xbe9035ea	-0.28166133
86	0xbe654fd7	-0.22393738
87	0xbd7705b5	-0.060308177
88	0x3de74ae0	0.11293578
89	0xbdde664f	-0.108593576
90	0x3e4620bb	0.19348423
91	0x3e7228cf	0.2364838
92	0x3d96f8e3	0.0737169
93	0x3e3f51c0	0.18683529
94	0x3ea21d7d	0.31663123
95	0x3e66a452	0.2252362
96	0x3e8ed317	0.27895424
97	0x3e4c5fdb	0.19958441
98	0xbceb26a0	-0.028704941
99	0x3e5e2938	0.21695411
100	0xbe9fe644	-0.31230366
101	0x3f0e1f70	0.5551672
102	0x3df281eb	0.11841186
103	0xbe7eb6d0	-0.24874425
104	0x3e1fdb00	0.15610886
105	0xbebece3d	-0.37266722
106	0x3da28d0c	0.07937059
107	0xbe814bc1	-0.25253108
108	0x3e81d837	0.2536027
109	0x3ec89be3	0.39181432
110	0xbe27ede7	-0.16399346
111	0x3e9e3e46	0.30906886
112	0x3dccd621	0.10001779
113	0x3e816a2e	0.2527632
114	0x3e8ec7f9	0.27886942
115	0xbc0886b7	-0.0083329
116	0xbe246195	-0.1605285
117	0xbe2a60e8	-0.1663853
118	0xbeb14013	-0.34619197
119	0xbda07cb1	-0.07836283
120	0x3de6976a	0.11259349
121	0x3d580eef	0.052748617
122	0xbe90f90d	-0.2831501
123	0x3e45d221	0.19318439
124	0xbeb845af	-0.35990664
125	0xbd51b612	-0.051199026
126	0xbbeb7bae	-0.0071863746
127	0xbe831210	-0.25599718
128	0x3dcb5d1e	0.0992987
129	0xbe149098	-0.14508283
130	0x3e522b18	0.20524251
131	0x3e2ec7a6	0.17068347
132	0xbe937a00	-0.28804016
133	0x3e5b73e9	0.21430935
134	0x3c260cf6	0.010134926
135	0x3ccb9b23	0.024854248
136	0xbe1e89b9	-0.15482225
137	0x3d0191fc	0.031633362
138	0xbea141a6	-0.31495398
139	0xbea445ec	-0.32084596
140	0xbe6b2a33	-0.22965316
141	0xbe6bf0fa	-0.23041144
142	0xbdc3bfd1	-0.095580705
143	0xbea2d952	-0.31806427
144	0x3e904d4c	0.28183973
145	0xbc8f7f85	-0.01751686
146	0xbe8c4521	-0.2739649
147	0xbe929821	-0.2863169
148	0xbd642ad8	-0.05570492
149	0x3dbb8010	0.09155285
150	0xbeb0cf20	-0.34533024
151	0xbc11f084	-0.008907441
152	0xbdaebf0f	-0.08532535
153	0x3caf25af	0.021380274
154	0xbeb15613	-0.34635982
155	0x3eaedb2f	0.341516
156	0x3e5057f7	0.20346056
157	0xbe4be064	-0.19909817
158	0x3d246bae	0.040141754
159	0xbe27ad3d	-0.16374679
160	0x3e0196fa	0.12655249
161	0x3d184477	0.03717467
162	0x3e560cbd	0.20903297
163	0x3ca8ebce	0.020620253
164	0x3ce76b54	0.02824942
165	0xbeb59b16	-0.35469884
166	0x3d294ed1	0.04133493
167	0x3e43fcd7	0.1913942
168	0x3d89d4f7	0.06730073
169	0xbe95e2cf	-0.29274604
170	0x3dadb55b	0.084818564
171	0x3dfcb149	0.12338502
172	0xbdd67bb4	-0.10472813
173	0x3dab1e68	0.08355409
174	0x3d0fd093	0.03511102
175	0x3e36e04a	0.17858997
176	0xbe9b5a29	-0.30342224
177	0xbda245a1	-0.07923437
178	0xbe916d47	-0.28403684
179	0x3eaf71b9	0.3426645
180	0xbe083662	-0.13301995
181	0xbef63e9c	-0.48094642
182	0xbe94b624	-0.29045212
183	0x3e577402	0.21040347
184	0x3dbd9cbd	0.09258411
185	0x3ead079b	0.33794865
186	0xbe410d76	-0.18852791
187	0xbe49c958	-0.19705713
188	0x3db6515f	0.08902239
189	0x3e2c6e82	0.1683903
190	0xbe748c81	-0.23881723
191	0x3e2089e8	0.15677607
192	0xbdec7170	-0.11545074
193	0xbe10b2c2	-0.1413069
194	0x3e33589d	0.17514272
195	0xbdc8f724	-0.09812763
196	0x3e3d193a	0.18466654
197	0xbe142fa2	-0.14471295
198	0xbeb4c64c	-0.35307539
199	0xbe317755	-0.17330678
200	0x3e2204de	0.15822169
201	0x3ecd6147	0.4011328
202	0xbd284562	-0.041081794
203	0x3e2e8039	0.170411
204	0x3e248793	0.16067342
205	0xbe8680fe	-0.26270288
206	0xbd4a8dd2	-0.049451657
207	0x3e4677f7	0.193817
208	0xbe4d0018	-0.20019567
209	0x3e19a169	0.1500298
210	0x3eb2bcee	0.34909767
211	0xbe47d44f	-0.19514583
212	0xbd5cb26d	-0.053881098
213	0x3e85bb3b	0.26119408
214	0x3de90c69	0.1137932
215	0xbe91120f	-0.2833409
216	0xbe18bf8b	-0.14916818
217	0xbe9ad479	-0.3024023
218	0x3e1f24a2	0.15541318
219	0xbe84875c	-0.2588452
220	0x3d3bcd9d	0.045850385
221	0xbed605ab	-0.418012
222	0xbe1f19ed	-0.15537234
223	0x3e716f2d	0.23577566
224	0x3e96e00d	0.29467812
225	0x3e5ce661	0.21572258
226	0x3df297f0	0.11845386
227	0xbd263d6c	-0.04058592
228	0xbea50761	-0.32232192
229	0xbeed2ff1	-0.4632564
230	0xbe6e58bb	-0.23276035
231	0xbe3ecae4	-0.18632084
232	0x3d792d0d	0.06083398
233	0xbe36b96a	-0.17844167
234	0x3bff6b35	0.0077947625
235	0x3e040fac	0.12896603
236	0x3bcd0317	0.006256472
237	0x3e74562b	0.23860995
238	0x3ce68b49	0.028142588
239	0xbd7cebf4	-0.06174846
240	0xbeb67dc6	-0.35642833
241	0x3e1d468a	0.1535894
242	0xbdb31ccc	-0.08745727
243	0x3e4f22c6	0.20228109
244	0x3dcabcae	0.09899269
245	0xbecfde0d	-0.405991
246	0xbe741f75	-0.23840125
247	0x3c2eeeaa	0.010677019
248	0x3dee85d6	0.11646621
249	0x3d9183f7	0.071052484
250	0x3ea7813b	0.32715783
251	0xbe4f6e34	-0.20256883
252	0xbe2c9fc4	-0.16857821
253	0xbe3f6f4a	-0.18694797
254	0x3e84e7f8	0.25958228
255	0xbe71cbdf	-0.23612927

fc1.bias f4 [64]
0	0x3e9708fd	0.29499045
1	0xbe52bf1b	-0.20580713
2	0x3e95009f	0.29102036
3	0x3eba77fd	0.3641967
4	0xbe396fc1	-0.18109037
5	0x3ea02bec	0.3128351
6	0x3e0c5611	0.13704707
7	0x3ec33be0	0.38131618
8	0x3e95fd22	0.29294688
9	0xbe463f5f	-0.19360112
10	0x3d2b89eb	0.041879576
11	0xbe6048e7	-0.2190281
12	0x3e7d20dc	0.24719566
13	0x3ea09f6e	0.31371635
14	0x3e6c1d67	0.23058091
15	0x3c2324be	0.0099574905
16	0xbe648962	-0.22318032
17	0xbe2d9f2e	-0.16955253
18	0xbe8a1893	-0.26971874
19	0xbd65a4f8	-0.05606553
20	0x3d54852d	0.05188482
21	0x3ead0572	0.33793217
22	0xbe030f0a	-0.12798706
23	0xbe751c75	-0.23936637
24	0xbd0ab2e6	-0.033862017
25	0xbddf456e	-0.109019145
26	0x3e9bab83	0.3040429
27	0xbd3b88f3	-0.0457849
28	0xbe1e121f	-0.154366
29	0x3e2dde0d	0.16979237
30	0xbe12dcd7	-0.14342056
31	0xbdd8a1cd	-0.10577736
32	0x3e956cb7	0.29184505
33	0x3e68d8d0	0.22738957
34	0x3dcc24cb	0.09967955
35	0xbea9970d	-0.33123055
36	0xbc9b2768	-0.018939689
37	0x3e90c2f2	0.2827373
38	0x3eb6a6f0	0.35674238
39	0xbe693836	-0.22775349
40	0x3e3d324e	0.18476221
41	0xbb82bd25	-0.003989833
42	0xbe37a400	-0.17933655
43	0x3e87a4df	0.26492974
44	0x3deab4b4	0.11460248
45	0xbdb93064	-0.09042433
46	0xbe8fdf7e	-0.28100199
47	0xbc84170e	-0.016124275
48	0x3e82cf4a	0.25548774
49	0xbe470d00	-0.19438553
50	0x3e09bd2d	0.13451071
51	0x3e9dfc7b	0.3085669
52	0xbdfe5bf3	-0.12419882
53	0xbe88544a	-0.26626807
54	0xbdd27bce	-0.1027752
55	0x3e71012e	0.23535606
56	0x3e6e7008	0.23284924
57	0x3e0d1024	0.13775688
58	0xbe7b65fc	-0.24550623
59	0x3e8257b8	0.2545755
60	0x3e9c870b	0.3057178
61	0xbe245fee	-0.1605222
62	0x3e032dcb	0.12810437
63	0x3e800770	0.25005674

fc2.weight f4 [64, 64]
0	0x3d59dbd3	0.053188156
1	0xbdc099e3	-0.094043516
2	0xbcfe5e2e	-0.031050768
3	0x3d99fac4	0.07518533
4	0xbdf16d1c	-0.11788389
5	0xbc56d134	-0.013111401
6	0xbdb96b81	-0.09053708
7	0x3db0c9f4	0.086322695
8	0x3e032691	0.1280768
9	0x3dc10650	0.09425032
10	0xbda1fe51	-0.07909835
11	0x3c0b1de5	0.008491014
12	0xbc6d88e9	-0.014497974
13	0x3cfad1f3	0.03061769
14	0x3d630d04	0.055432335
15	0x3d0161d8	0.03158745
16	0x3dc645dc	0.09681293
17	0x3d3f4382	0.04669524
18	0x3dce6f19	0.10079784
19	0x3c85e20c	0.01634314
20	0xbd5161cd	-0.05111866
21	0x3d26432e	0.04059141
22	0xbb96be39	-0.004600313
23	0xbddb28d6	-0.10701148
24	0x3d1eb1c6	0.038743757
25	0xbde2fc8d	-0.110833265
26	0xbce7a578	-0.028277144
27	0x3cdfc72e	0.027316656
28	0xbdf1850b	-0.11792954
29	0x3de2dffe	0.11077879
30	0xbe1236aa	-0.14278665
31	0x3dace52b	0.08442148
32	0xbcf7f1a2	-0.030266587
33	0xbe1d4fe0	-0.15362501
34	0xbcad04d3	-0.021120464
35	0xbd2902ad	-0.041262317
36	0x3c8cc338	0.017182931
37	0x3de570b1	0.11203135
38	0xbddb1feb	-0.10699447
39	0x3cf391d2	0.029732618
40	0xbd91d10a	-0.07119949
41	0xbe44a827	-0.1920477
42	0x3d9a9b79	0.07549185
43	0x3d18b3a0	0.03728068
44	0x3de71401	0.11283112
45	0x3ca218d3	0.019787228
46	0x3daafe9e	0.083493456
47	0x3d23772b	0.03990857
48	0x3ca8b21b	0.02059274
49	0x3ddba472	0.10724725
50	0xbc9bf807	-0.019039167
51	0x3dca87d4	0.098891884
52	0x3d6b87b9	0.057502482
53	0xbdb2f5ae	-0.08738266
54	0x3ce783dc	0.028261118
55	0xbcaf4bf0	-0.021398515
56	0xba0ce328	-0.0005374425
57	0xbd864026	-0.06555204
58	0xbde82c35	-0.11336557
59	0xbcc76ec7	-0.024344815
60	0xbdaba3d8	-0.0838086
61	0xbb647168	-0.0034857634
62	0x3da0db13	0.07854285
63	0xbd0ba0db	-0.03408895
64	0xbce6baf0	-0.02816531
65	0xbe04fe47	-0.12987624
66	0xbd194ff2	-0.037429757
67	0x3e18d66d	0.14925547
68	0x3baf112c	0.005342623
69	0xbd869481	-0.065712936
70	0xbd9c93f5	-0.07645408
71	0xbdcce752	-0.10005058
72	0x3c98a366	0.018632602
73	0x3dd53381	0.10410214
74	0xbc3fb1bb	-0.011700089
75	0x3dde3123	0.10849216
76	0xbc4905f0	-0.012269482
77	0x3d33a3c8	0.043857366
78	0xbc239296	-0.009983679
79	0x3ae8f151	0.0017772113
80	0x3cd66fb9	0.02617632
81	0xbdb67bfe	-0.089103684
82	0xbcb1f7ce	-0.021724608
83	0x3d2dd5c6	0.0424402
84	0xbde58981	-0.112078674
85	0xbde5a0de	-0.112123236
86	0xbc34f3ed	-0.011044485
87	0xbde3216d	-0.1109036
88	0x3dc3d2ce	0.09561692
89	0x3d948fbd	0.072539784
90	0x3dd2716c	0.1027554
91	0x3e162d49	0.14665712
92	0x3e04276e	0.12905666
93	0x3d47204d	0.04861479
94	0x3e359c54	0.17735416
95	0x3d08d6a4	0.033407822
96	0xbdceef77	-0.10104268
97	0xbdbd6c13	-0.09249129
98	0xbc1beef6	-0.009517422
99	0xbc257c5f	-0.010100453
100	0xbc63e6b4	-0.013909984
101	0xbda2bce3	-0.079461835
102	0x3da8dfbb	0.08245798
103	0x3dc19212	0.09451689
104	0x3dcb856f	0.0993756
105	0xbda85381	-0.08219052
106	0xbdda40e0	-0.10656905
107	0xbbfe052d	-0.007752082
108	0x3d1a9ef7	0.037749257
109	0xbdb844b0	-0.08997476
110	0x3d8cdd1b	0.0687811
111	0xbd618c84	-0.055065647
112	0x3bb869da	0.005627853
113	0xbbb3366e	-0.005469135
114	0x3e05688f	0.13028167
115	0x3dac7c3d	0.08422134
116	0x3d9c8c63	0.07643964
117	0xbdd7323c	-0.10507628
118	0x3db0b17e	0.08627604
119	0x3d2c9390	0.042132914
120	0xbd64004d	-0.05566435
121	0x39b7d6bb	0.00035064467
122	0xbde71386	-0.11283021
123	0x3c58d95d	0.013235417
124	0x3c9bf159	0.019035982
125	0xbca12c53	-0.019674456
126	0xbdb33cf8	-0.08751863
127	0x3cb59c1d	0.022169167
128	0x3d2d85d7	0.042363968
129	0x3d1c64b3	0.03818197
130	0xbd9e1e92	-0.077206746
131	0xbdbc015a	-0.09179945
132	0x3d293100	0.041306496
133	0xbe125baa	-0.1429278
134	0xbd8a2e55	-0.067471184
135	0x3c64a3ce	0.01395507
136	0x3c9bc6de	0.019015726
137	0xbdada66d	-0.08479009
138	0xbda4adb8	-0.08040947
139	0x3dd73df3	0.10509863
140	0x3db92707	0.09040647
141	0x3d0f765a	0.03502498
142	0x3de7728c	0.11301145
143	0x3e045f67	0.12927018
144	0xbd878318	-0.06616801
145	0x3d68b5a5	0.056813855
146	0xbd1e35a2	-0.038625367
147	0xbafd54ba	-0.0019327619
148	0x3d284b13	0.04108722
149	0xbd8c6ae3	-0.068563245
150	0xbd4c0ebb	-0.049818736
151	0x3dc743c1	0.0972972
152	0xbcf7a12d	-0.030228222
153	0x3d4fc094	0.050720766
154	0xbdc9eb67	-0.098593526
155	0x3c32de1f	0.010917216
156	0x3cbda247	0.023148669
157	0x3d7c7cf0	0.061642587
158	0xbc1e9d0a	-0.009680996
159	0xbd3b8c7a	-0.045788266
160	0xbbdbab13	-0.0067037432
161	0x3d29db81	0.0414691
162	0xbe39a9a8	-0.18131125
163	0x3c02daf5	0.007986774
164	0x3caa7a33	0.020810222
165	0x3d6c030c	0.057620093
166	0xbda5db84	-0.0809851
167	0x3dca0f54	0.09866205
168	0x3d882128	0.06646949
169	0xbcd8be27	-0.02645786
170	0xbd083400	-0.033252716
171	0x3d043aa2	0.03228248
172	0x3d300021	0.042968873
173	0x3d75f26f	0.060045656
174	0x3d5da26a	0.05410997
175	0x3ddcbfea	0.10778792
176	0x3c52df05	0.012870555
177	0xbd6c8223	-0.057741296
178	0xbd365954	-0.044518784
179	0xbd2426e3	-0.040076148
180	0x3ccd1c48	0.0250379
181	0xbdc107c9	-0.09425313
182	0x3d1a9b46	0.037745737
183	0xbceee38c	-0.029161237
184	0xbdce5226	-0.10074262
185	0x3da64299	0.08118171
186	0xbca96190	-0.020676404
187	0xbe31c4df	-0.17360257
188	0x3dcdf9ba	0.10057397
189	0xbd8922e3	-0.06696107
190	0x3daeac3d	0.085289456
191	0xbd63bad5	-0.0555981
192	0x3dee441b	0.11634084
193	0x3dfc49a5	0.12318734
194	0xbccb81a2	-0.024842087
195	0x3d050ad9	0.03248105
196	0x3cc6f8a5	0.024288485
197	0xbdbb08d1	-0.09132541
198	0x3de85803	0.11344912
199	0x3da48ff6	0.08035271
200	0x3c74b44c	0.014935564
201	0xbc5bcaf4	-0.013415087
202	0xbe073d20	-0.13206911
203	0xbbca6b4a	-0.0061773406
204	0x3e132fd1	0.1437371
205	0x3dacc3a7	0.08435755
206	0xbdfa98fa	-0.12236209
207	0x3d9a0b52	0.075216904
208	0x3df36fa1	0.11886526
209	0xbde2c246	-0.11072211
210	0x3e039c42	0.12852576
211	0x3dbb2fd8	0.09139985
212	0xbd6c1f98	-0.057647318
213	0x3d3af189	0.045640502
214	0x3dd0af48	0.10189682
215	0xbd8c901a	-0.06863423
216	0xbc7bb276	-0.015362373
217	0xbd9ae7ba	-0.075637296
218	0xbd3fdeef	-0.046843465
219	0xbda2023f	-0.07910585
220	0x3c7e0c77	0.015505902
221	0xbdf44f20	-0.119291544
222	0x3c03be70	0.008041009
223	0xbcb93aa7	-0.022610975
224	0xbc53b43e	-0.012921391
225	0x3d118374	0.035525754
226	0xbe2e28d2	-0.17007759
227	0xbe2bb6b8	-0.1676892
228	0xbd2d337d	-0.04228543
229	0x3cad05f9	0.021121012
230	0x3de246dc	0.110486716
231	0xbd8e1d2c	-0.06939158
232	0x3da9a047	0.082825236
233	0xbdd3a801	-0.103347786
234	0x3da1dda8	0.07903606
235	0x3d084c16	0.033275686
236	0xbd53cb81	-0.05170775
237	0xbcee3f3b	-0.029082885
238	0x3d6cb11a	0.057786085
239	0x3dc94842	0.09828235
240	0x3db0e78d	0.08637915
241	0x3d9d062d	0.076671936
242	0xbde06a0b	-0.10957726
243	0xbd61e53e	-0.055150263
244	0xbdf0b724	-0.11753681
245	0xbcd98c33	-0.02655611
246	0x3d66c94a	0.056344308
247	0xbd2c4f46	-0.04206779
248	0xbe10f3a4	-0.14155442
249	0x3e679b59	0.22617854
250	0x3bdfcfe2	0.0068302015
251	0xbddecd60	-0.10879016
252	0x3dc4e207	0.09613424
253	0x3c9bc896	0.019016545
254	0xbdaabc18	-0.08336657
255	0x3d1b4b73	0.03791375

fc2.bias f4 [64]
0	0x3df81a69	0.12114412
1	0xbc126636	-0.008935502
2	0xbde1db45	-0.110281505
3	0xbdebd237	-0.11514705
4	0x3c75a4a1	0.014992864
5	0x3e024b63	0.1272407
6	0x3dc6befa	0.09704395
7	0xbe05fc68	-0.13084567
8	0xbaf24c3a	-0.0018485852
9	0xbd56f2d1	-0.05247766
10	0x3ca1d918	0.019756839
11	0xbdc695ff	-0.09696578
12	0xbdf65f28	-0.12029868
13	0x3c89be60	0.01681441
14	0xbd5b4660	-0.05353391
15	0x3daec97e	0.08534525
16	0x3d5a2055	0.05325349
17	0xbd452f1d	-0.048140634
18	0x3dd0837a	0.10181327
19	0x3dca8113	0.098879
20	0x3d2a6819	0.04160318
21	0xbdab890a	-0.083757475
22	0x3de7c04c	0.113159746
23	0xbdacee9f	-0.08443951
24	0xbdc77eee	-0.09741007
25	0x3d110619	0.035406206
26	0xbde52e9e	-0.11190532
27	0x3ddc3fb7	0.1075434
28	0x3d5db669	0.054129038
29	0x391a4579	0.00014712465
30	0xbd70d967	-0.05880108
31	0x3c3cf8e2	0.011533948
32	0xbd8131ca	-0.06308325
33	0xbda22e99	-0.07919044
34	0x3d4663a3	0.048434865
35	0x3d1de443	0.038547765
36	0xbd7e363e	-0.062063448
37	0x3c590569	0.013245919
38	0x3d729f63	0.059234034
39	0xbc6f9b1c	-0.014624383
40	0xbdd32989	-0.103106566
41	0x3d3933c2	0.045215376
42	0x3dd40540	0.10352564
43	0xbbd21f51	-0.0064124246
44	0xbdccb7ad	-0.09995971
45	0xbbfafc7c	-0.007659493
46	0x3ce9881b	0.028507283
47	0x3e010fb9	0.12603654
48	0x3d6d76ad	0.057974506
49	0xbd89f500	-0.06736183
50	0xbdb4d172	-0.08829011
51	0xbdd66934	-0.10469285
52	0xbd392289	-0.04519895
53	0x3d87b9b6	0.066272184
54	0xbcbaed6a	-0.022818286
55	0x3d2f80d2	0.042847462
56	0xbde91ee2	-0.113828436
57	0xbc43f4b0	-0.0119601935
58	0x3d9524cb	0.07282408
59	0xbda19b92	-0.07891001
60	0x3d74eab0	0.059794128
61	0xbd85b341	-0.065283306
62	0xbdb71b73	-0.089407824
63	0x3dd2780e	0.10276805

fc3.weight f4 [64, 64]
0	0x3d6680ad	0.05627506
1	0x3dabba0c	0.08385095
2	0x3d7478f9	0.05968568
3	0xbd733f32	-0.05938644
4	0x3ca67169	0.02031775
5	0xbc8256fe	-0.015910622
6	0xbdd71579	-0.105021425
7	0xbd918be5	-0.07106761
8	0xbc048030	-0.008087203
9	0x3bec1cad	0.007205567
10	0x3e26285b	0.16226332
11	0x3d204982	0.039132603
12	0x3bbb4403	0.0057148947
13	0xbd42b6b6	-0.047537528
14	0xbda68839	-0.08131451
15	0xbdff6466	-0.12470321
16	0xbd4f5eea	-0.050627626
17	0xbb8ee34a	-0.004360591
18	0xbe0e91cb	-0.13922803
19	0xbda1a667	-0.07893067
20	0x3d43e068	0.047821432
21	0x3dc154c1	0.09439994
22	0x3d2afb09	0.041743312
23	0xbbc7d62d	-0.00609853
24	0x3da1a58f	0.07892906
25	0x3d9ab58d	0.07554159
26	0x3da0e958	0.07857007
27	0x3ddb51d6	0.10708968
28	0xbda30e66	-0.07961731
29	0x3d4fb1e1	0.050706748
30	0x3dce9e3f	0.10088777
31	0x3ca08bf4	0.019597985
32	0x3dbc53a8	0.09195644
33	0xbcf2ef88	-0.029655233
34	0x3bbe9b44	0.005816849
35	0x3c4c470a	0.012468109
36	0x3e1dce79	0.15410794
37	0xbcc24773	-0.02371571
38	0xbd20d2e3	-0.039263617
39	0xbc9b88f6	-0.018986207
40	0x3d70beb6	0.058775626
41	0xbd0d0f71	-0.034438554
42	0x3dc1aa5d	0.09456322
43	0xbd7f4414	-0.062320784
44	0xbda91e7a	-0.08257766
45	0xbc077071	-0.008266554
46	0xbd81d17c	-0.06338784
47	0xbe140198	-0.14453733
48	0x3cfd1d77	0.030897839
49	0xbd9b5303	-0.075841926
50	0x3d05f07f	0.032700058
51	0x3c908847	0.017643107
52	0xbdf1d728	-0.11808616
53	0xbdf6d2c0	-0.12051916
54	0xbdf85b6f	-0.121268146
55	0xbacf4e8c	-0.0015816255
56	0xbc8ca1eb	-0.017167052
57	0xbd587124	-0.052842274
58	0xbcc8bf7d	-0.024505371
59	0xbd44cb10	-0.048045218
60	0x3d09a920	0.033608556
61	0xbcde44d1	-0.027132424
62	0x3d0aa551	0.033849064
63	0xbd8c0250	-0.068363786
64	0xbd5835a7	-0.05278554
65	0x3da4f5b4	0.08054677
66	0xbcb64558	-0.022249863
67	0xbcd6db49	-0.02622761
68	0x3dd71735	0.10502473
69	0xbcbdd5ab	-0.023173174
70	0x3d219014	0.039444044
71	0xba7be203	-0.00096085685
72	0xbdb1cd66	-0.08681755
73	0xbd902fa7	-0.07040339
74	0x3d018d8e	0.031629138
75	0xbd899c30	-0.067192435
76	0x3d326cb2	0.04356069
77	0xbce9258b	-0.028460285
78	0xbd4d63b7	-0.050143924
79	0x3b8a96d8	0.0042294078
80	0xbce293da	-0.027658392
81	0x3be4f2c4	0.0069869477
82	0x3d64f173	0.055894326
83	0x3deecc83	0.11660101
84	0x3e19e22b	0.15027682
85	0x3d5f5b35	0.05453034
86	0xbd5fa4a3	-0.05460037
87	0xbcd3839f	-0.025819598
88	0x3dc0a306	0.09406094
89	0xbda54f90	-0.08071816
90	0x3d8849d6	0.06654708
91	0x3da1c84e	0.07899533
92	0xbb031b53	-0.00200053
93	0x3e04e68e	0.12978575
94	0x3dbeb4f7	0.0931186
95	0xbe03db25	-0.12876566
96	0xbda0f357	-0.078589134
97	0x3dc64685	0.09681419
98	0x3d442599	0.04788742
99	0x3d2a7fd2	0.041625805
100	0x3de097c2	0.109664455
101	0x3d15e39a	0.03659401
102	0x3dc2254c	0.0947977
103	0x3dfd56eb	0.12370094
104	0x3cc052bc	0.02347695
105	0x3d11b111	0.035569254
106	0x3da56259	0.08075399
107	0x3db6fdf2	0.08935155
108	0xbdc0b315	-0.09409157
109	0x3d4d5015	0.0501252
110	0x3dbef9ed	0.09325013
111	0xbcf1f100	-0.029533863
112	0x3dc1fac5	0.094716586
113	0xbdf97791	-0.121810086
114	0xbde07d4e	-0.109614
115	0xbdc96754	-0.098341614
116	0xbd84bd77	-0.0648145
117	0xbad373e0	-0.0016132556
118	0xbb30c2d6	-0.00269716
119	0xbd2e9d03	-0.042630207
120	0xbe0de6d2	-0.13857582
121	0x3d6d6422	0.057956822
122	0xbd45ae2f	-0.048261818
123	0xbdcde85d	-0.100540854
124	0xbc6b1ad3	-0.014349657
125	0xbbb638f0	-0.0055609867
126	0x3d688f1d	0.05677711
127	0x3c4a8910	0.01236178
128	0xbcdb95cf	-0.026804833
129	0xbd0b2e2f	-0.03397959
130	0xbd86613c	-0.06561515
131	0xbdd81d4a	-0.105524614
132	0xbdc23f23	-0.094846986
133	0xbdb900fa	-0.090333894
134	0x3c83137e	0.016000506
135	0x3dbc836a	0.09204753
136	0x3db2f758	0.08738583
137	0x3ce41aee	0.027844872
138	0x3e0475ba	0.12935534
139	0x3d565820	0.052330136
140	0xbde1c391	-0.110236295
141	0x3d45dfbd	0.048309077
142	0x3d4c412e	0.049866848
143	0xbcb86314	-0.022508182
144	0x3de45774	0.11149493
145	0xbd1034bf	-0.035206553
146	0x3db204fd	0.08692358
147	0x3cf6aab5	0.030110696
148	0x3d44c107	0.048035648
149	0x3dd6a02d	0.1047977
150	0x3cd4b20f	0.025963811
151	0x3ddf61b9	0.10907311
152	0xbd0917f6	-0.033470117
153	0x3d5c1b29	0.05373684
154	0xbd0aa56e	-0.033849172
155	0x3cf71c99	0.030165004
156	0xbde8f06a	-0.1137398
157	0x3d0d2035	0.034454543
158	0xbd793cd3	-0.060849022
159	0x3d8605dc	0.06544086
160	0x3bc595d8	0.0060298257
161	0xbe00120d	-0.12506886
162	0x3bcaf891	0.006194182
163	0xbc9dc7ae	-0.019260254
164	0xbd94fe1f	-0.07275032
165	0xbd7a29ea	-0.06107513
166	0xbdda7a8d	-0.10667906
167	0x3d15cd5d	0.036572803
168	0xbe184d2e	-0.14873192
169	0xbd75af91	-0.059981886
170	0x3cfff288	0.031243578
171	0x3e07265d	0.13198228
172	0x3d2b407d	0.041809548
173	0x3e000084	0.12500197
174	0xbda84bd5	-0.08217589
175	0xbb4e6612	-0.0031493944
176	0x3dccbff5	0.099975504
177	0x3c751dd2	0.014960723
178	0xbdad48ff	-0.084611885
179	0x3d47f720	0.04881966
180	0x3d6f927b	0.058489304
181	0x3dc90958	0.09816235
182	0x3da27128	0.07931739
183	0xbd5d84fe	-0.05408191
184	0x3d8a030f	0.06738865
185	0xbd963278	-0.07333845
186	0xbd1c3ff8	-0.038146943
187	0xbbd4aedb	-0.006490571
188	0x3d1028ad	0.03519504
189	0x3d864876	0.065567896
190	0x3d8f3015	0.06991593
191	0xbdcfd069	-0.10147173
192	0x3dd5432a	0.10413201
193	0xbd62dca6	-0.055386208
194	0x3d6bdb49	0.057582173
195	0x3db8bb02	0.09020044
196	0xbe00f77d	-0.1259441
197	0xbd80c725	-0.06287984
198	0xbe0c5439	-0.13704003
199	0x3dc1effa	0.094696
200	0x3de844e9	0.113412686
201	0xbda929ac	-0.082599014
202	0x3cdeb508	0.027185932
203	0xbe2b1d99	-0.1671051
204	0x3d939c4b	0.07207545
205	0xbdce43ea	-0.10071547
206	0x3d99129f	0.07474255
207	0xbd9cfd1e	-0.07665466
208	0x3e066a41	0.1312647
209	0x3dc32144	0.09527829
210	0x3dfe5e72	0.12420358
211	0x3d675939	0.056481574
212	0xbdb4868d	-0.08814726
213	0x3ca7fd10	0.020506412
214	0x3dddb76e	0.10826002
215	0x3dafeac7	0.08589702
216	0xbd35642f	-0.044284996
217	0xbd0afcfe	-0.03393268
218	0x3d134b7e	0.035960667
219	0x3d4c097a	0.049813725
220	0x3d6157b0	0.055015266
221	0xbd357773	-0.04430337
222	0x3dd41d27	0.10357123
223	0xbdbeb7ef	-0.09312426
224	0xbdf9394c	-0.12169132
225	0xbe2082b8	-0.15674865
226	0x3d54fac0	0.051996946
227	0xbd864c59	-0.06557531
228	0xbe21625f	-0.15760182
229	0xbcf1d58d	-0.029520774
230	0xbcf77100	-0.03020525
231	0xbdefe98d	-0.11714468
232	0x3df42655	0.11921374
233	0x3cfe9cf5	0.031080702
234	0xbd894100	-0.06701851
235	0x3dcd8654	0.10035387
236	0xbdc6df03	-0.09710505
237	0x3d221212	0.039568014
238	0xbd7d4c09	-0.06184009
239	0x3e1533ac	0.14570493
240	0xbe153f57	-0.14574943
241	0x3e00581e	0.12533614
242	0x3d501c64	0.050808325
243	0xbcbad635	-0.02280722
244	0xbd922762	-0.07136418
245	0xbdab2c55	-0.08358065
246	0xbe35b05f	-0.17743061
247	0xbd3ea101	-0.046540264
248	0x3d660260	0.05615461
249	0xbc25e7e5	-0.010126089
250	0xbe061fcd	-0.13098069
251	0xbdf89da0	-0.121394396
252	0xbe00fa63	-0.12595515
253	0x3dab73b6	0.083716795
254	0x3d16f0d3	0.03685076
255	0x3c0644d0	0.008195117

fc3.bias f4 [64]
0	0x3b5096e2	0.0031828214
1	0x3d6fdc02	0.058559425
2	0x3d9dd0ac	0.077058166
3	0x3d6a5922	0.05721391
4	0xbd80f6f0	-0.062970996
5	0xbd52657f	-0.051366325
6	0xbd975ccf	-0.07390749
7	0x3da85786	0.08219819
8	0xbbaf06ca	-0.0053413855
9	0xbc01deb2	-0.00792663
10	0xbd993b2e	-0.07481991
11	0x3da6fb88	0.081534445
12	0x3d8d560b	0.06901177
13	0x3d28ec8b	0.04124121
14	0x3dbc3e4b	0.09191569
15	0xbd815527	-0.0631507
16	0xbdd5d5ef	-0.10441195
17	0xbce2592e	-0.027630415
18	0x3db524aa	0.08844884
19	0xbd82c20d	-0.063846685
20	0x3d1c997f	0.038232323
21	0x3e0b39f0	0.1359632
22	0x3cd5a650	0.02608028
23	0xbb389d27	-0.0028169842
24	0xbd2178d2	-0.039421864
25	0x3ba391ca	0.0049917446
26	0xbd86af3e	-0.065763935
27	0xbd687c84	-0.056759372
28	0xbd74e7f0	-0.059791505
29	0x3e04f2f0	0.12983298
30	0xbcefe4dc	-0.029283933
31	0x3de81b86	0.11333375
32	0xbd037a48	-0.03209904
33	0xbc2d656e	-0.010583265
34	0xbd099544	-0.033589616
35	0xbd8baee3	-0.06820466
36	0x3dcd4742	0.10023357
37	0x3d20b893	0.039238524
38	0x3b2edc08	0.0026681442
39	0xbcc29315	-0.023751775
40	0x3bc9d7ac	0.0061597433
41	0xbd947ed6	-0.072507545
42	0x3d1a8367	0.03772297
43	0xbbecb3fe	-0.007223605
44	0xbd5e0994	-0.054208353
45	0x3cd3ffda	0.025878835
46	0x3d719d1a	0.058987714
47	0x3d7d5a0d	0.061853457
48	0x3c9dfb73	0.01928494
49	0x3ce1ec14	0.027578391
50	0xbdc0d1f7	-0.094150476
51	0x3dd5e956	0.10444896
52	0x3ddaee06	0.106899306
53	0xbc132684	-0.008981351
54	0xbd8968bb	-0.06709429
55	0x3ddf6e35	0.10909692
56	0xbde1ede5	-0.11031703
57	0xbd54bace	-0.051935963
58	0x3db79ba9	0.08965237
59	0xbd9d0f0b	-0.07668885
60	0x3db3425c	0.087528914
61	0xbdb4b390	-0.08823311
62	0xbc47900e	-0.012180341
63	0x3ddd8439	0.10816235

out.weight f4 [2, 64]
0	0xbdd2b52a	-0.102884606
1	0xbd609c05	-0.05483629
2	0x3d947b7f	0.072501175
3	0x3e1bc020	0.15210009
4	0xbe00605f	-0.12536763
5	0x3d2c9b7a	0.04214046
6	0xbdd96f8a	-0.106169775
7	0x3e47244c	0.1944744
8	0x3da59a50	0.080860734
9	0xbe78c72f	-0.24294733
10	0x3c7817d4	0.0151424
11	0x3e52ee78	0.20598781
12	0x3d9907d5	0.07472197
13	0x3ddf6839	0.10908551
14	0xbe04a025	-0.12951715
15	0xbd0c81f6	-0.034303628
16	0xbe0d70e6	-0.13812599
17	0xbdf96f7d	-0.12179468
18	0xbd2731db	-0.04081903
19	0x3e9718e6	0.29511184
20	0xbce7e6e4	-0.02830834
21	0xbd6e9824	-0.05825056
22	0xbcdb2a1d	-0.02675348
23	0x3dd8198e	0.10551749
24	0xbdada51b	-0.08478757
25	0xbe0611d8	-0.13092744
26	0xbc798669	-0.0152298
27	0xbd74ef6a	-0.059798636
28	0x3d4677f8	0.048454255
29	0x3d833058	0.06405705
30	0xbd3d2a9d	-0.046183217
31	0xbdd316d8	-0.103070915
32	0x3eb45d3c	0.35227382
33	0xba51b4ae	-0.00079996407
34	0x3d1bc742	0.038031824
35	0xbdb14079	-0.08654875
36	0x3d5446ec	0.05182545
37	0x3d9d0259	0.076664634
38	0x3d9fe4b2	0.07807292
39	0x3ddff37d	0.109351136
40	0x3e8b08f1	0.2715526
41	0xbc83e857	-0.016102
42	0xbde2af9c	-0.11068651
43	0xbe38c009	-0.18042006
44	0xbe0f9fc3	-0.14025788
45	0xbd9effc1	-0.07763625
46	0x3ded8f74	0.11599627
47	0xbd206117	-0.039155092
48	0x3e3a6b35	0.18204959
49	0x3e31ba75	0.17356284
50	0xbd7ed299	-0.06221256
51	0x3e846942	0.25861555
52	0xbdb96c00	-0.090538025
53	0xbe2d9a85	-0.16953476
54	0x3bd1ea68	0.006406117
55	0xbe6870bc	-0.22699255
56	0x3e4919d3	0.19638757
57	0xbe9e39f4	-0.3090359
58	0xbe1bb0bf	-0.15204142
59	0x3e54230a	0.20716491
60	0xbd495e6d	-0.049162317
61	0x3e359391	0.17732073
62	0xbd05819e	-0.032594316
63	0x3d293bff	0.041316982
64	0xbccdc379	-0.025117623
65	0xbc7b278c	-0.015329253
66	0x3c76b1ca	0.015057037
67	0xbdc19d95	-0.094538845
68	0xbd5fdbb5	-0.05465289
69	0x3dc679fb	0.09691235
70	0x3dc329bf	0.09529447
71	0xbd03bbe3	-0.032161605
72	0x3d940859	0.07228155
73	0xbdb09102	-0.08621408
74	0x3d885e2c	0.06658587
75	0xbd8361ed	-0.06415162
76	0xbd44078a	-0.047858752
77	0xbdc95498	-0.09830588
78	0x3d9abf41	0.0755601
79	0xbc0454ac	-0.008076828
80	0x3d25791e	0.04039871
81	0xbd789264	-0.060686484
82	0x3d53f791	0.05174977
83	0x3bdf920f	0.0068228315
84	0x3cfa00da	0.030517984
85	0xbe1159dc	-0.14194435
86	0x3e018d07	0.12651454
87	0x3d2d7815	0.042350847
88	0x3dcd3839	0.10020489
89	0xbde0e042	-0.10980274
90	0x3d8b916f	0.06814849
91	0xbd2caf3f	-0.042159315
92	0x3d4912c1	0.04909015
93	0xbda32d0f	-0.079675786
94	0xbd52d59d	-0.05147325
95	0xbd09607e	-0.033539288
96	0xba0d32ac	-0.0005386274
97	0x3d1414e9	0.036152754
98	0xbcc894d0	-0.024485022
99	0x3da6f69c	0.08152506
100	0xbd94f1ff	-0.072727196
101	0xbd932139	-0.07184071
102	0xbdc4d6b8	-0.09611267
103	0xbcabc3fd	-0.020967478
104	0x3d3f63ca	0.046726026
105	0x3cd621f9	0.026139246
106	0x3ccba7a5	0.024860213
107	0xbd5aeee6	-0.053450488
108	0xbd85e782	-0.06538297
109	0x3d6a0f2a	0.057143368
110	0x3dbd41f8	0.09241098
111	0xbd1df1eb	-0.03856079
112	0x3d8cceba	0.068753675
113	0xbc7ca00e	-0.015419019
114	0xbcf850f2	-0.030312035
115	0xbddae45c	-0.10688087
116	0xbd096a13	-0.033548426
117	0x3ca76ac0	0.020436645
118	0x3d119276	0.035540067
119	0xbd69cc93	-0.057079863
120	0x3cb7853a	0.022402395
121	0x3c64dd85	0.01396883
122	0x3c64565c	0.013936605
123	0xbc4407fd	-0.011964795
124	0x3d231144	0.039811388
125	0xbd1799d5	-0.03701194
126	0xbde910c3	-0.1138015
127	0x3d4e5afb	0.050379734

out.bias f4 [2]
0	0x3c053eb0	0.008132622
1	0xbd8aaf44	-0.067717105
