Santiago_version/models/Umbumping_cars_V1.pth (torch, 4280 bytes, 8 tensors)

fc1.weight f4 [10, 6]
00000000: 24a7 c73e 9d59 453f 02b7 4abf 562a 8bbf
00000010: a4f9 a1bf 0bf1 b13f a74b 313f 4373 fdbe
00000020: 9051 1dbe a00f 83bf 29ba 3a3f e25b e83f
00000030: 7965 65bf 6ad3 e2bf ddae babf 36c5 053f
00000040: 409a f13e ea52 0c3f fcf9 dfbf 91e6 02bf
00000050: 8295 e53d 22ac 69bf 1d7a 00bf 88f8 113f
00000060: 67b8 fa3e 3364 063e fe7b 983f 0b11 b53f
00000070: 9a08 a73e 0350 23bf d86d 1340 bd93 b9bf
00000080: 3f09 0d3f bc91 2ebf a4d7 61bf 3be9 893f
00000090: e205 08bf d257 dabf 8721 9bbf 5dae fb3e
000000a0: ec85 bcbe 0aa0 443f cf99 b1be f22d 6b3f
000000b0: 6f30 4f3f b14c 9f3f 4254 a0bf f354 1340
000000c0: 198b 233f 4282 dbbe ab50 4b40 d46d a53f
000000d0: fd70 073e 574c df3e 4fde 4d3f c8ff 7b3f
000000e0: 7e3d 673f 7987 c33b 1647 43bf 6f21 b33e
0.38994706 0.77089864 -0.791855 -1.0872295 -1.2654309 1.3901685 0.6925606 -0.49502
-0.15363145 -1.0239143 0.7294031 1.815304 -0.8960796 -1.7720768 -1.4584614 0.52254045
0.47187996 0.54814017 -1.7498164 -0.51133066 0.11210157 -0.9127828 -0.5018633 0.57019854
0.48968813 0.1312416 1.191284 1.4145826 0.3262375 -0.63793963 2.3035793 -1.4498211
0.55092233 -0.68191123 -0.88219666 1.0774301 -0.53133976 -1.7058051 -1.2119607 0.49156466
-0.36820924 0.768067 -0.3468766 0.9186698 0.8093328 1.2445279 -1.2525713 2.30206
0.6388412 -0.42872816 3.1767986 1.2924142 0.13226695 0.4361293 0.8041734 0.98437166
0.90328205 0.0059670773 -0.76280344 0.34986445

fc1.bias f4 [10]
00000000: 68a1 e2bd 164d b13d 2543 ca3e 2b31 7e3e
00000010: d47e 6f3e 63eb 32bd 8cb9 96bd 2722 4ebe
00000020: 6482 11be 6dbc c23d
-0.11065942 0.08657281 0.39504352 0.24823444 0.23388225 -0.043681514 -0.07359609 -0.20130216
-0.14209896 0.095085956

fc2.weight f4 [10, 10]
00000000: e2e7 423f 3d80 9c3e 4002 2d3e 24a3 72bf
00000010: a365 223b d190 503f 0d42 f93f b564 233e
00000020: b643 8cbf 7ba2 77bf 50ad c5bf 4353 babe
00000030: 1824 72be 05b2 e5bf a8c3 90bf 180b 34bf
00000040: 0829 8c3f bb45 573f b70c 293f f98b 1e3f
00000050: 2f7a c9be dab0 d0bd 624b a33f 0c13 e33c
00000060: 3e18 453f 7b8d 1240 fd17 2240 71ad 0dbf
00000070: 4b46 4dbf 71b8 b5bf 5c78 cabe 38ad 5f3f
00000080: b9b7 493f 6896 f9bf 2949 84be ee91 66bd
00000090: 4217 d23e e71d 57bf d03a 9fbd 2adf 373f
000000a0: 7cba 8c3f 4d24 2abf 9f9a 6cbf 0aa5 813e
000000b0: 56fc 6fbf c9c1 74bf 541c 833e b232 933f
000000c0: 241a 99be 976d 32be 6804 b9bf 96de 1b40
000000d0: 8c39 fabe f6d1 2f3f 4393 21bf a255 a4bc
000000e0: 5ada c9be ee08 94be 55a4 063f b87a 363e
000000f0: 7174 d03f 4747 2f3f b88d 65bd aab6 93bf
00000100: a1a6 733d 04bf a33f fbc1 38bf f8d0 f9be
00000110: bb2d c73f 3673 053f 74a4 223e 13b1 143f
00000120: 88fb 09be e512 173e a85e 813f 7a67 363e
00000130: 53c5 bcbf 9753 113f 4fba 8e3e f343 33be
00000140: df91 9f3f c190 a2bd f641 80bf 9b83 2840
00000150: 34a0 83be a101 82bf e6d9 5bbf d314 983e
00000160: 5643 3c3f 7417 dbbe 0073 d1bf 5dbb 0bbe
00000170: d632 ae3e 8af3 313f 2d65 bfbf 3fac 483f
00000180: adfc a0bf 2b29 883e 763d 9abe 453b 653d
0.76135075 0.30566588 0.1689539 -0.9478018 0.0024779818 0.8147097 1.9473282 0.15956385
-1.0958164 -0.967323 -1.5443516 -0.3639165 -0.23646581 -1.7944952 -1.130971 -0.7032943
1.0950022 0.84090775 0.66035026 0.6193233 -0.3935103 -0.10189982 1.275738 0.027719043
0.76990116 2.2898853 2.5327141 -0.55342776 -0.80185384 -1.4196912 -0.39544952 0.87373686
0.78795964 -1.9499025 -0.25837067 -0.056291513 0.4103337 -0.8403 -0.077748895 0.71824896
1.099441 -0.6646164 -0.92423433 0.25321227 -0.9374441 -0.9560819 0.2560755 1.1499846
-0.29902756 -0.17424618 -1.445447 2.4354606 -0.4887203 0.6867975 -0.6311533 -0.020060364
-0.39424402 -0.28913063 0.525945 0.17820251 1.6285535 0.68468136 -0.056043357 -1.154012
0.05948508 1.2792668 -0.7217099 -0.48792243 1.5560831 0.5212892 0.15883046 0.58082694
-0.13474858 0.14753301 1.0107012 0.1781291 -1.4747719 0.5676817 0.27876517 -0.1750639
1.2466391 -0.07937766 -1.002013 2.6330326 -0.25708163 -1.0156747 -0.8587936 0.29703388
0.73540246 -0.4279133 -1.636322 -0.13645692 0.3402316 0.69512236 -1.4952751 0.78387827
-1.257711 0.2659391 -0.30125016 0.055964727

fc2.bias f4 [10]
00000000: a881 75bd 9402 073e 587b c7bc c8b7 75be
00000010: 7fe3 f43d 5617 4abe 5c52 5d3d 58e6 86be
00000020: 386c 3c3e f6ae 99be
-0.059938103 0.13184577 -0.024350807 -0.23995888 0.11957454 -0.19735464 0.054033622 -0.26347613
0.18400657 -0.30016297

fc3.weight f4 [10, 10]
00000000: ece5 53bf 2862 433f 6ae3 09be 9c64 86bf
00000010: 93c4 bf3f 013c 283f caa5 af3e 41eb 063f
00000020: 7ac8 d93e 15e2 5dbf 22bd a6be 303f f9bf
00000030: 2210 163f 016c 9abe 6126 543e 31d9 843f
00000040: 937c 483f ceb4 b9bf 352a a1bf 7711 eabf
00000050: 8e9f 1d3e 0ca0 c53e 351b f53d 4990 b03e
00000060: 5c84 e43f 5b3e 3dbf c4d4 03c0 d961 d23c
00000070: f2e8 a7bf d8f4 bbbe 0aff b33e 13c7 5a3f
00000080: 0ac4 c63f 1376 8f3b b40c 4c3f e6ba 6dc0
00000090: 67c6 66bc ba17 493f 1c68 e03d 4445 22c0
000000a0: 1216 77bf 84ad f8be 3959 963c 5b65 40bf
000000b0: f99b 56be 2dca cd3f 53b6 963b 8514 20bf
000000c0: 4625 b63e 0b35 45bd 4a60 8fbf 6aa3 0040
000000d0: a91f 5d3e 45f0 c1be dbbb 343e 51b5 2c3f
000000e0: 0624 213f b4ac ab3e 88f7 2d40 64e9 a4bf
000000f0: 9cbd fb3c 7d6f 9cbf 26dc e43e 2a04 0b3f
00000100: 9a70 2dc0 c12c a4bf 4e4c 053f 9734 91bf
00000110: 2efa d2be 8a82 0d3f 2719 063f c7fc edbf
00000120: fb27 06bf facf 31bf 8af9 28bf 8c3c 21bf
00000130: 74c1 9ebe 83f9 b8bf 0cd1 0abf 580a 34be
00000140: d0b4 e63f 1c02 ab3f 27f7 8b3f 35ce 45bf
00000150: afc3 85bf 0f57 68bf a80d 743e 5609 bdbc
00000160: a4d3 bb3d 8e01 3d3f 1c09 68bf 092f 8dbf
00000170: cd81 233f 8b0d e13e c9e1 7c3f 1d9c bfbe
00000180: 5db4 2fbf f38c 37bf 3f91 cabe a78f 9b3e
-0.8277271 0.7632165 -0.13465658 -1.0499454 1.4981865 0.6571656 0.34306175 0.5270272
0.42535764 -0.866731 -0.32566172 -1.9472408 0.58618367 -0.30160525 0.20717765 1.0378782
0.78315085 -1.4508302 -1.2591006 -1.828658 0.15392897 0.3859867 0.1196808 0.3448508
1.7852893 -0.7392327 -2.0598612 0.025681423 -1.3117964 -0.36710238 0.35155517 0.85460013
1.5528576 0.004378089 0.79706883 -3.7145324 -0.014085389 0.7855183 0.10957357 -2.5354776
-0.9651805 -0.48569882 0.018353092 -0.75154656 -0.20957936 1.6077324 0.0045993715 -0.6253131
0.35575312 -0.04814629 -1.120126 2.009974 0.21594109 -0.37878624 0.17649786 0.67464167
0.6294559 0.335302 2.718233 -1.2883725 0.030730061 -1.2221524 0.4469921 0.5430323
-2.7099977 -1.2826158 0.52069557 -1.1344174 -0.41206497 0.5527731 0.5238213 -1.8592767
-0.52404755 -0.6945797 -0.66005766 -0.6298301 -0.31006968 -1.4451145 -0.5422523 -0.17582071
1.802393 1.3360019 1.09348 -0.7726777 -1.0450343 -0.9075784 0.23833334 -0.02307574
0.091712266 0.738305 -0.906389 -1.1029979 0.63869935 0.43955645 0.9878202 -0.37423792
-0.6863459 -0.71699446 -0.3956394 0.30383036

fc3.bias f4 [10]
00000000: 7844 253d 944b 193e 085b 51bd ab39 603e
00000010: 3c08 bbbd a8ee 2a3e e719 173e 25b4 933d
00000020: c70e 2abd ad6a f13d
0.0403485 0.14970237 -0.051112205 0.21896999 -0.0913243 0.16692603 0.14755975 0.07212094
-0.041518 0.11787925

out.weight f4 [2, 10]
00000000: c72b 753e b99d 9cbf 8f2b 47bf 6a83 a03e
00000010: cf1c 53bd 66c8 c3be b744 f1be 1c16 67bf
00000020: 398f d03f 9a5b 4a3f cecf a8bf b722 b1be
00000030: 6aff 89bf dee5 1fc0 008d 943e b5ff 2cbd
00000040: f8e5 f73e 3033 e8be e8bd 4e3f b1d3 5c3f
0.23942481 -1.2235633 -0.7780084 0.3135026 -0.051541146 -0.3823883 -0.47122738 -0.9026811
1.6293708 0.7904602 -1.3188417 -0.34596798 -1.0781071 -2.498405 0.29013824 -0.04223605
0.4841764 -0.45351553 0.80758524 0.86260515

out.bias f4 [2]
00000000: afe1 97bd d777 603e
-0.074160926 0.21920715
