Santiago_version/models/Umbumping_cars_V5.pth (torch, 39352 bytes, 8 tensors)

fc1.weight f4 [64, 8]
0.25553286 -0.23506647 -0.12477641 -0.08052018 -0.10694166 0.10709706 -0.14976802 -0.29768446
0.045468085 -0.075784154 -0.07529084 0.32204255 0.16297948 -0.23280893 0.004396633 0.24912947
0.26698 0.15305954 -0.17319475 -0.092396736 0.0812779 0.29223952 -0.33471498 0.22885469
0.06206047 -0.20022738 0.003847348 -0.13973206 0.3118996 0.36817545 0.3021116 -0.14276393
-0.20965865 0.25736907 -0.022493713 -0.27885425 0.15729035 -0.01662848 0.04711748 -0.0009068737
0.0050608246 -0.11542691 0.13905771 -0.07086359 -0.2811774 0.13661718 0.20781025 0.34674397
0.04296422 0.108752415 -0.15497805 -0.16300568 0.12090333 -0.3577412 -0.042645235 -0.12380797
0.3099754 -0.037909593 -0.25523144 -0.3106127 -0.22613059 -0.34659588 0.34957692 -0.07663152
-0.077887416 0.3423892 -0.14341488 0.30017737 0.06794333 -0.3558945 -0.05512188 -0.14864455
0.27610865 -0.14457436 -0.2144881 -0.18880454 0.020290637 -0.059155572 0.18923938 0.13172121
-0.049662817 -0.17539158 0.020418592 -0.057077248 0.042429324 0.2509055 -0.32857051 -0.048569564
-0.10087762 -0.12829708 -0.24819969 0.019993428 -0.122556925 0.046368126 -0.06717537 0.2563239
0.058248755 -0.20066631 0.20905088 0.1884212 -0.3528741 0.07255437 0.18196215 0.10851848
-0.0343442 -0.0848539 0.33151117 -0.0010927798 0.24735296 0.0009367052 -0.047172647 -0.2806864
0.22458622 -0.35525882 -0.26977128 0.2082272 -0.11405965 0.1354411 -0.19108672 0.0744385
-0.20007686 0.03567966 -0.1167485 -0.28867188 -0.07235654 -0.13809507 0.21272327 -0.32340634
0.10462297 -0.24002747 -0.1275318 -0.1371243 0.32927752 0.23116337 -0.27998468 0.3270406
-0.22894245 -0.045295585 -0.26679593 -0.29487154 -0.074175574 -0.057820644 0.13498898 -0.005553606
0.10192504 0.15787262 0.10919366 0.25660238 0.3496589 0.21301703 0.32858673 -0.22999603
0.027104773 0.259243 0.08243808 0.0771952 0.21274796 -0.18576874 0.047210664 0.090262994
0.1613962 0.050554615 -0.04735931 -0.34962738 -0.19495454 0.29813462 0.17281865 -0.33511397
-0.0010067419 -0.35217714 0.037861805 -0.3174237 0.0764226 -0.37902847 0.025430776 -0.22624959
-0.3141026 -0.33464438 0.23563471 -0.04292246 -0.01597423 -0.28623506 -0.3016926 -0.08239038
0.15887451 -0.3384131 0.25012267 -0.3121587 0.095589235 0.041678008 0.20579371 0.2116165
0.20302017 -0.24873593 0.32446554 -0.021885978 -0.22034644 -0.0966437 0.2381937 0.32226828
0.27738512 -0.30053422 0.36811537 0.16745885 -0.005225425 -0.33585835 0.1486191 0.33447978
-0.23623535 0.2669811 -0.039621644 -0.32175285 -0.28976834 0.10706256 -0.01748934 0.16168188
0.06225634 0.2784612 0.1913828 -0.14731476 0.2144293 -0.35205278 0.21376535 -0.20800789
0.27794957 0.18042544 -0.30634728 -0.18809323 0.08107682 -0.3831342 -0.10127238 -0.23932868
0.08669014 0.2247756 -0.20403259 0.07934955 0.0004631366 -0.1953683 0.14819872 -0.34240195
0.047579795 -0.057199232 0.32249025 -0.000858678 0.20565109 0.047811575 0.20294137 0.25883493
0.2302112 -0.3283322 0.35208464 0.023084449 -0.026031423 -0.083062276 -0.022542326 0.16958846
00000000: 34d5 823e 44b5 70be c68a ffbd c4e7 a4bd
00000010: 3b04 dbbd b455 db3d ca5c 19be 196a 98be
00000020: be3c 3a3d b934 9bbd 1532 9abd c3e2 a43e
00000030: 18e4 263e 7765 6ebe a111 903b cc1b 7f3e
00000040: 9ab1 883e a4bb 1c3e f759 31be 803a bdbd
00000050: 0775 a63d 6ba0 953e c35f abbe e258 6a3e
00000060: 1f33 7e3d 6808 4dbe ca23 7c3b ec15 0fbe
00000070: 4eb1 9f3e 7e81 bc3e 5fae 9a3e b530 12be
00000080: c2b0 56be e1c5 833e bc44 b8bc fcc5 8ebe
00000090: b910 213e 7338 88bc 42fe 403d 44bb 6dba
000000a0: 46d5 a53b f264 ecbd 2565 0e3e ee20 91bd
000000b0: 7cf6 8fbe 60e5 0b3e 36cc 543e 6d88 b13e
000000c0: 40fb 2f3d 96b9 de3d 91b2 1ebe f6ea 26be
000000d0: 2a9c f73d db29 b7be c5ac 2ebd 088f fdbd
000000e0: 18b5 9e3e 1747 1bbd b2ad 82be a108 9fbe
000000f0: c78e 67be 0475 b1be bffb b23e fdf0 9cbd
00000100: 7083 9fbd a34d af3e 5adb 12be d9b0 993e
00000110: df25 8b3d ce37 b6be 7bc7 61bd 4736 18be
00000120: 1d5e 8d3e 4d0b 14be c5a2 5bbe fa55 41be
00000130: 8d38 a63c 1d4d 72bd f8c7 413e ede1 063e
00000140: 3d6b 4bbd da99 33be e444 a73c d5c9 69bd
00000150: 5fca 2d3d b076 803e 653a a8be e1f0 46bd
00000160: ed98 cebd 4f60 03be 0f28 7ebe 42c9 a33c
00000170: 20ff fabd 81ec 3d3d 3e93 89bd e33c 833e
00000180: 3f96 6e3d 787b 4dbe 6f11 563e 7df1 403e
00000190: eaab b4be 6397 943d 4954 3a3e f03e de3d
000001a0: 81ac 0cbd e2c7 adbd d5bb a93e 9b3b 8fba
000001b0: 184a 7d3e 398d 753a 1b38 41bd 21b6 8fbe
000001c0: eef9 653e 7ce4 b5be 761f 8abe 8339 553e
000001d0: 1b98 e9bd 12b1 0a3e 3dac 43be 3673 983d
000001e0: f3e0 4cbe d624 123d d619 efbd cdcc 93be
000001f0: aa2f 94bd cb68 0dbe 21d4 593e 8495 a5be
00000200: 9144 d63d c3c9 75be b297 02be 506a 0cbe
00000210: 1097 a83e 17b6 6c3e 275a 8fbe de71 a73e
00000220: e46f 6abe dd87 39bd 7a99 88be 67f9 96be
00000230: 5de9 97bd 57d5 6cbd 8d3a 0a3e 06fb b5bb
00000240: 13be d03d 5ca9 213e eda0 df3d 6361 833e
00000250: 7e06 b33e 2321 5a3e 853c a83e 1484 6bbe
00000260: d40a de3c 80bb 843e 4cd5 a83d 8418 9e3d
00000270: 9ada 593e 293a 3ebe f85f 413d cedb b83d
00000280: 0c45 253e 5b12 4f3d d6fb 41bd 5c02 b3be
00000290: 2aa2 47be 1aa5 983e 5ff7 303e 0f94 abbe
000002a0: a7f4 83ba 9050 b4be fb14 1b3d 5c85 a2be
000002b0: 7483 9c3d 0510 c2be 3454 d03c f9ad 67be
000002c0: 0ed2 a0be 8256 abbe 3a4a 713e 76cf 2fbd
000002d0: 63dc 82bc 678d 92be 7477 9abe 4abc a8bd
000002e0: 00b0 223e 7b44 adbe 1410 803e 44d3 9fbe
000002f0: 4ac4 c33d 8fb6 2a3d 96bb 523e ffb1 583e
00000300: 85e4 4f3e a2b4 7ebe 5920 a63e 394a b3bc
00000310: 7fa2 61be 22ed c5bd 0de9 733e 5900 a53e
00000320: 6c05 8e3e 9fdf 99be 9e79 bc3e 557a 2b3e
00000330: 0b3a abbb a0f5 abbe 9b2f 183e ef40 ab3e
00000340: aee7 71be bfb1 883e 4e4a 22bd cabc a4be
00000350: 845c 94be 9e43 db3d ce45 8fbc ef8f 253e
00000360: 8100 7f3d 7792 8e3e daf9 433e aed9 16be
00000370: 5b93 5b3e 4340 b4be 4ee5 5a3e 0500 55be
00000380: 684f 8e3e 72c1 383e 8dd9 9cbe 839b 40be
00000390: 9b0b a63d 2a2a c4be e567 cfbd 9412 75be
000003a0: 9a8a b13d 932b 663e ebed 50be 0482 a23d
000003b0: 24d1 f239 a10e 48be 68c1 173e 4f4f afbe
000003c0: 08e3 423d be49 6abd 711d a53e e818 61ba
000003d0: 3396 523e 12d6 433d ddcf 4f3e 0386 843e
000003e0: 7cbc 6b3e 281b a8be 7044 b43e 991b bd3c
000003f0: da3f d5bc 8e1c aabd afaa b8bc 99a8 2d3e

fc1.bias f4 [64]
0.0025826704 0.25574222 0.30154777 -0.08594336 0.22720401 -0.06516595 -0.053020116 0.153889
-0.09803807 -0.3501302 -0.25224993 -0.03750429 0.23544398 0.07983683 -0.1927363 0.30952555
0.21166207 0.037789986 0.13235293 0.31234097 0.18500812 0.2980444 0.10356327 -0.076615445
-0.22684336 0.008647566 -0.021337723 -0.2702396 -0.022821933 0.21087193 0.22583236 0.17965241
0.15340818 0.19038172 0.19650495 -0.049368415 0.065025106 0.015643481 0.08017836 -0.17991053
-0.23924197 -0.24806696 -0.3136458 0.24964952 -0.0888625 0.040202636 -0.23354046 0.09778708
0.2777969 -0.16774683 -0.3750153 0.117514245 0.08524989 -0.15916757 -0.054780804 -0.15412883
-0.012796881 0.31528625 0.25573152 0.06920008 0.31994683 0.3595702 0.09388998 -0.29289395
00000000: 0542 293b a5f0 823e 7864 9a3e 1303 b0bd
00000010: 2ba8 683e ba75 85bd 9f2b 59bd 1495 1d3e
00000020: 2fc8 c8bd 4444 b3be e726 81be 199e 19bd
00000030: 3a18 713e 7e81 a33d aa5c 45be 227a 9e3e
00000040: f1bd 583e acc9 1a3d 8787 073e 28eb 9f3e
00000050: c572 3d3e 4799 983e fb18 d43d 8fe8 9cbd
00000060: a049 68be 85ae 0d3c 73cc aebc d85c 8abe
00000070: 10f5 babc d0ee 573e 9940 673e cdf6 373e
00000080: 0917 1d3e 6df3 423e 9838 493e 8936 4abd
00000090: e22b 853d c226 803c 8d34 a43d 773a 38be
000000a0: d9fb 74be 4405 7ebe 2f96 a0be 20a4 7f3e
000000b0: 8bfd b5bd 85ab 243d 3b25 6fbe 9844 c83d
000000c0: 653b 8e3e d3c5 2bbe 0102 c0be 4fab f03d
000000d0: 7f97 ae3d d3fc 22be d661 60bd f3d3 1dbe
000000e0: 02aa 51bc 336d a13e 3eef 823e c6b8 8d3d
000000f0: 12d0 a33e 9619 b83e 6449 c03d 32f6 95be

fc2.weight f4 [64, 64]
-0.01106022 -0.016709855 -0.13320655 0.003976487 0.00030146178 -0.011856973 0.08043327 0.05920122
0.044642806 0.00894664 0.09329546 0.12691 0.08891302 -0.025341561 -0.026332235 -0.034973055
-0.07774127 -0.062228575 0.09260909 -0.0009569225 0.030385723 0.07568852 -0.023400947 -0.089401044
-0.09434776 0.06411847 -0.06391487 0.10187056 0.07156167 -0.05775866 0.050660003 -0.007673872
0.061325666 0.06650376 -0.05652638 0.046575867 -0.05649818 0.04069971 0.11459228 0.03773935
-0.035062693 -0.035621274 -0.013073558 0.0821505 -0.0070755775 -0.03298096 0.09247273 -0.012035813
-0.09547812 -0.017413469 -0.108953744 -0.040418368 0.095859036 -0.04580381 -0.042223867 -0.09132552
-0.08616274 -0.088282816 -0.010250137 -0.11123664 -0.00843126 -0.10366292 0.09451205 0.09045271
0.07822429 -0.097652964 -0.12042317 0.05337709 -0.04575692 0.08732755 -0.069530755 0.08439159
0.04841302 -0.056409884 0.020136436 0.00024212891 0.042996168 -0.018560395 0.03226528 0.0060236645
-0.03000411 0.026697885 -0.05030859 -0.017445607 -0.00056178763 0.13456509 0.059585653 -0.044644833
0.02275917 0.0067082113 -0.07532774 -0.123756856 0.02339024 -0.045698002 -0.07615164 0.10995403
-0.0033808616 -0.123606116 0.051885076 0.028529728 -0.020825284 -0.11717948 0.11956275 -0.069713436
-0.037496407 -0.08764469 0.13146482 0.058407877 -0.06447155 -0.04790213 0.07826991 0.10855156
-0.061615262 -0.10489131 0.009461833 -0.14476314 0.10607488 0.09433617 0.07986982 0.027809432
0.010326621 -0.0022846742 -0.11747266 0.008846505 0.13433775 0.042552054 0.03881534 0.017453948
-0.075141825 -0.11387437 -0.027511261 0.030566407 -0.072460726 -0.022173494 0.10347918 -0.104288384
-0.025108516 -0.0381326 -0.006614403 -0.029225579 -0.015828216 0.102390155 0.07672378 -0.0794316
0.08078008 0.096435614 -0.14177623 -0.049021002 -0.025907049 -0.072094075 0.1166656 -0.101592466
0.03546776 -0.08943135 -0.11209811 -0.11328187 -0.02435559 -0.13434154 0.02730316 -0.05700693
-0.083490595 -0.06764675 -0.026074255 -0.085768655 -0.080089636 -0.11153861 0.063329756 -0.12434363
-0.0027746514 -0.06687943 0.0046604155 -0.01718537 0.10258194 -0.082835525 -0.0009269383 -0.04734356
0.042412747 -0.030139904 -0.1307411 -0.027952367 0.120294906 0.016490709 0.0058367723 -0.08241946
0.111935675 -0.043478854 -0.08359138 -0.0015354767 0.11262434 0.097331755 0.09006382 -0.0540148
0.004754381 0.08885972 -0.09490487 -0.06269783 -0.117690556 0.10878888 -0.02364934 -0.111551315
0.08823424 -0.12232668 0.09201072 0.09921232 0.110659026 0.04240828 -0.04167421 -0.093757495
0.046800196 0.059492856 0.05213269 0.084068045 -0.03984191 -0.11338803 0.034575656 0.010112664
0.004022472 -0.05050892 0.07048686 -0.11456581 -0.101610966 -0.076977566 0.03356531 0.02865424
0.09010398 -0.016862674 0.08153794 0.08109421 0.028634101 0.034796935 0.08325111 0.02200208
-0.09143759 0.039336443 -0.0076472526 0.04047686 0.039571974 -0.09342352 -0.033482354 -0.08642159
-0.07222207 -0.08627414 -0.0923806 -0.15648963 0.083318785 0.06463487 0.09418175 0.13400817
0.0792266 -0.08692954 -0.005818168 0.07032969 0.05463595 -0.08323067 -0.059067547 0.03523642
00000000: ed35 35bc 1be3 88bc 4c67 08be 314d 823b
00000010: 840d 9e39 c043 42bc 33ba a43d fa7c 723d
00000020: 60db 363d ee94 123c b111 bf3d b2f4 013e
00000030: 0818 b63d 1b99 cfbc b3b6 d7bc e83f 0fbd
00000040: d136 9fbd 64e3 7ebd d6a9 bd3d fbd9 7aba
00000050: 7beb f83c 9502 9b3d 58b3 bfbc e517 b7bd
00000060: 6639 c1bd 8b50 833d cde5 82bd 83a1 d03d
00000070: ed8e 923d 5894 6cbd dd80 4f3d 1b75 fbbb
00000080: 9f30 7b3d 2033 883d 3588 67bd 56c6 3e3d
00000090: a36a 67bd bdb4 263d 5baf ea3d 9494 1a3d
000000a0: e69d 0fbd 9de7 11bd 7a32 56bc 853e a83d
000000b0: 3fda e7bb 0b17 07bd 5862 bd3d dc31 45bc
000000c0: 088a c3bd b1a6 8ebc 2423 dfbd bb8d 25bd
000000d0: be51 c43d c79c 3bbd eff2 2cbd e008 bbbd
000000e0: 1776 b0bd 9fcd b4bd 31f0 27bc 09d0 e3bd
000000f0: 4423 0abc 3a4d d4bd 898f c13d 453f b93d
00000100: 0e34 a03d 47fe c7bd 6ca0 f6bd efa1 5a3d
00000110: 9c6b 3bbd c9d8 b23d 2466 8ebd 7fd5 ac3d
00000120: bb4c 463d 0d0e 67bd 2bf5 a43c fce3 7d39
00000130: c01c 303d f80b 98bc 9928 043d 2962 c53b
00000140: 2ecb f5bc 86b5 da3c 6110 4ebd 17ea 8ebc
00000150: ee44 13ba 6ecb 093e 1610 743d 80dd 36bd
00000160: 7071 ba3c 8ed0 db3b 6e45 9abd 3c74 fdbd
00000170: e39c bf3c d42d 3bbd 64f5 9bbd 942f e13d
00000180: 7291 5dbb 3425 fdbd 7285 543d 2db7 e93c
00000190: c999 aabc ccfb efbd 51dd f43d ebc5 8ebd
000001a0: d595 19bd 0f7f b3bd b79e 063e 193d 6f3d
000001b0: a909 84bd 0635 44bd f94b a03d 4850 de3d
000001c0: 4960 7cbd 41d1 d6bd ce05 1b3c ca3c 14be
000001d0: c93d d93d 5233 c13d ca92 a33d 9bd0 e33c
000001e0: fd30 293c 79ba 15bb 8295 f0bd eef0 103c
000001f0: d68f 093e 104b 2e3d d5fc 1e3d 95fb 8e3c
00000200: f5e3 99bd f736 e9bd 4c5f e1bc 6766 fa3c
00000210: 4a66 94bd 30a5 b5bc e4ec d33d 2695 d5bd
00000220: 60b0 cdbc ee30 1cbd a2bd d8bb 7b6a efbc
00000230: 2daa 81bc eeb1 d13d 5b21 9d3d 09ad a2bd
00000240: 0770 a53d 0980 c53d ca2d 11be 3fca 48bd
00000250: 053b d4bc 0fa6 93bd 60ee ee3d b60f d0bd
00000260: a446 113d c927 b7bd b293 e5bd 5300 e8bd
00000270: 6085 c7bc d490 09be e0aa df3c 1980 69bd
00000280: 1efd aabd 618a 8abd ad99 d5bc 7aa7 afbd
00000290: 0906 a4bd 5b6e e4bd 08b3 813d e0a7 febd
000002a0: edd6 35bb 15f8 88bd 66b6 983b 55c8 8cbc
000002b0: 7b16 d23d aca5 a9bd c7fd 72ba 52eb 41bd
000002c0: fdb8 2d3d f6e7 f6bc ffe0 05be 5dfc e4bc
000002d0: 2d5d f63d 8617 873c 6542 bf3b 89cb a8bd
000002e0: 883e e53d e216 32bd f531 abbd 0c42 c9ba
000002f0: 97a7 e63d df55 c73d 6173 b83d 9f3e 5dbd
00000300: a3ca 9b3b 16fc b53d 7c5d c2bd b867 80bd
00000310: bf07 f1bd b4cc de3d 43bc c1bc 0475 e4bd
00000320: 27b4 b43d 6986 fabd 1e70 bc3d d42f cb3d
00000330: 33a1 e23d 4eb4 2d3d 94b2 2abd ee03 c0bd
00000340: 90b1 3f3d c8ae 733d 1689 553d de2b ac3d
00000350: 4531 23bd fc37 e8bd 349f 0d3d 96af 253c
00000360: f1ce 833b 71e2 4ebd 6a5b 903d 7ba1 eabd
00000370: 6919 d0bd 6aa6 9dbd c77b 093d 4cbc ea3c
00000380: 6f88 b83d 9723 8abc 5dfd a63d b914 a63d
00000390: 1092 ea3c 3b87 0e3d 8f7f aa3d b53d b43c
000003a0: a243 bbbd 401f 213d ce95 fabb 10cb 253d
000003b0: 3916 223d d554 bfbd cb24 09bd cdfd b0bd
000003c0: 2ae9 93bd 7fb0 b0bd 0a32 bdbd d13e 20be
000003d0: 0aa3 aa3d 495f 843d 5de2 c03d 7039 093e
000003e0: 8e41 a23d 1d08 b2bd 55a6 bebb 0309 903d
000003f0: f2c9 5f3d d774 aabd d0f0 71bd 1054 103d

fc2.bias f4 [64]
-0.013607918 -0.14046663 -0.04046197 -0.09958861 0.06537649 0.013958736 -0.02978051 -0.12451682
-0.05843233 0.0036371972 -0.06755902 -0.0056020147 0.08621865 -0.092876546 -0.054411665 0.10916089
-0.055014014 0.007912724 -0.121467605 -0.094195984 -0.054008245 0.090238474 -0.04159349 0.050272662
-0.13164523 -0.013579762 -0.0004077316 0.017521424 -0.021379055 -0.035882816 -0.03565761 0.09318283
-0.104986705 -0.09852878 0.12143295 0.035025258 0.009282288 0.03187807 0.05371105 -0.088414766
0.03496077 0.06557089 -0.124984875 -0.09286748 0.06320978 0.038556788 -0.07258559 0.06407519
-0.017412607 -0.045252588 0.030833237 0.098727666 -0.03676309 -0.11185872 -0.0051451917 -0.062243268
-0.11188685 -0.13142155 -0.024811074 0.09390488 -0.0012549201 0.0210002 0.11304986 0.12468739
00000000: bff3 5ebc 7cd6 0fbe 73bb 25bd 1df5 cbbd
00000010: 1ce4 853d 2fb3 643c 42f6 f3bc ad02 ffbd
00000020: bd56 6fbd 0b5e 6e3b 625c 8abd 1b91 b7bb
00000030: 6793 b03d 0f36 bebd c4de 5ebd bf8f df3d
00000040: 6056 61bd 5fa4 013c 02c4 f8bd d3e9 c0bd
00000050: c037 5dbd f3ce b83d ef5d 2abd b5ea 4d3d
00000060: 02ce 06be a67d 5ebc cfc4 d5b9 1789 8f3c
00000070: 2123 afbc dcf9 12bd b70d 12bd a4d6 be3d
00000080: 4503 d7bd 75c9 c9bd d7b1 f83d a576 0f3d
00000090: bd14 183c 9492 023d 1e00 5c3d cd12 b5bd
000000a0: 0633 0f3d 084a 863d 12f8 ffbd 4e31 bebd
000000b0: 2174 813d b9ed 1d3d c1a7 94bd da39 833d
000000c0: e2a4 8ebc c75a 39bd fc95 fc3c bb31 ca3d
000000d0: e594 16bd 2f16 e5bd ff98 a8bb ccf2 7ebd
000000e0: ef24 e5bd 5f93 06be 9840 cbbc 3451 c03d
000000f0: 227c a4ba 9d08 ac3c af86 e73d 1a5c ff3d

fc3.weight f4 [64, 64]
-0.02681301 0.06131367 -0.12969394 0.056404788 0.010037896 -0.12688844 0.085628316 0.010632399
-0.12009579 -0.04341 -0.0544657 0.041553702 -0.067957014 0.019622508 -0.06146354 -0.057858355
-0.011510416 -0.04439082 -0.06759388 -0.07084691 0.05329802 0.07698474 -0.12409831 -0.0060447226
-0.08098878 0.031731267 0.10761311 0.012401148 0.040126476 0.07079796 -0.012870022 -0.046711996
0.018926438 -0.06358156 -0.0013534506 -0.10318628 -0.1154445 -0.049565315 0.0556209 -0.055338938
-0.0061729685 0.08065698 -0.050080728 -0.0010010275 -0.052966833 0.05926603 -0.06285263 0.056785338
-0.08194767 0.07275366 -0.034160633 0.034370676 0.060707413 -0.07976424 -0.018190268 0.07200866
-0.017209826 0.10074854 -0.08664154 0.017253472 0.03287555 0.05493252 -0.067860015 -0.08719609
-0.011275427 0.04281831 -0.06280035 -0.086112276 0.053123873 -0.045403577 -0.039239522 -0.06668286
0.11423205 0.05000768 0.056512315 -0.11577284 0.04799039 0.10556379 -0.039978903 -0.018162262
-0.06352182 -0.039797414 0.0095774215 0.020834193 0.09002905 0.060363453 -0.010655131 0.017919613
0.09584073 0.109544896 -0.08233792 -0.10089059 -0.03769443 -0.07854384 0.07763301 -0.046484843
0.063275196 -0.0009437205 -0.07801859 -0.07977615 -0.11155175 0.06342871 -0.12697755 -0.07184319
-0.10876834 0.122364864 -0.020267906 -0.016626215 -0.10684915 -0.09051742 0.042257816 -0.08166591
0.045035355 -0.036277883 0.007419911 -0.010260696 -0.12180749 0.03674529 0.02617457 0.058467492
-0.012778731 -0.0017106861 -0.12130127 0.10859265 -0.0033541934 0.040656097 -0.14413437 0.0317636
0.025997661 0.0867808 -0.120455325 0.09107796 0.02219801 0.13442054 0.10130206 -0.0841602
0.012996749 -0.056974016 0.04371058 -0.036540683 0.117922686 -0.07031146 -0.085186 0.08153704
-0.015656576 0.05812041 0.12318993 -0.050868176 0.12251357 0.014347301 0.075297974 -0.022834934
0.0042300364 0.08297394 -0.034810405 -0.07703094 0.06087247 0.0012067911 0.077541895 -0.089125715
-0.07033933 -0.021957222 -0.1239898 0.035986535 0.032184586 -0.08638666 0.04230294 -0.0660164
-0.08357619 -0.05085327 -0.049966507 -0.12093473 0.07342255 -0.061342925 0.09836948 -0.06649846
0.12516087 0.00111678 0.11230547 -0.106607966 -0.06565617 0.030139172 0.12832816 -0.09511102
0.0864521 0.115578584 0.07512775 -0.04839444 -0.06582733 0.09121118 0.0016027958 0.060131382
0.00083732087 -0.11542267 -0.048511703 0.08135966 0.04698367 0.061557632 -0.12188299 -0.051752027
-0.12412323 0.08371264 -0.026450684 -0.011643332 -0.08181623 0.101408295 0.05674819 0.0637033
0.061250947 -0.07155303 0.0959711 0.104227975 0.041457858 0.047469243 0.029389052 -0.06216639
0.066417 -0.030670384 0.055345822 0.08506537 -0.0091155805 0.06865248 -0.05206108 0.037329637
-0.099045895 0.041211136 -0.08785496 -0.09365128 0.007282625 0.008873786 -0.025692875 -0.017901758
-0.045093354 0.115627095 -0.06512149 0.103807 0.035381004 0.011927795 0.064876534 -0.06279053
0.032308247 -0.09596004 -0.034794804 0.07525474 -0.13178512 -0.13099925 0.052062996 0.05341829
0.092861 0.041702256 0.045187116 0.092242375 -0.03084884 0.0039856215 -0.040481333 0.08783509
00000000: f5a6 dbbc 0b24 7b3d 7dce 04be b508 673d
00000010: fd75 243c 0bef 01be e65d af3d 8333 2e3c
00000020: c8f4 f5bd afce 31bd 6d17 5fbd 3734 2a3d
00000030: 0c2d 8bbd 62bf a03c 31c1 7bbd e2fc 6cbd
00000040: 2f96 3cbc 26d3 35bd a96e 8abd 2f18 91bd
00000050: 064f 5a3d 2daa 9d3d 4127 febd cf12 c6bb
00000060: 72dd a5bd a5f8 013d 4364 dc3d 2f2e 4b3c
00000070: a95b 243d 85fe 903d c9dc 52bc 1455 3fbd
00000080: 9e0b 9b3c 0d37 82bd 4466 b1ba 5453 d3bd
00000090: 2b6e ecbd 0005 4bbd bed2 633d 15ab 62bd
000000a0: 9d46 cabb 7d2f a53d 7321 4dbd e934 83ba
000000b0: c0f3 58bd f0c0 723d e1b8 80bd be97 683d
000000c0: 2ed4 a7bd dfff 943d 05ec 0bbd 44c8 0c3d
000000d0: 56a8 783d 6f5b a3bd c203 95bc 4779 933d
000000e0: 9ffb 8cbc 4055 ce3d 1f71 b1bd 2757 8d3c
000000f0: 83a8 063d ec00 613d 31fa 8abd dd93 b2bd
00000100: 92bc 38bc 4162 2f3d 789d 80bd a25b b0bd
00000110: 6b98 593d 1af9 39bd 9fb9 20bd 0691 88bd
00000120: 7ef2 e93d dad4 4c3d 7579 673d 501a edbd
00000130: 9291 443d d431 d83d ebc0 23bd 06c9 94bc
00000140: ba17 82bd 9d02 23bd 9eea 1c3c 78ac aa3c
00000150: 2761 b83d ab3f 773d dc92 2ebc 27cc 923c
00000160: 2548 c43d 1359 e03d c9a0 a8bd ba9f cebd
00000170: 7a65 1abd 98db a0bd 0efe 9e3d e466 3ebd
00000180: 6d96 813d 0364 77ba 36c8 9fbd ae61 a3bd
00000190: 3e75 e4bd e9e6 813d 6706 02be 8622 93bd
000001a0: efc1 debd 6e9a fa3d e108 a6bc b333 88bc
000001b0: bad3 dabd 3261 b9bd 8816 2d3d 7540 a7bd
000001c0: fe76 383d 1e98 14bd ba22 f33b 7a1c 28bc
000001d0: 3576 f9bd 3b82 163d 0d6c d63c 9c7b 6f3d
000001e0: e25d 51bc 1a39 e0ba cd6c f8bd d365 de3d
000001f0: 07d2 5bbb 0287 263d f697 13be 8c1a 023d
00000200: 0cf9 d43c 22ba b13d 48b1 f6bd 1587 ba3d
00000210: 9ad8 b53c 8aa5 093e 7477 cf3d 2f5c acbd
00000220: 51f0 543c 965d 69bd dd09 333d afab 15bd
00000230: 7381 f13d 74ff 8fbd ff75 aebd e4fc a63d
00000240: 3842 80bc ab0f 6e3d 014b fc3d 265b 50bd
00000250: 65e8 fa3d f110 6b3c d335 9a3d 5410 bbbc
00000260: 1e9c 8a3b 3eee a93d 5b95 0ebd 66c2 9dbd
00000270: 6955 793d 312d 9e3a 49ce 9e3d 8b87 b6bd
00000280: 110e 90bd a2df b3bc 5dee fdbd 9e66 133d
00000290: fcd3 033d 7deb b0bd d945 2d3d 9b33 87bd
000002a0: fe29 abbd 854b 50bd aea9 4cbd a1ac f7bd
000002b0: 905e 963d b842 7bbd f075 c93d 5830 88bd
000002c0: 2c2a 003e eb60 923a 6900 e63d 4755 dabd
000002d0: be76 86bd 6de6 f63c 7568 033e 91c9 c2bd
000002e0: cc0d b13d 77b4 ec3d 94dc 993d 4039 46bd
000002f0: 7bd0 86bd edcc ba3d e714 d23a 534c 763d
00000300: a77f 5b3a b962 ecbd 35b4 46bd e59f a63d
00000310: f371 403d db23 7c3d ca9d f9bd eff9 53bd
00000320: 5234 febd 8871 ab3d 1baf d8bc adc3 3ebc
00000330: 458f a7bd 27af cf3d ca70 683d e076 823d
00000340: 46e2 7a3d 658a 92bd 7f8c c43d 7a75 d53d
00000350: b7cf 293d 1c6f 423d 4fc1 f03c 2fa2 7ebd
00000360: a305 883d 7540 fbbc 4db2 623d c136 ae3d
00000370: 8459 15bc ac99 8c3d 003e 55bd f6e6 183d
00000380: 93d8 cabd 02cd 283d 4ded b3bd 3ecc bfbd
00000390: 16a3 ee3b 5b63 113c dd79 d2bc b5a6 92bc
000003a0: cfb3 38bd e6cd ec3d 6a5e 85bd c498 d43d
000003b0: aceb 103d cc6c 433c fddd 843d 5298 80bd
000003c0: a755 043d b386 c4bd ff84 0ebd 281f 9a3d
000003d0: aef2 06be ab24 06be 0240 553d 23cd 5a3d
000003e0: e82d be3d fccf 2a3d 2016 393d 92e9 bc3d
000003f0: b5b6 fcbc d199 823b c1cf 25bd e2e2 b33d

fc3.bias f4 [64]
0.12046355 -0.097969495 -0.06179493 0.025217304 -0.05125832 -0.09199973 0.0044671623 0.1308512
0.0065577594 0.052869182 0.09630375 0.07215959 -0.10422353 0.06341875 -0.06972446 -0.018205939
-0.11376478 -0.096293606 0.04717163 0.10122083 0.0011391948 0.047752757 -0.06262004 -0.01967358
-0.034602523 -0.024538558 0.06294737 -0.0066930735 0.05178362 0.016033739 -0.07667936 0.044376604
-0.093274355 0.092553645 -0.13047199 -0.024754444 -0.045423757 0.093750454 -0.047976293 -0.09078428
-0.077055596 -0.06142801 -0.009636059 -0.077881396 -0.04081696 0.109520674 -0.004583748 0.017541006
-0.027331077 0.008431227 -0.04811438 -0.00543875 -0.014717555 -0.05331568 0.08445185 -0.06110705
0.00035645787 0.115773335 -0.12077842 0.09687842 0.05221799 0.1056338 0.048357837 -0.0021381911
00000000: 98b5 f63d 3ba4 c8bd ae1c 7dbd 8594 ce3c
00000010: 3ff4 51bd 5b6a bcbd 4661 923b dbfd 053e
00000020: 79e2 d63b 5b8d 583d e73a c53d 68c8 933d
00000030: 2573 d5bd b1e1 813d b3cb 8ebd 9f24 95bc
00000040: 82fd e8bd 9535 c5bd 0a37 413d de4c cf3d
00000050: 0951 953a 6598 433d ef3e 80bd 7d2a a1bc
00000060: 60bb 0dbd 1605 c9bc 8dea 803d 9251 dbbb
00000070: 101b 543d 3059 833c 110a 9dbd 3ec4 353d
00000080: a006 bfbd c48c bd3d 739a 05be d5c9 cabc
00000090: 430e 3abd 3d00 c03d ca82 44bd 1ced b9bd
000000a0: 53cf 9dbd f09b 7bbd 90e0 1dbc 4880 9fbd
000000b0: af2f 27bd 604c e03d 4433 96bb 28b2 8f3c
000000c0: 6ce5 dfbc 2123 0a3c 9613 45bd 8b37 b2bb
000000d0: e621 71bc 8b61 5abd 17f5 ac3d 634b 7abd
000000e0: f7e2 ba39 921a ed3d ad5a f7bd 3168 c63d
000000f0: 88e2 553d 8956 d83d de12 463d e520 0cbb

out.weight f4 [2, 64]
-0.027344508 0.00872439 0.08819823 -0.104827434 -0.08855672 0.01136881 -0.05822219 -0.09251779
0.06974875 0.08721141 0.09843833 0.09943162 0.073562816 -0.061374452 -0.013242109 0.13787234
-0.033984013 -0.17479032 -0.060077272 0.017697625 -0.063906506 0.036302213 0.07887983 0.034845244
0.08169743 0.04742814 0.0716442 0.049460262 0.02827754 0.022927077 0.08349184 0.13319293
-0.044736736 0.018335184 0.06635218 0.06925684 -0.112153165 0.09034985 -0.030250834 0.20603363
0.05088289 0.15513006 0.12959158 -0.08299377 0.06835543 -0.07599987 0.09228649 -0.14904164
-0.04082691 -0.06878052 0.02840048 -0.024377653 -0.12218257 0.050900575 -0.07735667 0.018879542
0.04149016 -0.1533115 -0.004996677 -0.11582728 0.08129281 -0.093845 -0.07480691 -0.042649914
0.09799998 -0.107476026 0.053192366 0.09048029 -0.10136376 -0.050488945 0.10380321 0.05506674
0.09583605 0.10248528 0.0039996626 -0.082711235 0.099935874 0.12077183 0.07272837 -0.09754032
0.093316376 -0.07172464 -0.0496162 0.105357386 0.07643068 0.006811443 -0.033710204 0.08598343
-0.053248078 -0.046158798 -0.014437991 -0.061927415 0.03338603 -0.036833912 0.019548485 0.10564764
0.014750127 0.09450987 -0.065284 0.029997196 0.025966313 -0.055207957 0.039279196 0.086942405
0.12241244 -0.013104147 0.043143883 -0.07589656 0.08800669 -0.09916912 0.10164532 -0.0016997402
-0.032886267 -0.08486218 -0.0979976 -0.026228264 0.09428467 0.028377512 -0.03396408 0.03974808
-0.10488402 -0.06085564 -0.028865715 0.056571696 0.068693295 -0.07951975 -0.0028025315 -0.008415149
00000000: 9701 e0bc bef0 0e3c 46a1 b43d c4af d6bd
00000010: 3a5d b5bd 3f44 3a3c 647a 6ebd f879 bdbd
00000020: 6fd8 8e3d e59b b23d 099a c93d cea2 cb3d
00000030: 1aa8 963d c763 7bbd 6ef5 58bc 682e 0d3e
00000040: d232 0bbd 3cfc 32be 9613 76bd 9cfa 903c
00000050: 6ae1 82bd a1b1 143d c08b a13d e3b9 0e3d
00000060: fb50 a73d 0244 423d 32ba 923d d896 4a3d
00000070: 4da6 e73c 91d1 bb3c c5fd aa3d ba63 083e
00000080: de3d 37bd ab33 963c a7e3 873d 88d6 8d3d
00000090: 8fb0 e5bd 5809 b93d 99d0 f7bc 7bfa 523e
000000a0: 946a 503d 6ada 1e3e a8b3 043e a3f8 a9bd
000000b0: effd 8b3d d2a5 9bbd b300 bd3d 5f9e 18be
000000c0: 1e3a 27bd cddc 8cbd 20a8 e83c a5b3 c7bc
000000d0: db3a fabd 1f7d 503d 2c6d 9ebd 45a9 9a3c
000000e0: 96f1 293d b1fd 1cbe 2abb a3bb da36 edbd
000000f0: d87c a63d cf31 c0bd 5d34 99bd adb1 2ebd
00000100: 37b4 c83d 641c dcbd 3de0 593d bb4d b93d
00000110: ce97 cfbd 7fcd 4ebd c796 d43d a98d 613d
00000120: b145 c43d cde3 d13d 9a0f 833b 8264 a9bd
00000130: 2eab cc3d 3957 f73d 9df2 943d 38c3 c7bd
00000140: a81c bf3d 5ee4 92bd 5b3a 4bbd 9dc5 d73d
00000150: b087 9c3d 8632 df3b b613 0abd 1518 b03d
00000160: a81a 5abd 0211 3dbd 538d 6cbc 9aa7 7dbd
00000170: cabf 083d 28df 16bd 2524 a03c ca5d d83d
00000180: 84aa 713c 648e c13d 9eb3 85bd aebc f53c
00000190: 4eb7 d43c bd21 62bd 39e3 203d dc0e b23d
000001a0: 60b3 fa3d c7b2 56bc a4b7 303d a86f 9bbd
000001b0: da3c b43d 2e19 cbbd 6c2b d03d d1c9 deba
000001c0: c0b3 06bd 39cc adbd f7b2 c8bd a8dc d6bc
000001d0: 5218 c13d f577 e83c eb1d 0bbd e2ce 223d
000001e0: 6fcd d6bd c343 79bd cb77 ecbc b9b7 673d
000001f0: 12af 8c3d 40db a2bd adaa 37bb b1df 09bc

out.bias f4 [2]
0.051989313 0.020764388
00000000: bff2 543d 141a aa3c
