Santiago_version/models/Umbumping_cars_V4.pth (torch, 38840 bytes, 8 tensors)

fc1.weight f4 [64, 6]
000000 ff 97 7f 3e 4e 8b 03 3e 27 0e 98 be e4 77 cb bd
       0.24960326 0.1284611 -0.29698297 -0.09934977
000010 ed 7b fb 3e 7d 82 94 bf 0b ff 27 3f 81 a2 3f bd
       0.49117985 -1.1602322 0.6562354 -0.046785835
000020 43 0f c5 3e 6f 8b b7 be 5f 29 05 bf 2e 18 83 bf
       0.38488206 -0.35848567 -0.5201625 -1.0241754
000030 54 27 5a bd b7 bb 54 3e 96 f3 d6 3c f7 c3 d0 bd
       -0.053260162 0.20774733 0.026239198 -0.10193627
000040 9c 72 03 3e 82 9c e1 3d 7d 7d 6e be 92 bd 01 3e
       0.12836689 0.110161796 -0.23290057 0.12669972
000050 d3 33 51 be 9d 8d 96 be 89 1d 82 3f 85 83 f3 3d
       -0.20429926 -0.29404917 1.0165263 0.1189032
000060 6d 0e df bd db f1 09 bf a1 dd 24 bd ad 7a c7 3e
       -0.108914234 -0.5388467 -0.040250424 0.38960782
000070 a9 22 2c bf cb 77 87 3e a8 da ad 3e a1 94 11 be
       -0.6724039 0.26458582 0.33955884 -0.14216854
000080 6c 06 82 bc 91 3e 5e be 01 a7 74 3f 0b 6b 9a 3f
       -0.015872203 -0.21703555 0.9556733 1.2063917
000090 f1 24 bc be 41 c4 75 bd 40 ce 7d 3d ca ec 6b be
       -0.36746934 -0.060001615 0.061964273 -0.23039547
0000a0 98 8b 6b 3f 4b a3 77 be f8 7e 9f 3e 93 fd 9e 3b
       0.9200988 -0.24183385 0.31151557 0.0048520057
0000b0 70 5d 49 be e3 96 c8 3e b9 7e ce 3e 17 b6 d4 bf
       -0.1966455 0.39177617 0.40331057 -1.661807
0000c0 dd 88 a0 3e 69 3b f9 bc e1 b7 44 3e 7d ed c8 3e
       0.31354418 -0.030423837 0.19210769 0.3924369
0000d0 76 b8 7c 3e b9 ca dc 3f 27 df 8b be bc ae 2b bd
       0.24679741 1.7249366 -0.2731869 -0.041914687
0000e0 05 ab 83 bb 52 1d 5a 3e 66 6b a5 3e 64 f4 ef bd
       -0.00401819 0.21300247 0.323085 -0.11716536
0000f0 45 6e b0 bd 2f 0b d5 be 43 ca 80 3d 03 1d a4 3d
       -0.08614782 -0.41610095 0.06288578 0.08013346
000100 ee b1 fd be fe 74 a1 3e d1 7c db bd 84 c9 31 3e
       -0.49549812 0.3153457 -0.10717166 0.17362028
000110 d5 cc af 3e ac e4 c8 3c c7 54 05 3f a1 86 58 3e
       0.34335962 0.024523102 0.52082485 0.21145107
000120 62 5b a3 be 71 e8 d8 3c 46 0f 8d 3e 6a 1c 7a 3e
       -0.31905657 0.026478024 0.27550715 0.24424902
000130 6d c0 9a be 45 58 d9 bf b0 65 23 3e 08 90 46 be
       -0.30224934 -1.6980063 0.1595676 -0.19390881
000140 cd 6c 5f 3e 64 fb b5 3e ee 15 29 bf 8f 4c 60 be
       0.21818848 0.35543358 -0.6604909 -0.21904205
000150 9e d4 c8 be 9f fd 99 be db cc a9 3e d3 41 9d bd
       -0.39224714 -0.3007631 0.33164105 -0.076785706
000160 aa 6e a6 3e aa 42 7b be 18 37 44 bf 90 05 e3 3e
       0.32506305 -0.24537149 -0.76646566 0.4434018
000170 b9 98 d7 bc 09 41 13 3e 7f 4b 4d bf 8b cd 00 3f
       -0.026317941 0.14380278 -0.8019332 0.50313634
000180 5e ca b4 be 8d a5 99 be cf cb 91 3e c0 90 ed 3b
       -0.35310644 -0.30009118 0.28475806 0.0072499216
000190 c0 8c bd be 50 b3 15 be 01 eb c9 bd 7e 94 34 3e
       -0.37021446 -0.14619184 -0.098592766 0.1763477
0001a0 09 e7 cb 3b c5 65 3b 3e b6 c8 c8 3e 32 2e a8 3e
       0.00622261 0.18300541 0.3921563 0.32847744
0001b0 fa ef a5 be 4b 82 a2 bd bc f3 97 bd cd fa 98 bd
       -0.3240965 -0.07935008 -0.074195355 -0.074697115
0001c0 9e 08 0c bf 0a b1 ca 3f 28 94 15 be 85 5b 07 3e
       -0.5470065 1.5835278 -0.14607298 0.13218506
0001d0 09 48 1e 3e ae 41 c1 3e 73 32 ae 3e e0 b2 29 3e
       0.15457167 0.37745422 0.34022865 0.16572142
0001e0 04 df f3 3d 5f bd 37 be 4d 4d 4d be 3d e8 81 bd
       0.11907771 -0.17943333 -0.20049019 -0.06343124
0001f0 89 1d b0 be fa f7 a5 be e9 fa ac 3e 77 7d 60 3e
       -0.34397534 -0.32415754 0.3378518 0.21922861
000200 cc 5b 79 bd e3 e0 cb 3e 9f a1 cd 3e 1f 8b dd 3f
       -0.06087856 0.39820012 0.4016237 1.7308081
000210 8a 92 69 3e d1 9a 3d 3d 8d 9d 4c be 34 ee 9f bc
       0.22809806 0.046290223 -0.19981976 -0.019522764
000220 ee 6e c3 3e 02 d5 a3 3f a6 22 2e 3f 89 31 3a bf
       0.3817057 1.279938 0.6802162 -0.72731835
000230 e5 8b b2 3e eb a7 bb be 66 ec 47 3f df d0 7b be
       0.34872356 -0.3665155 0.7809509 -0.24591397
000240 50 25 ea 3d 0f aa d2 3e 11 fd 75 be 10 f3 1f 3e
       0.11432898 0.4114537 -0.24022318 0.15620065
000250 73 4d 16 3f f0 5a dc 3e 69 21 0b bd 55 e3 93 3e
       0.5871193 0.4303813 -0.03396741 0.28884378
000260 23 3e 92 3e 30 cb 2a 3d 18 43 18 3b 5a 92 3a 3f
       0.28563032 0.04169768 0.002323335 0.72879565
000270 7c 27 0b 3e 42 6b eb 3e f2 b9 9f 3d f4 3c b5 be
       0.13589281 0.4598027 0.07799138 -0.35398066
000280 bb fb 20 3f a2 1d 23 3f 1d 41 99 3e 5f 57 04 3f
       0.6288411 0.6371709 0.2993249 0.5169582
000290 e5 0a 40 3c 9d c4 c0 be 1a fd 0d bf ef 27 77 bf
       0.011721347 -0.37650004 -0.5546433 -0.9654531
0002a0 79 5c 80 be 50 ec 83 be e7 a2 45 3e e1 19 ab 3e
       -0.2507055 -0.2576623 0.19300424 0.33418182
0002b0 2f 3b f7 bd 1b 83 87 3f 4c de b2 be 92 c8 16 3d
       -0.12071835 1.0586885 -0.34935224 0.036812373
0002c0 97 59 c0 be dc 98 af 3e 11 a4 4b bf 59 45 ba 3f
       -0.37568352 0.3429631 -0.7954722 1.4552413
0002d0 67 da 56 3c d7 2d 86 be 6c f6 b7 be 66 9e 9c 3d
       0.013113595 -0.26206848 -0.35930192 0.076473996
0002e0 10 f9 12 bf e9 99 e1 be 5d 12 f3 3d 7a 22 bc 3e
       -0.5741129 -0.44062737 0.11868737 0.36745054
0002f0 a1 b8 87 be 84 37 22 3e e8 98 2a 3e 77 77 24 bf
       -0.26508048 0.1584149 0.16659892 -0.6424479
000300 1c 3f b5 3b c5 a1 c7 be 93 8d bb 3c 60 3d ba be
       0.005531205 -0.38990608 0.022894656 -0.3637495
000310 fc c5 28 bf 55 a1 66 3e e6 ba d0 bd c9 2b d1 be
       -0.659271 0.22522481 -0.10191898 -0.40853718
000320 6a e4 20 be b2 55 c2 be b5 a2 44 be e8 2a 02 bf
       -0.15712133 -0.37956005 -0.19202693 -0.5084672
000330 0a 9a 8b 3e 80 17 a9 3e b5 00 39 3e 35 45 c3 be
       0.2726596 0.33025742 0.18066676 -0.38138738
000340 43 85 a5 3e b7 01 9b bf 2e 7a 4d 3d 57 7d af 3e
       0.32328233 -1.2109898 0.050165348 0.34275314
000350 98 2d 41 be 36 57 1c be cf 7f 92 bd d8 3b 03 3f
       -0.18865049 -0.15267643 -0.07153284 0.5126319
000360 11 f4 65 be 75 ab 6f 3d 65 61 16 be 99 7a 58 be
       -0.22456385 0.058513124 -0.1468559 -0.21140517
000370 8f cc 25 3f d9 15 32 bd a2 bf b6 be be 41 5c 3d
       0.64765257 -0.043477867 -0.3569308 0.053773634
000380 da 09 1a 3e 19 c4 7c be 3a da ce be 40 e3 ce 3f
       0.1504282 -0.2468418 -0.4040087 1.6163101
000390 d1 db 9c be 07 5b 81 be 16 a7 29 be 05 ed fd bd
       -0.30636457 -0.2526476 -0.16567644 -0.123987235
0003a0 3e 8b a6 be ff 01 b5 3f 4c 39 fd 3e c8 89 18 bf
       -0.32528108 1.4141234 0.49457777 -0.5958524
0003b0 77 c4 dd bd 3f 45 d3 bc c2 06 75 3f 83 32 0d 3d
       -0.10828488 -0.025789855 0.95713437 0.034472
0003c0 57 3c 05 be 7c d0 e4 be 10 5b 81 3c 03 1b ac be
       -0.13011299 -0.4469031 0.015790492 -0.33614358
0003d0 cc ec 25 bf 5f 75 33 bf 9d 9a e4 be dd c3 ae be
       -0.6481445 -0.7010097 -0.4464921 -0.34133807
0003e0 c2 c0 48 3e a2 f4 a1 be 09 60 32 3f fe 0e 3c be
       0.19604781 -0.31631953 0.6967779 -0.18365094
0003f0 ab cf f7 bd 03 7b 7d 3e 29 53 cb be 6f f7 83 be
       -0.121001564 0.24753956 -0.39711884 -0.25774714

fc1.bias f4 [64]
000000 50 d2 30 bf 72 d5 82 3c ba da ad be ea 6d 79 bf
       -0.6907091 0.01597092 -0.33955938 -0.9743334
000010 6e ee b2 3e 76 21 bd 3e 02 28 7e 3f 3f 75 0b bf
       0.34947532 0.3693959 0.992798 -0.5447578
000020 d0 9b aa 3e bd 02 ac 3e f2 0e 4a be 29 40 4a bd
       0.33322 0.3359584 -0.19732264 -0.049377594
000030 5e cd bf be 02 0b 80 3f 1d 48 57 3f b3 8e d4 3e
       -0.3746137 1.0003359 0.8409441 0.4151512
000040 56 38 af 3e c9 a8 aa be 83 f8 62 3e 94 b2 53 bf
       0.34222668 -0.33331898 0.22165112 -0.82694364
000050 3e 89 22 3f 12 74 17 3f bf ce 9d 3e d4 98 8f be
       0.63490665 0.59161484 0.30821797 -0.28046286
000060 96 6e ab 3e 61 9a 0a bf d4 8d a3 3e ce b8 48 be
       0.33482808 -0.54141814 0.31944144 -0.19601747
000070 01 6f 00 3f ba a6 01 3f c7 49 ac be e0 88 6a 3e
       0.5016938 0.5064503 -0.33650038 0.22903776
000080 80 3e e3 3e 83 39 62 bf 74 5c ee bd a6 43 b2 3e
       0.4438362 -0.88369006 -0.11638728 0.34817237
000090 1c 48 67 3e 75 b0 b7 3e 72 d6 ce 3e 88 23 18 3e
       0.22586101 0.35876814 0.40397984 0.14857304
0000a0 dc 9d d2 be f0 bf 27 3f 9e 68 6a bf 7a 5f c3 bc
       -0.41136062 0.6552725 -0.91565883 -0.023849238
0000b0 52 0b 9a 3e a1 e4 59 3f 92 89 a4 be 24 86 b1 be
       0.30086762 0.85114485 -0.32136208 -0.34672654
0000c0 ad ef 0f 3f 35 82 26 3e f4 9a 9c be 52 3c d6 bd
       0.5622509 0.16260608 -0.3058697 -0.10460724
0000d0 f4 1b ed be 5a b1 6b bd 58 b3 07 3f c7 bf 02 3f
       -0.4631039 -0.057542183 0.5300803 0.5107388
0000e0 43 b8 2e 3f 41 19 31 3f 33 3e 25 3f f6 5b b0 3d
       0.6824991 0.6917916 0.64548033 0.0861129
0000f0 e4 21 fa be b9 23 dc 3e a9 b0 3c 3f 20 2a 53 bf
       -0.48853981 0.42996004 0.7370706 -0.8248615

fc2.weight f4 [64, 64]
000000 91 2f 1f 3e 46 54 b5 3d 00 78 f1 3d 93 f6 a0 3e
       0.15545489 0.088539645 0.11790466 0.3143812
000010 4f e0 11 3c f2 36 ee 3d 71 06 a9 3e a5 7e 7f 3e
       0.008903577 0.11631574 0.33012727 0.24950655
000020 08 36 81 3e 1e ca 73 3e 4a 4f fe 3c ec f0 ef 3d
       0.25236535 0.2380757 0.031043667 0.11715874
000030 65 f6 a6 be 29 80 78 be 10 8a b8 3e 7b 05 3a be
       -0.3260986 -0.24267639 0.36042833 -0.18166153
000040 04 4d 2c 3e 84 41 1b 3e 77 ab d2 be 56 85 89 3e
       0.16826254 0.15161711 -0.41146442 0.2685954
000050 1f 78 74 be 13 3b ea 3e f0 6e 9f 3d d9 cb c2 3d
       -0.23873948 0.45748195 0.077848315 0.09511537
000060 92 bc 21 bd 7d 25 de 3d b4 ed 05 bd 46 05 c2 3d
       -0.039486475 0.10846994 -0.032697394 0.09473662
000070 c1 6f dc bd de 63 81 be 83 aa 13 be 65 fc 90 bc
       -0.10763503 -0.25271505 -0.14420514 -0.017698476
000080 d9 a2 0c be 6e 4d 23 3d ab ee ae 3e 8c d7 7f 3d
       -0.13733996 0.039868765 0.34166464 0.06246142
000090 d7 25 f3 3d 59 75 ab be 08 23 c0 be 4c 0c e8 bc
       0.11872452 -0.33487967 -0.37526727 -0.028326176
0000a0 bf a6 d4 bd ce 54 d6 3e ae 71 7d 3e e8 e3 91 3d
       -0.10383367 0.41861576 0.24750397 0.07123548
0000b0 d7 ef 3b 3e 91 06 b6 3e 0a 2d 8b 3e 8e e0 a1 be
       0.1835321 0.35551885 0.271828 -0.31616634
0000c0 70 3d 89 be f7 7d 07 be 68 27 2e 3e 5d de 26 3e
       -0.26804686 -0.13231646 0.1700722 0.16295762
0000d0 4c 57 4d be c8 b8 19 3e 5e c2 24 3c 7c d9 bf be
       -0.20052832 0.15011895 0.010056106 -0.37470615
0000e0 4b 90 2d be eb 74 6e be 9a 9d 84 3e c7 1f 91 3d
       -0.16949575 -0.23286788 0.2590149 0.07086139
0000f0 76 81 4d 3e 38 c7 57 be 17 23 1d 39 46 d2 02 3e
       0.20068917 -0.2107209 0.00014985759 0.12775525
000100 7b 02 48 be 6b 21 2d bd ac 5b 98 3b bb 06 86 be
       -0.19532196 -0.042268198 0.0046496 -0.2617701
000110 29 db 82 3d de c2 8d bd 83 d7 a5 be 7c 5c eb be
       0.06389458 -0.069219336 -0.32390985 -0.45968997
000120 a0 1c b4 be 53 ad 57 bd b4 76 8d 3d d3 92 80 be
       -0.3517809 -0.05265553 0.069074064 -0.25112018
000130 d8 79 ec 3e a8 9c dc 3d 72 7e 5d bd bd 8d 77 3e
       0.4618671 0.10772067 -0.054075666 0.24175163
000140 72 ab 4b be 8e 9f 68 be 55 86 9e 3e ff 1f 8d be
       -0.1988962 -0.22717115 0.30961862 -0.27563474
000150 7b da 26 3e c5 2f b1 be 40 4f 69 be e2 2b 6f bd
       0.16294281 -0.34606758 -0.22784138 -0.05839146
000160 cf f9 78 bd 45 31 17 be 4c d8 72 be d9 b0 1a bd
       -0.06078511 -0.14764889 -0.23715323 -0.03776631
000170 d3 b5 bc 3d 72 71 b2 3e 19 09 05 3e 9b 42 98 bd
       0.09214368 0.34852177 0.12991752 -0.07434579
000180 5f c2 db 3d 96 bd 5c 3d 79 c4 a3 be e0 99 5b be
       0.10730433 0.05389174 -0.31985834 -0.21445417
000190 50 d5 42 be 63 f3 91 3e a6 a3 39 3e dd ad 2c bd
       -0.19026685 0.28506002 0.18128833 -0.042157996
0001a0 8a bd a8 3d 8c dc 23 be af d3 c4 bd 86 45 84 bd
       0.08239277 -0.160021 -0.09610688 -0.06458573
0001b0 19 98 86 be 78 e7 9c be 11 bc fd bb e1 15 c6 3e
       -0.26287916 -0.30645347 -0.0077433665 0.38688567
0001c0 80 86 ad 3d 89 37 26 3c fb de 94 be d9 d3 66 be
       0.084729195 0.010145077 -0.2907637 -0.22541751
0001d0 aa fe 03 3e 40 66 9f bd ae fc 0d be e3 9c 5e 3e
       0.12890115 -0.077831745 -0.13865921 0.21739535
0001e0 57 7b 38 3e 9b 01 2a 3e 39 15 6a be 32 24 0a 3e
       0.180158 0.16602175 -0.22859658 0.1349037
0001f0 43 91 6d be 61 74 b5 3e c2 02 4b 3e de bd 83 be
       -0.23199944 0.35440353 0.19825271 -0.25730795
000200 20 5f 9d 3c 9a f4 61 bd 43 5c 30 be d3 5f 76 be
       0.019210398 -0.05516491 -0.17222695 -0.24059992
000210 6c 81 15 3d 4d 10 51 be 14 ee 7b be 14 17 c4 be
       0.03650038 -0.20416375 -0.24602538 -0.38298857
000220 5d 6f e1 be ec 6d 7a be 8a 1b 5d bc cd f7 40 be
       -0.44030276 -0.24455994 -0.013495335 -0.18844528
000230 34 aa 87 3e b7 7c 71 3e af c0 2c be de b6 e1 3d
       0.26497042 0.23582731 -0.16870378 0.11021207
000240 8c 67 44 be 6a af 35 be 31 cf fd 3d f8 a1 cb bd
       -0.19180125 -0.17742696 0.12393034 -0.099430025
000250 3a a9 ae 3d 44 64 04 bf df 58 fa bd c8 99 c2 bd
       0.08528371 -0.51715493 -0.12223982 -0.09501988
000260 ea 5e 37 be a5 f1 49 be 3b cc f0 bb f2 f2 68 3c
       -0.179073 -0.19721086 -0.007348565 0.014218079
000270 56 58 b6 3d 97 15 3d 3e 67 60 4c 3e ca bf 3e 3c
       0.089035675 0.18465267 0.1995865 0.011642406
000280 1f 91 fc 3d b2 15 98 3d 76 68 ae be d4 e1 ee bd
       0.12332367 0.07426013 -0.34064072 -0.11664167
000290 7c 3d f9 bc d5 b6 79 3e 6a 4f 00 3e d7 32 9d 3d
       -0.030424826 0.24386151 0.12530294 0.076757126
0002a0 99 72 af 3c 40 bf 7a be 62 61 5d be bc 17 ae bd
       0.02141695 -0.24487019 -0.2161918 -0.08500621
0002b0 71 86 9f bd 9e 58 a4 bd c7 9a 93 bc 03 64 cb 3e
       -0.077893145 -0.08024715 -0.01801814 0.3972474
0002c0 10 c8 92 3e a8 67 94 bc f8 84 3b be b7 1e 30 bd
       0.2866826 -0.018115833 -0.18312442 -0.042998042
0002d0 d2 cc 77 3e 7c 30 f5 bd 5e 9a 29 be 1d 69 a0 3e
       0.24199226 -0.11972138 -0.16562793 0.31330195
0002e0 3a 9c 5c 3e 64 58 5f 3e df c7 6a be 2a 79 06 3e
       0.2154397 0.21811062 -0.22927807 0.13132158
0002f0 d2 af d2 bd 6c 83 9e 3e 56 8a 2f 3e 42 56 26 bc
       -0.10287441 0.30959642 0.17142615 -0.010152401
000300 1f b2 8f 3e bd 94 46 3d 34 c7 2a bd 23 cb 89 3d
       0.28065583 0.04848169 -0.04169388 0.067281984
000310 70 20 e8 bc ad 66 d6 3d da c2 38 3e 38 0d 25 3f
       -0.02833578 0.104688026 0.1804308 0.64473295
000320 d4 6e ab 3e 67 96 08 3e 7c c1 c8 bd 82 37 09 3e
       0.33482993 0.13338624 -0.09802529 0.13400081
000330 46 84 af be 15 56 61 be e9 30 37 be 84 c3 a0 be
       -0.34280604 -0.22005494 -0.17889751 -0.31399167
000340 83 f3 8d bd 22 a6 c5 bc 4c d5 f7 be 0a 35 c9 3d
       -0.06931212 -0.02412707 -0.4840492 0.098245695
000350 54 b8 c8 bd 5e 02 55 3e 57 d3 92 3d 20 77 7e 3e
       -0.09800783 0.20801684 0.07169216 0.2485013
000360 be c0 ae bd 5c b6 89 bd fb c0 9a 3c ae e7 06 3f
       -0.085328564 -0.067242354 0.018890848 0.52697265
000370 f8 12 19 bf 5f d5 c1 be 63 2c 9f be 50 57 a5 3e
       -0.5979457 -0.37858102 -0.31088552 0.32293177
000380 62 c5 0e bd c0 97 52 be bd 65 04 3f 40 ec ed 3c
       -0.034856208 -0.205657 0.5171774 0.029043317
000390 92 07 db bc eb ef f9 be 49 d3 2e bf 10 05 83 3d
       -0.026737008 -0.48815855 -0.68291146 0.0639745
0003a0 5b 2c 11 bd 87 d6 97 3c 48 a3 a0 bd 0e db d4 3d
       -0.03544269 0.018534912 -0.078436434 0.10393344
0003b0 8c 5d 44 3e 69 ec 86 bd 7f f8 9a 3e 2e 60 ee be
       0.1917631 -0.065880604 0.30267712 -0.46557754
0003c0 cd d8 0c bf 0b 6d af be 24 29 be 3d 2a 4c 0a 3e
       -0.5501831 -0.3426288 0.09285191 0.13505617
0003d0 ce d3 72 be 26 ad 9a 3c ab 4b a3 3e 71 cd 24 bf
       -0.2371361 0.018881392 0.31893668 -0.6437598
0003e0 ab 50 e1 bd c6 2c f9 bc 24 ed 3c 3d 5a ff 2b be
       -0.11001714 -0.030416857 0.046124592 -0.16796628
0003f0 94 a4 d9 3e 0f bd 31 bf 2d 93 15 be 93 79 9a bb
       0.42508376 -0.69429106 -0.14606924 -0.0047142

fc2.bias f4 [64]
000000 c6 91 fc 3d cd 95 ab 3d 70 ef c5 3d e2 ef ca 3c
       0.123324916 0.083781816 0.0966481 0.024772588
000010 15 da f1 bc d2 70 ca 3d 45 d6 65 3d bb d5 5e 3c
       -0.029522935 0.098848 0.056112546 0.013600762
000020 17 14 74 3d 42 63 c5 bd 71 4a e7 bd 97 ec 4d bd
       0.05958947 -0.096380726 -0.112934954 -0.050274458
000030 eb be 46 bd b0 d8 1e be 22 49 fd bd 4b 0b e6 3c
       -0.048521917 -0.15512347 -0.123674646 0.028081557
000040 19 17 a3 3c 82 8b 3a 3d e5 c5 00 be 7f 2e 9e bc
       0.019908475 0.0455432 -0.12575491 -0.01930928
000050 28 54 ea 3c a8 bd b9 bd 3a 67 a0 bd f6 a5 b5 3d
       0.028604582 -0.09069377 -0.07832189 0.08869545
000060 dc 2e 31 be 6d c4 04 3c 50 d6 ab 3d 98 1c cd bc
       -0.17303032 0.008103472 0.08390486 -0.025038049
000070 63 8c f0 bd f2 2c 72 3d 25 75 2b be 3e 8e 4f 3d
       -0.11745527 0.059124894 -0.16743906 0.050672762
000080 2e 25 c3 bd f8 8b 27 3d 7e f3 00 bd 6d 8f 4f bd
       -0.09528576 0.04090497 -0.031482212 -0.05067389
000090 19 4b de 3a 26 f7 08 be 3f c8 fb bc bc 63 eb 3b
       0.0016959637 -0.1337553 -0.030735133 0.00718352
0000a0 01 d6 8b 3d 13 3c 09 bc 7c 8d 2f bd 96 69 08 bd
       0.068279274 -0.008376139 -0.04285954 -0.03330382
0000b0 2f c8 a4 3c a5 32 c3 bd c9 ee 04 be 56 a6 8e 3c
       0.020114986 -0.09531144 -0.12981714 0.0174133
0000c0 8a c9 10 be 83 e6 96 bb 97 c8 9d bd 35 fe 41 bd
       -0.14139381 -0.004605116 -0.07704275 -0.04736157
0000d0 16 de a5 bd 9e ce cd 3c f9 fc c5 bd da d4 bb 3c
       -0.08099 0.025122937 -0.09667391 0.022928644
0000e0 bd a9 45 be 00 08 8b bd 9d 59 b1 3d 46 c5 d1 bd
       -0.19303031 -0.06788635 0.086596705 -0.10242705
0000f0 bb 6c db 3c a9 00 67 bd 64 9c 02 3d 94 44 03 bd
       0.026785245 -0.056397114 0.031887427 -0.032047823

fc3.weight f4 [64, 64]
000000 7d e9 e0 bd 7c 6a b2 3d b6 4d 73 3e 4c 61 a7 be
       -0.10982034 0.087117165 0.23760113 -0.3269142
000010 5e cd d3 3d 47 14 34 3e da fb 5a 3e a9 42 07 be
       0.10341905 0.1758586 0.21385136 -0.13209023
000020 ce 52 9e be 4c 41 bd 3d 70 81 2c 3d 3a 71 3b bf
       -0.3092255 0.0924097 0.04211563 -0.73219645
000030 b1 ca 98 be f9 51 e8 3e 2c c5 10 3e 93 87 a5 3e
       -0.2984214 0.4537504 0.14137715 0.32329997
000040 8a eb e6 3c 9c 2b 15 be 23 2b 77 3e 21 ec 5e 3d
       0.028188486 -0.14567417 0.24137549 0.05442441
000050 53 41 07 3d 99 50 27 3d b6 47 27 3e 43 93 2d 3c
       0.033021282 0.04084835 0.1633595 0.010594192
000060 db 24 0b be 56 63 75 3e 06 5e 35 3e a4 18 2c 3d
       -0.13588278 0.23963675 0.17711648 0.042015687
000070 59 1b 28 3e 53 f4 7f 3e 5c e4 d6 3d c8 ae e8 3d
       0.16416682 0.24995546 0.10492775 0.11361462
000080 a9 50 69 3e 72 65 40 3e a5 1e b4 bc 10 08 26 be
       0.22784676 0.18788698 -0.021987269 -0.16214013
000090 28 54 66 be 1b 88 1b be fc 03 d4 3d f9 2f 77 3e
       -0.2249304 -0.15188639 0.103523225 0.24139394
0000a0 89 6e 73 3d 2a f4 37 3e ed 6d 69 3c b5 d9 4e 3e
       0.059431586 0.17964235 0.0142474 0.20200236
0000b0 f0 a6 d1 3d b1 b3 b0 3c e1 7a 05 3d e9 52 57 be
       0.10236919 0.021570059 0.03258789 -0.21027721
0000c0 b6 12 be 3d bd 25 63 3e ed 7a ca 3e e1 19 8e 3d
       0.092809126 0.22182365 0.3954691 0.0693853
0000d0 1a c9 4b 3d e6 2b cb 3c e8 ce 48 3e 08 d7 f5 3d
       0.049752332 0.024801206 0.19610178 0.120039046
0000e0 c5 b8 d2 3e 2c a6 0e 3c 14 bd 1b 3e 31 2d 21 3d
       0.41156593 0.008706611 0.15208846 0.03934974
0000f0 23 a0 7f 3c 40 14 d2 3c 2c 19 4b 3e 26 0f aa bd
       0.015602144 0.025644422 0.19833821 -0.083036706
000100 76 c4 bf bd cf ee 32 3e 3e c0 10 3e 22 19 85 3c
       -0.09363644 0.17473911 0.14135835 0.016247336
000110 33 75 66 bb f1 3b 7a bd c0 20 19 3e 3b 8f 89 bd
       -0.003516507 -0.06109232 0.149539 -0.06716772
000120 1f 61 16 3c 07 03 8a 3d c7 35 a1 3d b4 9f 7c 3e
       0.009178429 0.06738859 0.07871585 0.24670297
000130 01 8d dc bc 82 72 46 be f9 8d 0b bf 10 b4 1d bd
       -0.026922705 -0.19379619 -0.5451351 -0.0385018
000140 32 6a 46 be 47 5d cc bd af a1 77 3e 9d 1d 8e 3d
       -0.19376448 -0.09978729 0.24182771 0.06939242
000150 40 fc 1d 3e b5 9c e0 3d b1 9a 27 3e 2f ee ee 3d
       0.15428257 0.109673895 0.16367604 0.11666524
000160 7d c9 8d be a0 5b df bc 3b 50 ad bc aa da 07 3e
       -0.27692786 -0.02726537 -0.02115642 0.13267007
000170 50 6f 5c 3d 78 d1 2c 3e 59 34 97 3d 5b a9 ec 3d
       0.053817093 0.16876781 0.073830314 0.115557395
000180 e0 2d 56 3d 63 22 ca bc e1 96 e3 bd f4 48 85 be
       0.052289844 -0.0246746 -0.11112762 -0.2603222
000190 33 fc 53 bd cb 6e 8c bd b0 db 58 3e 07 0d 22 3e
       -0.051754188 -0.068570696 0.21177554 0.15825282
0001a0 8f 37 1a bd e1 63 06 3e 27 b1 50 3e dc 02 d3 3d
       -0.03765064 0.13124038 0.20380078 0.1030328
0001b0 9f bc 7c bd 9f 65 a2 3c 96 54 c7 3c 69 e4 14 be
       -0.06170332 0.019823847 0.024332326 -0.14540257
0001c0 91 88 01 3e e5 cd 20 3e 9d 13 99 be 6c fc 05 bd
       0.12649752 0.15703543 -0.29897776 -0.03271143
0001d0 9b e8 2c 3e c0 d9 d2 be 55 5b a9 bd 41 7e d9 3d
       0.16885607 -0.41181755 -0.08269373 0.10619784
0001e0 04 60 7b bd f5 18 d1 be ae c0 2d 3e c8 05 e8 3d
       -0.061370865 -0.40839353 0.16968033 0.11329228
0001f0 46 bf 17 3d 71 4e 3a bd 6b ee 0f 3e 96 78 2b 3d
       0.037047647 -0.045484964 0.14055793 0.041863047
000200 7c ad 81 be 02 12 74 3e 09 56 20 3e 59 ff b6 bd
       -0.2532767 0.23834994 0.1565782 -0.089354225
000210 44 d3 80 3d 2f 47 b0 3c 9b 3e 42 3e bd ce 7a be
       0.06290296 0.021518318 0.18969195 -0.24492927
000220 6c 09 31 be a0 15 bc 3b d4 6c b6 3d a8 08 1b 3e
       -0.1728875 0.0057398826 0.08907476 0.15140021
000230 18 86 06 be 2b dd 60 be 2b e4 d8 be be cf b2 bc
       -0.1313709 -0.21959369 -0.42361578 -0.021827575
000240 e1 07 22 bd c1 15 44 be a6 7b ff 3d f3 5b 50 3e
       -0.039558295 -0.19148923 0.12474756 0.20347576
000250 45 1b ae 3c a1 4e 5c 3e 93 e7 d6 3d 18 e6 60 3e
       0.021253238 0.2151437 0.10493388 0.21962774
000260 9e 10 78 be ac f0 93 bc 10 03 46 3e d2 46 15 3e
       -0.24225089 -0.018059097 0.19337106 0.14577797
000270 5d 8a 6e bd c8 e8 d2 3d 88 df 1a 3d a2 d7 4a 3e
       -0.058237422 0.10298306 0.037810832 0.1980882
000280 e6 30 9b 3d 1a c7 b8 3c 10 13 d1 bd fd 1b e7 bd
       0.07577686 0.022555877 -0.10208714 -0.11284635
000290 82 0f 70 be 53 54 d2 bd cf 55 ac 3d 90 41 8f 3c
       -0.23443416 -0.1026999 0.08414804 0.017487317
0002a0 33 52 ee 3c 21 c1 dc 3d e4 33 76 3e 34 df 15 3e
       0.02909193 0.10779024 0.24043232 0.14635926
0002b0 b8 7b 55 3d 8c 16 eb 3c 31 4f 95 3d b6 c0 97 bd
       0.05211994 0.028697275 0.07290495 -0.074098036
0002c0 a1 90 41 3e a1 bf 6f 3d 35 3d de bd 68 08 80 3d
       0.18902828 0.05853236 -0.10851518 0.06251603
0002d0 4b 8e 25 3e 97 f4 e1 be a9 02 bb 3c a4 9c c3 3d
       0.16167562 -0.4413192 0.022828417 0.09551361
0002e0 c2 ba 0c be 29 e0 af be 37 9c c6 3c ea ed 51 3e
       -0.13743117 -0.34350708 0.02424441 0.20500913
0002f0 8c 80 a7 3d 90 24 a8 bc 84 ff 80 3b 42 88 07 3e
       0.08178815 -0.020525247 0.00393671 0.13235572
000300 bf f4 59 3e 01 09 5d be 3b da 87 be 6b c5 fb 3d
       0.2128477 -0.21585466 -0.26533684 0.12293514
000310 ed 28 95 3c e3 13 b9 bd 59 26 76 be fd 78 a8 3e
       0.018207991 -0.09036996 -0.24038066 0.32904807
000320 6b 3d 97 3e b8 1e 3f be 8b 39 59 be 59 16 db 3d
       0.29539046 -0.18664062 -0.21213357 0.10697622
000330 c1 a4 9d 3e 52 b9 c2 3d fc ed 3c bd 0e dd 28 be
       0.3078976 0.09508003 -0.046125397 -0.16490576
000340 16 70 01 3e 6d a7 d1 3e 6b 9a 0d be a4 1d 59 bd
       0.12640414 0.40948048 -0.13828437 -0.053006783
000350 23 29 41 be b7 6e 8b be bd 09 3f be df 9d 60 be
       -0.18863349 -0.27232906 -0.18656059 -0.21935223
000360 43 f4 87 3e de 7b 5a be aa 8c 21 bc 9d c3 7c be
       0.26553544 -0.21336314 -0.009860197 -0.24683996
000370 a1 61 34 be 6a 68 78 be 29 26 af bd dc 4d 0f be
       -0.17615367 -0.24258581 -0.085522 -0.13994545
000380 00 41 ca bd a0 e0 00 be 59 26 95 3e 9b 20 9b 3e
       -0.09875679 -0.12585688 0.2913082 0.30298313
000390 c1 a1 b3 3e 1d 8e 55 3e 93 0d 87 be 1b dd 89 be
       0.35084346 0.20854993 -0.26377544 -0.26926503
0003a0 88 99 4b be 7a c9 9b bd 0b 24 2a be 28 e2 55 be
       -0.19882786 -0.07606788 -0.16615312 -0.20887053
0003b0 1b e3 5d be f9 33 f6 bd bf d2 5d be 41 4b 16 3e
       -0.21668665 -0.12021632 -0.21662425 0.14677145
0003c0 60 6c bc be 86 6c 9e be 94 b8 41 3c ca b3 56 be
       -0.36801434 -0.30942172 0.011823792 -0.20967022
0003d0 74 77 90 be 47 ca 20 3e 31 10 4f be 41 19 38 3c
       -0.28216136 0.15702163 -0.2022102 0.01123649
0003e0 80 cc 03 be ec ca 17 3d e9 58 9a be 7d 49 8a bd
       -0.1287098 0.037058756 -0.30145958 -0.06752298
0003f0 cd dc 72 bd f2 33 db bd 91 a6 4a be 46 7a 63 bd
       -0.059292603 -0.10703267 -0.19790103 -0.05553653

fc3.bias f4 [64]
000000 8a 95 f1 bd a5 71 d5 bd d9 12 ad 3c fe e5 3b bd
       -0.117961004 -0.104220666 0.021127151 -0.045873635
000010 23 5f 02 be 2b 16 61 bd f0 e9 3b bd 7c 43 4f bd
       -0.12731604 -0.05495278 -0.045877397 -0.050601467
000020 d5 1c d6 bd ae 38 bf 3d ea 21 b1 bd 4e f0 13 3e
       -0.10454718 0.09336983 -0.08649047 0.14447138
000030 4b 67 61 3c 98 36 4c 3d 6e 3b eb 3d e6 e5 91 bd
       0.013757537 0.049856752 0.11485945 -0.07123928
000040 d3 e3 93 bd 02 04 aa 3d d4 d9 81 3d d1 ae e2 bd
       -0.072211884 0.08301546 0.063403755 -0.110685
000050 f6 b5 e2 3d 8d c9 4a 39 9c de fb 3d e2 ef f6 bc
       0.110698625 0.00019339305 0.12298319 -0.030143682
000060 e3 1a 26 bd fd 81 57 bc 1b 48 0c 3b a7 a5 b1 bd
       -0.040552985 -0.01315355 0.0021405283 -0.08674174
000070 17 9a 05 3e cc 45 50 bc 8b 88 80 3d 6f e4 a7 bd
       0.13047062 -0.012711953 0.062760435 -0.08197867
000080 9a 13 11 bd c4 52 60 bc ef e7 82 3c f2 08 87 3d
       -0.035419084 -0.013691608 0.015979735 0.06593503
000090 d7 1a 72 bc 62 9f b4 3c a1 4b d7 3c 2f 34 04 be
       -0.014776907 0.022048656 0.02628118 -0.12910531
0000a0 65 0b 30 3d e5 0d 08 3d 53 76 b0 3d 34 7f 2f 3e
       0.042979617 0.033216376 0.086163186 0.17138368
0000b0 27 1b 42 bc 2a e3 c1 bd 60 da 91 3d 5f 2f 45 3d
       -0.011847294 -0.09467156 0.0712173 0.04814088
0000c0 b3 7c c3 3d 9b e2 2c be fa 73 08 be 2a 94 04 3e
       0.09545269 -0.16883318 -0.13325492 0.12947145
0000d0 44 2b 14 be fc c2 ba bd 0e b2 13 bd 29 a5 e0 bc
       -0.1446963 -0.091192216 -0.036058478 -0.027422504
0000e0 b3 17 28 3d c6 b8 82 3d 14 81 78 bd 9e d3 4a bd
       0.041038226 0.06382899 -0.060669973 -0.04951822
0000f0 8d 63 0e 3e 1d 33 1b be 6e 5d c0 bd 47 c0 48 bc
       0.13905163 -0.15156217 -0.0939282 -0.012252874

out.weight f4 [2, 64]
000000 d7 d5 74 3e 3b 8d e5 3d 96 e8 78 3e c3 ed ab be
       0.23909698 0.11208578 0.24307474 -0.33579835
000010 86 63 2c 3e 58 1c 90 3e 99 78 63 3e cd 58 89 be
       0.1683484 0.28146625 0.22213973 -0.26825562
000020 83 71 83 bc 27 08 3b be bd 1e 5f be 07 eb 34 be
       -0.016045338 -0.18264829 -0.2178907 -0.17667781
000030 a6 14 64 3e ad 9d 9d bc f6 8a 89 be 87 d7 52 be
       0.22273502 -0.019240225 -0.2686383 -0.2059003
000040 fa 6f 2c bd 40 40 0b be 2e e7 9f be d0 99 85 3e
       -0.042098977 -0.13598728 -0.31231064 0.26093912
000050 7c 59 5a be 30 07 6c be 4b 0b 8b be 14 21 7a 3e
       -0.21323198 -0.23049617 -0.27157053 0.24426681
000060 13 d5 43 3e 99 6c 17 be 3d c4 87 be 81 96 80 3e
       0.1912425 -0.1478752 -0.26516905 0.25114825
000070 d3 38 8a be 8c 99 e1 3c 01 4f 6e be ba 9a 3b be
       -0.26996478 0.027539037 -0.23272325 -0.18320742
000080 ca 38 3e bd 7d 68 08 bd 67 1f e6 3c be 27 59 3e
       -0.046440877 -0.033302773 0.028091146 0.21206567
000090 4f 14 57 3e 86 bc 65 be 71 c5 2c 3e 5f f2 0f be
       0.21003841 -0.22435197 0.16872193 -0.14057301
0000a0 0b e1 0a bd 5f 4d c6 3c 33 8d 92 bd 92 09 7a be
       -0.033906024 0.024206815 -0.07155838 -0.24417713
0000b0 ac af 05 3e f9 ef 81 be c4 fc 78 be 9e 7a 42 3e
       0.13055295 -0.25378397 -0.24315172 0.18992087
0000c0 64 72 dd 3d 8f f9 07 3e 39 fd 7c 3e 46 a0 fc bd
       0.10812834 0.13278793 0.24705972 -0.12335257
0000d0 60 b3 48 bd 68 86 3d be 12 1e 7e 3e e2 4c 90 3e
       -0.04899919 -0.18508303 0.24816158 0.28183657
0000e0 6f 60 61 be 66 61 10 3e 38 30 39 3e 6e c7 91 be
       -0.22009443 0.14099655 0.180848 -0.28472465
0000f0 88 07 84 be 3f 90 2a 3e ac 10 99 be aa 80 6f be
       -0.25786996 0.16656588 -0.29895532 -0.23388925
000100 4a 76 8d 3d 76 62 78 bd a9 da 01 be f9 9b 90 3c
       0.069073275 -0.060640775 -0.12681068 0.017652499
000110 58 be 90 3d b2 55 06 3c 45 05 b7 bd af 86 4e bd
       0.07067555 0.008199142 -0.08936552 -0.050421413
000120 a0 7c ee 3d a8 dc e4 bd 12 2d 0f 3e 6e 03 8e 3d
       0.11644864 -0.11174899 0.13982037 0.06934248
000130 7f fd 79 3d e6 96 34 3e 0f 10 fc 3d 9e 0c a7 3d
       0.06103277 0.17635688 0.123077504 0.081567034
000140 fb d3 41 bd 90 58 83 3d ee e6 8a 3d 19 fc 5a bd
       -0.0473213 0.06413376 0.067823276 -0.053463075
000150 b2 72 25 be d8 a8 30 3d dc f3 a7 3c c5 da 1f be
       -0.16157034 0.043129772 0.020502023 -0.15610798
000160 57 f4 f8 bd d5 95 ba bd bd 85 8c bc b2 45 34 3d
       -0.12155979 -0.091106094 -0.017153615 0.04401178
000170 d7 07 42 3d 7e dd b6 3d 39 9a 19 be 38 9f 11 be
       0.047370758 0.08928965 -0.15000238 -0.14220893
000180 03 f7 0f 3e 05 15 b3 3d 65 76 21 3e f1 5b f7 3d
       0.14059071 0.087442435 0.1576782 0.12078083
000190 82 fa 7b bd 09 1e d4 3d e1 d6 d6 3c 2b 61 f8 3d
       -0.0615182 0.10357291 0.02622551 0.12127908
0001a0 db b8 09 be 13 52 21 be 4e d3 29 3e 50 3b be 3c
       -0.13449423 -0.15753965 0.16584513 0.023221642
0001b0 77 98 b6 bd 3d 1a f2 bd a0 fd bc bd d0 56 b5 3d
       -0.08915799 -0.11821411 -0.09228063 0.08854449
0001c0 d3 f0 26 3e 0d d1 86 bd 21 fc b8 3d 1a 69 29 3e
       0.16302805 -0.06582842 0.09032465 0.16544
0001d0 39 8e 8a 3d 4c 0b 18 3e c5 3f 3b 3d ec 3a 93 bc
       0.06765408 0.1484806 0.045715112 -0.017972432
0001e0 59 69 e4 bd e3 b1 a7 3d 0b 14 95 3d cf 11 e2 bd
       -0.11152906 0.08188226 0.072792135 -0.11038553
0001f0 c8 b6 66 3d ce 90 dd bd 23 31 40 be ef 57 8e 3d
       0.056326658 -0.10818635 -0.18768744 0.06950366

out.bias f4 [2]
000000 74 15 be 3d b1 4a fc 3d
       0.092814356 0.12318934
