Santiago_version/models/Umbumping_cars_V5.pth (torch, 39352 bytes, 8 tensors)

fc1.weight f4 [64, 8]
000000 bb 4f 47 be b8 4c 02 3e 33 9a 83 3d 6a ad d5 bc
       -0.19464009 0.12724578 0.064258955 -0.026083667
000010 ce 6d 02 be b8 aa 3e 3e 51 df c2 3b 85 80 eb 3b
       -0.127372 0.18619812 0.0059470315 0.0071869516
000020 6e 7a 8f be a3 b6 aa be f2 7b 91 be ec 61 82 be
       -0.28023094 -0.33342466 -0.28414875 -0.25465333
000030 65 86 99 be b6 43 ee 3d 5f d3 a1 3d 11 ab 77 bd
       -0.29985347 0.116340086 0.07901644 -0.060465876
000040 0c 5d b1 bd 82 38 38 3e 57 b7 89 be e1 25 86 be
       -0.086603254 0.17990306 -0.2689769 -0.26200774
000050 20 85 98 be fd 4e 21 be cd 77 90 bd 2f 85 4f 3b
       -0.29789066 -0.15752788 -0.070541 0.0031665077
000060 63 e8 b3 3e 1d d2 f4 bd 0f ba 7c 3e 36 64 98 be
       0.35138234 -0.119541384 0.2468035 -0.29763955
000070 9b 06 ad be 5a 6b e3 bd d8 64 d2 3d 94 86 35 bd
       -0.33794102 -0.1110446 0.10273141 -0.044317797
000080 d1 b1 91 3e 15 7e 10 3e dd 6b 3c 3e 24 26 a1 be
       0.28455976 0.14110596 0.18400522 -0.3147441
000090 2d b2 5a bd f6 f9 94 be 12 22 98 3e 15 d2 a2 3e
       -0.053392578 -0.29096955 0.29713494 0.31800905
0000a0 c4 e3 40 be 17 d7 0a 3e 34 03 3f be 9c c6 92 3e
       -0.18836886 0.13558613 -0.18653566 0.28667152
0000b0 64 32 0f 3e 99 53 91 be f8 99 84 3e d4 38 7c be
       0.13984066 -0.28384092 0.2589872 -0.24631053
0000c0 fd 33 7e be 15 92 1b 3d 6b d6 90 3c 62 f8 1b be
       -0.2482452 0.03798111 0.017680367 -0.1523147
0000d0 65 e3 ef 3d 9e 27 8e 3d 52 5b 4e be 6f 71 01 3e
       0.11713294 0.0694115 -0.20152023 0.12640928
0000e0 42 d7 a4 be b2 86 3b be 90 eb 5a 3e 50 0a b0 be
       -0.3219548 -0.18313101 0.21378922 -0.34382868
0000f0 68 f6 89 3e aa 3b 09 be cf 2b cc bd 99 81 37 3e
       0.26945806 -0.13401666 -0.09969293 0.17920531
000100 50 3d 35 bc 1a 70 1d be f4 ec 19 3e 19 12 61 3e
       -0.011061981 -0.15374795 0.15031797 0.2197956
000110 87 eb 3a 3e 85 f7 55 3e 95 ae 92 be 26 59 98 be
       0.18253909 0.20895202 -0.2864882 -0.29755515
000120 ea 5b af 3d 7f 13 84 3e c6 be 56 be 88 8c 67 bd
       0.08562453 0.25796124 -0.20971212 -0.056530505
000130 d0 18 ac be 41 94 57 be 6e 92 0a be a8 25 a4 be
       -0.3361268 -0.21052648 -0.13532421 -0.3205998
000140 20 79 0e be 26 e5 f3 bd 73 c1 6d bd 99 e3 9c 3e
       -0.13913393 -0.11908941 -0.058045816 0.30642393
000150 76 64 46 be 1a 9a 54 3e 5d 29 84 3e 91 ad 1b be
       -0.1937426 0.2076191 0.25812808 -0.15202929
000160 82 b9 a9 be 33 29 a9 3e 26 0f ee bc 62 24 af bc
       -0.33149344 0.33039245 -0.029059958 -0.021379653
000170 4d 52 70 be 0a f9 8d be de 71 8a 3e 46 1b 73 3e
       -0.23468895 -0.27729064 0.2704 0.23740873
000180 97 18 ac 3e 17 c0 b9 3d 5f 44 45 3e 96 09 a1 be
       0.3361251 0.09069841 0.19264363 -0.31452626
000190 bc 3b 95 be 99 5c 34 bd bb 62 67 be a6 c0 fe 3c
       -0.29147136 -0.04403362 -0.22596256 0.031097721
0001a0 d8 80 a0 be 7f 88 65 bd eb d5 9e 3e f5 4e 3d be
       -0.313483 -0.056038376 0.3102258 -0.18487151
0001b0 ae af 16 3e 07 a7 a3 3e 3f 39 ac be 65 4f 23 be
       0.14715454 0.3196337 -0.33637425 -0.15948255
0001c0 43 e9 bb 3d 35 79 80 be d8 e4 84 3e 61 81 b0 be
       0.091753505 -0.25092474 0.25955844 -0.34473708
0001d0 55 75 80 be 51 70 7c be 06 7a a1 3e 1f 82 77 be
       -0.25089517 -0.2465222 0.3153841 -0.24170731
0001e0 9b f0 6d be 86 85 38 3d 9c 7a 1e 3e 0b b0 23 bc
       -0.23236315 0.045049213 0.1547646 -0.009990702
0001f0 dd c4 d5 3d 75 85 9f 3c 5f 70 7b 3d 4c 4a 56 3e
       0.10437939 0.019472817 0.061386462 0.2092678
000200 b0 4e 2f 3e 6e ce 47 3d 79 75 2a be a5 ea 4d 3c
       0.1711986 0.04878085 -0.16646375 0.012568151
000210 23 e2 91 3e b3 19 04 be 3c b7 48 3e 63 f5 b5 3e
       0.2849284 -0.12900428 0.19601148 0.35538778
000220 42 40 ea bd 34 0e 67 3c 4a 6e 6f 3e da 72 e5 bc
       -0.114380375 0.014102507 0.23381916 -0.028008867
000230 f3 56 90 be 87 f4 ac 3c 77 f4 34 3d db 39 64 3e
       -0.28191337 0.021112693 0.044178452 0.22287695
000240 1d a6 85 bd 28 e0 20 3e 77 6d 8b be 6d 24 cf bd
       -0.06525824 0.15710509 -0.27231953 -0.101143695
000250 bb 43 82 3e 47 29 07 be dc e4 33 be b1 43 9a 3c
       0.254423 -0.1319934 -0.17567772 0.018831106
000260 f1 79 a8 be 70 bc ac be 23 7b 8f be cc 73 0d 3e
       -0.32905534 -0.33737516 -0.28023633 0.13813704
000270 eb 9c 67 be 94 4c 6d 3d eb b7 63 3e 0d 7a 4a 3e
       -0.22618453 0.05793436 0.22238128 0.19773121
000280 e7 c3 54 be 03 31 49 3e 33 02 9b be 75 18 87 be
       -0.20777856 0.19647603 -0.30275115 -0.26385847
000290 df 97 aa 3e d5 40 c3 3c cc cf 2e 3d f0 53 91 be
       0.33318993 0.023834625 0.04267864 -0.28384352
0002a0 cb 1a b3 3d 11 1f a6 bc bb 6c 88 bc 43 5b e1 bd
       0.08745345 -0.020278485 -0.01665341 -0.11003735
0002b0 2e 84 5e 3e e6 28 7a 3e 1b e2 ab be 6e 07 92 be
       0.2173011 0.24429664 -0.33570942 -0.28521293
0002c0 19 e4 b0 3d 3a df a7 3e 7d a5 d5 3d d3 d9 7f 3e
       0.08637256 0.32787496 0.10431955 0.24985437
0002d0 e2 10 fc 3d 53 10 fb bd 7f 37 63 3e 01 46 45 3e
       0.12307908 -0.12258973 0.22189139 0.19264986
0002e0 63 93 a2 bd 14 c9 33 3e ca b4 a8 3e 93 12 97 be
       -0.07938268 0.17557174 0.3295043 -0.29506359
0002f0 b6 4e b1 be d8 43 b0 be 73 34 a4 bd 13 b9 6b 3e
       -0.34630364 -0.3442676 -0.080178164 0.23019819
000300 d6 07 2c bd cf 1e 54 3e 1a 34 0b be 00 a2 36 be
       -0.04199966 0.20714878 -0.13594094 -0.17835236
000310 c2 99 88 be 6d 84 c2 bd bd 6b ed 3d 80 b0 31 3e
       -0.26679808 -0.094979145 0.11592815 0.17352486
000320 f0 ef 39 3e 36 51 4a be 0e 96 0e be 2b 8c 58 be
       0.18157935 -0.19757542 -0.13924429 -0.2114722
000330 67 14 16 bd ae 02 cc 3c b7 4a 7f 3e 5f c7 70 3e
       -0.03664055 0.024903622 0.24930845 0.23513554
000340 14 71 47 be 50 ec 1c be d8 95 b0 be 96 b0 9c 3e
       -0.1947673 -0.15324521 -0.34489322 0.30603474
000350 38 20 2f bb 61 f0 31 bd a4 23 c3 3b ba 0a ab be
       -0.0026722085 -0.043442134 0.0059551764 -0.3340662
000360 77 6b 23 be d1 6e a8 be ab 6d 88 3e 53 e5 8b 3e
       -0.15958963 -0.32897046 0.2664617 0.27323398
000370 91 a3 28 3e 69 0a 22 3e 5c 98 8e be 4b 6a 9b 3d
       0.16468646 0.15824284 -0.27850616 0.07588633
000380 c9 9c ec bd 2d 7b af 3e b7 32 41 3e 78 72 3d be
       -0.11553342 0.34273663 0.18867002 -0.18500698
000390 17 82 b1 bd af 49 f8 3d 31 78 20 3d 1c bd 9f 3e
       -0.08667391 0.12123429 0.039177123 0.31198967
0003a0 6f d9 87 be 1f 3e 2e be 7a e5 92 3e 0b 1e 2b 3e
       -0.26533076 -0.17015885 0.28690702 0.16710679
0003b0 96 0f 39 be c6 73 75 be 27 39 9c bd 5c 37 55 bd
       -0.18072352 -0.23969945 -0.076280884 -0.052054748
0003c0 c2 ad a2 3d 8f f0 76 3e 7f 01 0e 3c 66 f3 d8 3d
       0.07943298 0.24115203 0.008667349 0.105932996
0003d0 e1 9a e3 bd 45 32 8e be b7 6f 8f be 5d eb b2 3e
       -0.11113525 -0.27772728 -0.2801492 0.34945193
0003e0 bd ac 9d be 8d a7 38 be 50 3e c3 bb 25 aa e5 3c
       -0.3079585 -0.18032666 -0.005958356 0.028035233
0003f0 c3 35 29 3d d5 47 b2 3e 63 17 62 3e 60 84 68 bc
       0.041311037 0.34820428 0.22079234 -0.014191717

fc1.bias f4 [64]
000000 77 f2 0c 3e 5c 57 81 be 28 14 5e 3d dd 7c 1b 3e
       0.13764368 -0.25261962 0.05421844 0.1518435
000010 b0 4c 02 3e 4a 74 27 3e 4b bb 5f be b5 ab 7c 3e
       0.12724566 0.16352955 -0.2184879 0.24674876
000020 f8 05 5c be 3e e8 15 be 86 24 99 3e 4f 8e c2 3d
       -0.21486652 -0.14639375 0.29910678 0.094997995
000030 70 73 06 3d 5c 8d a9 bd 5c 6c a2 bd ae b8 d8 3d
       0.032824934 -0.08278915 -0.07930824 0.105821
000040 34 f0 58 be b7 2c 44 3e 2f 36 8f be ac 9d 28 3e
       -0.2118538 0.19157682 -0.27971026 0.16466397
000050 c2 7d 52 bd 1a 78 ef 3d ed 5e e2 3b 73 40 22 be
       -0.051389463 0.116928294 0.0069082887 -0.15844898
000060 55 8c 92 3d b4 c3 56 3e ba ea 4c 3e d7 22 ba bb
       0.071556725 0.20973092 0.20011416 -0.0056804228
000070 df 70 45 bd 8f 64 78 3e a5 7e b1 bc 67 1e 50 3e
       -0.048203345 0.2425711 -0.021666834 0.20324098
000080 25 46 ab be 3f 78 a2 3e 70 1a 94 be d1 1e b4 b9
       -0.33451954 0.31732365 -0.2892642 -0.00034355235
000090 81 37 bd bc a0 e7 1d 3c c3 21 86 3e 9f 07 7f be
       -0.023097755 0.009637743 0.26197633 -0.24905251
0000a0 13 55 14 be 53 8d 4b 3e b7 40 46 3e 9e c9 83 3d
       -0.14485578 0.1987813 0.19360624 0.0643494
0000b0 b9 c5 5e be 83 f2 3a 3c 22 4c 86 be 72 19 4e be
       -0.21755113 0.011410358 -0.2622996 -0.20126894
0000c0 6d 74 a8 3e f1 00 93 3d 16 1b 0a be ac 23 a9 3d
       0.32901326 0.07177914 -0.13486895 0.08258757
0000d0 eb 42 aa 3e 5b 9e 4b 3e 26 46 22 be bb e2 a7 be
       0.3325418 0.19884627 -0.15847072 -0.3279017
0000e0 f6 78 3a be 50 7d 51 be 28 1b 1c 3e 78 f5 78 be
       -0.18210205 -0.20457959 0.15244734 -0.24312389
0000f0 25 ab af bd 05 07 8b 3e 37 cd 48 be 9c 71 87 3e
       -0.08577565 0.27153793 -0.19609533 0.26453865

fc2.weight f4 [64, 64]
000000 ac 7e 95 bd b0 98 48 3d 5d ea 1d bd bf 34 c4 3d
       -0.07299551 0.04897374 -0.038553584 0.09580373
000010 df 2b 76 3b d6 a5 85 3d c5 66 38 3c 50 67 9e bd
       0.003756277 0.06525771 0.011254971 -0.07734549
000020 87 94 01 be b6 e4 ad ba ab 23 72 3d 4e 69 9d bc
       -0.12654315 -0.0013267014 0.059116047 -0.019215252
000030 27 05 98 3d 06 6a 18 3d de 02 96 bd d4 ff df 3d
       0.07422858 0.037210487 -0.073247656 0.10937467
000040 68 d6 ce 3d fc fc c8 bd f0 d0 61 bd 6c ea 71 bd
       0.100994885 -0.09813878 -0.0551309 -0.059061453
000050 e9 1e 02 bd d4 13 21 bd 5b 5e 5f bd 7d 04 f4 3d
       -0.03176776 -0.03932555 -0.054533344 0.119149186
000060 76 f0 1b bd 95 af 72 bd de f3 a7 3d c3 bf 4f 3d
       -0.03807112 -0.05924948 0.08200811 0.050719988
000070 ea 3f d8 bb c6 fe 00 3d 0a a7 a6 3c 12 79 7f 3d
       -0.006599416 0.03149297 0.020343322 0.06237132
000080 bf bd 27 bc a5 b9 8d 3d 60 84 a4 3d 80 e8 ce 3c
       -0.01023811 0.069201745 0.08033061 0.025257349
000090 c3 f9 d6 bd a7 7a f1 bd d7 63 74 bd 00 7f 9a 3d
       -0.10496857 -0.11790972 -0.059665527 0.075437546
0000a0 56 fd 43 3d 9a aa a6 3d 8e 16 96 bd 58 2e c1 3d
       0.04784902 0.081380084 -0.07328521 0.094326675
0000b0 06 8c 95 3d 8c 32 89 bd 81 30 ea bc 7d a1 a2 bd
       0.07302098 -0.06699094 -0.028587582 -0.07940958
0000c0 df fd 6e bd d7 9f b3 3d f6 3b bd 3d 9d d8 a3 bc
       -0.05834758 0.087707214 0.09239952 -0.02000075
0000d0 dd 1e f2 bc 5b e6 e6 bd c0 eb f6 3c eb 1c f6 bd
       -0.029555732 -0.112744056 0.030141711 -0.120172344
0000e0 5c 86 01 be 31 6b d6 bd 79 5c a7 3d 9f 00 9c bd
       -0.1264891 -0.10469664 0.08171935 -0.07617306
0000f0 90 3d 83 3d 6c 6c a9 bd a1 7e db 3d fa 78 32 bd
       0.064082265 -0.08272633 0.10717512 -0.043572403
000100 46 4f 46 3d 37 ed b2 3d 1c a1 e8 3d 2a 4b 05 3d
       0.048415445 0.087366514 0.11358854 0.032542385
000110 63 78 25 3d 01 1a 74 3d b6 1f d3 3d 8b 3e 1b bd
       0.040398013 0.05959511 0.10308783 -0.037901442
000120 f5 9e 9b bd 1a dd 62 bd 51 88 cf bd 25 1c a0 3c
       -0.07598678 -0.05538664 -0.10133422 0.01954467
000130 70 39 ce bd b5 50 0c 3d 6c fe e1 3d 73 61 fd 3d
       -0.10069549 0.034256656 0.11034855 0.123721026
000140 e4 12 b1 bd 0e ed d5 bd a1 89 36 bd 9a 05 f8 3d
       -0.08646181 -0.10445605 -0.044564847 0.121104434
000150 ff 29 60 bd 2f 15 af 3d b9 68 79 3d d9 77 80 3d
       -0.05472755 0.08548962 0.060890887 0.06272859
000160 9f c2 c3 3d 31 8f 80 3d 68 c5 9c bd ba 3f 73 3c
       0.095586054 0.062773116 -0.0765484 0.014846737
000170 47 4d 3a bd fc fe 0e 3d ff bc 4f 3d 7b 3e 90 3d
       -0.045483854 0.03491114 0.05071735 0.07043167
000180 2e 04 98 bc e1 3e ca bd 73 28 74 bd ea ec cf bd
       -0.01855668 -0.098752744 -0.059608888 -0.1015261
000190 93 71 5a 3d dc f5 53 3d c0 08 de bd 48 a2 50 bd
       0.05333097 0.05174814 -0.10841513 -0.050936013
0001a0 6f 3a 84 3c 11 76 7c bd f8 46 82 3d 24 df 97 3d
       0.016141145 -0.061636034 0.063611925 0.074156076
0001b0 a4 ae e4 3d 2a 8a a0 3d 8c 59 e8 3d 9c dd 8b 3d
       0.111661226 0.07838853 0.11345205 0.06829378
0001c0 af 5a 02 be 4b e0 8a bc 3e bd 26 3d da bb e1 bc
       -0.12729906 -0.016952654 0.04070782 -0.027555395
0001d0 67 b4 15 3d 59 54 c0 3c 9d 98 f0 3d f4 1b dc 3d
       0.036549 0.02347772 0.11747859 0.10747519
0001e0 9c 49 a9 3d 0d f8 2f 3d 34 e1 cc 3d 3e bc 79 bc
       0.08265993 0.04296117 0.100038916 -0.015242634
0001f0 00 d0 be bd d3 2b 28 bd ba 82 d9 bd 4e 3c d2 bd
       -0.093170166 -0.04105742 -0.10620637 -0.102654085
000200 90 42 48 3c 0f ec 2c bd 47 33 e0 3c 8c 97 ad 3d
       0.012222901 -0.04221731 0.027368201 0.08476171
000210 a2 5f 6d 3d 39 dd b7 bd 9e be 88 bd a4 49 76 bd
       0.05795253 -0.08977742 -0.06676982 -0.060128823
000220 40 fc 95 3c e6 28 08 be a0 af 0f 3d 7b bf 66 3d
       0.018308759 -0.13296852 0.0350796 0.056334954
000230 7c 7e 00 be 88 7b 00 bd 86 00 aa bc cb 53 9e 3d
       -0.1254825 -0.03136781 -0.020752203 0.07730826
000240 ca 25 5a 3d ae 7e d8 bc fc 34 93 bd 20 b8 4f 3d
       0.053258695 -0.026427593 -0.0718784 0.050712705
000250 cf ea c8 bb a6 ee dc bd ff 7c 04 bc f4 92 e9 3c
       -0.006131507 -0.10787706 -0.008086442 0.028512456
000260 0a cd ab 3c 54 1e e7 3d 18 32 bb 3d 13 88 82 3c
       0.020971794 0.112850815 0.09140414 0.015934026
000270 bf 2c 75 bd e2 4c a0 3b 1d 27 be bd 33 ff d4 bd
       -0.059857126 0.0048919776 -0.09284804 -0.10400238
000280 b4 cb 87 3d 94 92 55 3d 05 1b 12 bc 44 2a 29 3d
       0.0663065 0.05214174 -0.008917575 0.041300073
000290 09 23 4d 3d 61 81 be bd 5f 9e d6 3d 48 6f 1c bd
       0.05008224 -0.09302021 0.10479426 -0.038192064
0002a0 27 7b f2 3d 55 93 e3 3b 5b e8 8a bd db 75 f4 3d
       0.11839896 0.0069450536 -0.067825995 0.11936542
0002b0 e7 1c 90 bd 21 d1 8f 3d e5 da a1 3d 08 47 32 3d
       -0.07036763 0.0702231 0.07903079 0.043524772
0002c0 63 e8 5a bd c3 0d 0f bd 9f ac d3 3d 11 21 d9 ba
       -0.053444277 -0.034925234 0.10335659 -0.0016565641
0002d0 93 22 fb bd 5f 88 12 3c c1 80 df 3d 2a b1 de 3d
       -0.12262454 0.008943646 0.1091323 0.10873635
0002e0 cc 2b fc 3c ba b2 33 3d 77 8b 0d 3d 05 45 be 3d
       0.030782603 0.04387162 0.034556832 0.09290508
0002f0 22 59 4f bd 38 24 91 3d 92 3f a4 3d 10 e4 4b bc
       -0.050622113 0.07086986 0.080199376 -0.012444511
000300 06 77 4c 3a 7a d7 ad bc 2c ed bd bd 55 be 15 bd
       0.00077997183 -0.021220911 -0.092737526 -0.036558468
000310 32 3f 05 bd b8 b8 aa 3d 99 72 c1 3c 89 6e 8c 3b
       -0.03253097 0.083360136 0.023614215 0.0042856378
000320 22 c5 2c bd c3 0a f9 bc 16 34 f4 3d 1a b1 2f bd
       -0.042180188 -0.03040064 0.11923997 -0.042893507
000330 62 67 7c bd 77 b2 d9 bd be c4 8b bc 8d 9a cc bc
       -0.06162203 -0.106297426 -0.017061587 -0.02497604
000340 d8 12 9d bd 9c ac 38 3d 81 80 e1 3c 86 02 20 3d
       -0.0766961 0.045086488 0.027527096 0.039064907
000350 0f b6 59 3d 0f 76 e4 bd ba 16 89 3d 4c fc d5 3d
       0.05315214 -0.111553304 0.06693788 0.104485124
000360 78 f7 c7 3d 37 ad e4 bd 54 84 ca bd ee ba 6a 3d
       0.09763998 -0.111658506 -0.09888521 0.057307176
000370 ae c6 9c 3d dd f8 6a 3d 71 32 4c 3c 5f dc 3b bd
       0.07655083 0.05736624 0.012463198 -0.04586446
000380 b4 90 db bd b7 50 b4 bd 17 30 88 3d b4 78 c0 bb
       -0.10720959 -0.08804458 0.066497974 -0.005873764
000390 78 23 db 3d d9 97 9b bd 44 a8 98 3d 8a bb 83 3d
       0.107001245 -0.07597322 0.07453969 0.064322546
0003a0 db 19 87 bd 8b 67 e9 3d b6 72 01 3d 62 43 d4 3b
       -0.065967284 0.113967024 0.031603537 0.006477759
0003b0 38 4d a3 3d 1b b6 d2 bd 31 2a 6c 3d 8f 9e 37 3d
       0.07973713 -0.1028864 0.057657424 0.044828948
0003c0 08 5c e3 bd 84 9d 7a 3d e7 65 00 bd d7 97 de bc
       -0.11101538 0.061185375 -0.03134718 -0.027172012
0003d0 b6 38 7e 3d d9 45 d7 3d bf 42 e6 bc 6e 27 9b bd
       0.062065803 0.10511369 -0.028107999 -0.0757588
0003e0 93 49 c0 3c 90 c0 34 3d 3c ec f9 3a 3c c2 b0 3d
       0.023472583 0.044128954 0.0019067596 0.08630797
0003f0 3d 51 de bd 98 7e 80 3d 20 fa 80 3d 9d 16 21 bd
       -0.10855339 0.06274146 0.062977076 -0.039328206

fc2.bias f4 [64]
000000 f7 c3 83 bd d9 ca a8 3d 47 2c 6c 3d f3 a6 ab bc
       -0.06433862 0.08241815 0.057659414 -0.020953631
000010 55 57 a6 bd ba ef bb bd cb fb 56 bd 0f e6 b8 bd
       -0.08122126 -0.091765836 -0.052486222 -0.09028255
000020 a8 a2 e1 bd 79 34 ba bd 65 dc 8c 3d 1f 13 bd 3d
       -0.11017352 -0.090920396 0.068779744 0.09232163
000030 b2 cb f4 3d de ad 93 bd 0a 4c 3a 3b 29 05 13 bd
       0.11952914 -0.07210897 0.002842667 -0.035893593
000040 eb b5 da 3d ce 14 d5 3b 1b ab d5 bd a2 b8 59 3d
       0.10679229 0.0065027243 -0.104330264 0.053154595
000050 80 0e a1 3d dc d0 bb bd c5 11 65 3d 7b b8 eb 3c
       0.07864094 -0.09170696 0.05592515 0.02877449
000060 31 18 00 bd 2c 35 dd bc 26 bc 43 3d 55 54 6c bd
       -0.03127307 -0.027002893 0.047786854 -0.057697613
000070 dd ec 66 bd 1a 08 e8 bd 35 75 8a 3d 44 b9 53 b9
       -0.056378234 -0.1132967 0.06760637 -0.00020191545
000080 9a b3 0c bd 21 8e 4f bd fd 41 c8 bd a4 50 fc bc
       -0.03435097 -0.050672654 -0.09778211 -0.030800171
000090 a2 91 a3 bc 9e f6 40 bd aa 08 d7 3d 5e d7 8a 3d
       -0.019966904 -0.047110192 0.104996994 0.06779359
0000a0 a6 f9 b9 bd b6 2a fa bd 58 e3 9d bc 06 df d3 bd
       -0.0908082 -0.12215178 -0.019273445 -0.10345273
0000b0 1d c0 1c bd ad c2 e0 3d 7a a1 09 bb 49 0c c8 3d
       -0.03826915 0.109746315 -0.0021000789 0.09767968
0000c0 12 c1 0d 3c 77 b3 dc 3d 7c e1 7d bd 66 a2 eb bd
       0.008651989 0.10776418 -0.061982617 -0.115055844
0000d0 6b f6 dc bc 1b 6d a0 3d 6f 6b 01 3e 2d fa c4 3d
       -0.02697297 0.0783331 0.12638639 0.0961803
0000e0 8a 6a b2 bc 60 53 fa 3c 93 c2 1e bd 0d b1 eb bc
       -0.021779317 0.030557334 -0.03875978 -0.028770948
0000f0 90 ce a7 3b 5d 59 ad 3d 95 90 24 3d e5 04 0b 3d
       0.0051210597 0.0846431 0.040176947 0.033940215

fc3.weight f4 [64, 64]
000000 03 e0 c9 bd 9a 14 d9 bc a5 13 22 3d 5c b4 60 bd
       -0.0985718 -0.026499081 0.039569516 -0.054859504
000010 da 9f 8b 3b 15 b4 de bd e9 58 8d ba 16 4c 58 bd
       0.004260999 -0.10874192 -0.0010783944 -0.052806936
000020 16 09 a2 3d 66 d5 af bd 1d be 09 3d 63 fa d1 3d
       0.07911889 -0.085856244 0.03362857 0.102528356
000030 ea 72 7d bd b0 87 f6 bd ec e0 00 3c 77 fc 7d 3d
       -0.06187717 -0.12037599 0.007866126 0.062008347
000040 90 20 b7 bd 69 36 15 3d a7 5c 0d 3d 97 00 9b 3d
       -0.08941758 0.036428843 0.03451219 0.07568472
000050 09 d5 b4 bd e7 dc f7 bd bf d0 75 bb 7b 0d e1 bc
       -0.08829696 -0.12102681 -0.0037508456 -0.027472248
000060 e1 c9 57 bd 7d 4d eb 3d 12 12 d8 bd 72 ff ae bd
       -0.05268276 0.11489389 -0.10550322 -0.08544816
000070 01 1c b3 3d 4c e1 3c 3d 12 5e af 3b 61 ac e0 3d
       0.08745576 0.046113297 0.00535179 0.10970379
000080 6a d7 84 3d b4 24 f4 bd a6 c7 ee 3d 51 d4 fb 3c
       0.064863995 -0.11921063 0.11659174 0.030740889
000090 72 51 57 bd 0b bb b6 bd 31 19 ad bd 14 dd 03 bd
       -0.052567907 -0.08922394 -0.084520705 -0.03219326
0000a0 40 97 a8 bd c6 00 6b 3d 67 5f cd 3c 9f fe 00 3d
       -0.08231974 0.057373784 0.025069905 0.031492826
0000b0 5b 81 a1 bd e1 eb 49 3c a1 67 3b 3d 7e 84 27 bd
       -0.07886001 0.012324304 0.045753125 -0.04089784
0000c0 1a ce 54 3d 11 b7 d1 3d e6 95 16 3d 98 2e 58 3d
       0.051954366 0.10239995 0.036764048 0.05277881
0000d0 e6 43 30 3c 19 31 c8 3d 7b 2a 90 3d 48 9e 58 3d
       0.010758376 0.0977499 0.070393525 0.052885324
0000e0 c4 20 40 bb 21 6b 1f 3d ff a9 8c bd ac 1e ca bd
       -0.0029316405 0.038920525 -0.06868362 -0.098691314
0000f0 a0 71 f0 bd 57 b5 fc 3d 17 0c b4 bd 28 58 f7 bc
       -0.11740422 0.12339275 -0.087913685 -0.030193403
000100 a4 8e 95 bd 4d df 2b bd 41 90 f5 3d 6d a1 a4 3c
       -0.07302597 -0.041961003 0.11990405 0.020096505
000110 35 fc b2 3c 11 f0 fb bd 7a 7b 5b 3d 49 79 1c 3d
       0.021848777 -0.123016484 0.053584553 0.038201604
000120 d6 8c 84 3d 70 c7 c5 3d 6a 4f 9c 3d 52 dc b5 bc
       0.06472175 0.0965718 0.076323345 -0.022199783
000130 9c 99 a4 bb 3f 62 94 3d 12 a5 6f bd bf fb 7e 3d
       -0.0050231945 0.072453015 -0.058507033 0.062251803
000140 9e 41 38 3c 6d bc b3 3d 4f ce f8 3d fb b8 4d bc
       0.011246113 0.08776174 0.12148725 -0.01255631
000150 86 d6 dd bd 1f 96 a2 3c 11 38 65 3d e3 14 49 3c
       -0.10831933 0.019846974 0.055961672 0.012273046
000160 fd 71 ae 3b a5 49 8c bd 12 0f e5 bd 9c ca df 3d
       0.005323647 -0.06849984 -0.11184515 0.109273165
000170 a9 2a 2e 3d 29 e1 94 3d ea b4 8f 3d ed a4 e5 bd
       0.042521153 0.072695084 0.070169285 -0.11213098
000180 4c 29 ce 3d dc 9f 47 bd 14 5a cb bb 9e 07 bf bc
       0.100664705 -0.04873644 -0.0062058065 -0.023319062
000190 de c9 4c 3d 48 2a a6 3d 27 01 58 3d 82 f3 05 3d
       0.049997203 0.08113533 0.052735474 0.03270293
0001a0 62 7a 36 bc 1f 24 77 bd 86 e8 b4 3d 41 0e 86 3d
       -0.011137577 -0.060337182 0.08833413 0.065456875
0001b0 1e 70 87 3c ad 38 e6 bd d4 d2 80 bc 67 3a 13 3d
       0.016532954 -0.11241279 -0.01572553 0.03594437
0001c0 19 88 4f bd fa 12 57 3d 2b 6a d1 3c 70 1a 86 bd
       -0.050666902 0.05250833 0.02556332 -0.06548011
0001d0 e9 31 3c bb d5 f3 92 3b c9 03 dc 3c 8e be 18 3d
       -0.0028716272 0.0044846334 0.026857274 0.037291102
0001e0 98 f4 af 3d 27 85 e4 bd 48 9b 1c 3d 61 d9 87 bd
       0.085915744 -0.11158209 0.038234025 -0.066332586
0001f0 1e 41 c0 3d 48 24 ab 3d e6 8d 3c bd f4 b4 17 3c
       0.0938742 0.083565295 -0.046033762 0.009259451
000200 ee d3 e9 bd d8 21 aa 3d e2 bd f5 bd 87 07 cb 3d
       -0.114173755 0.083072364 -0.11999108 0.09913545
000210 e9 23 c1 3b e0 0a 70 3d 2a b4 ad bd 28 b1 d6 bc
       0.0058941734 0.05860412 -0.08481629 -0.026207522
000220 f3 24 70 3c e1 a0 c0 bd 4b 32 61 3d 7f 81 bf 3d
       0.014657247 -0.09405685 0.054979604 0.09350871
000230 61 04 e6 3d 0e f1 8b bd 43 ef ea bd b5 b7 b6 bc
       0.11231304 -0.06833087 -0.11471417 -0.022304395
000240 b2 62 7f bc 01 72 8d bd d6 e2 ce 3d a5 1d 7e 3d
       -0.015587496 -0.0690651 0.10101859 0.06203999
000250 2e 78 19 3d b5 c5 b6 3d 24 a8 cd 3d 1f cb 9f bd
       0.037468128 0.089244284 0.10041836 -0.07802414
000260 5d 4a 85 bd d2 16 88 bd 1a 23 a1 3d da 93 ad 3c
       -0.06508324 -0.06644978 0.07868023 0.021188665
000270 14 d7 91 3d 17 ed 0b be 26 e4 c6 3d 10 b3 b0 3c
       0.07121101 -0.13664661 0.097114846 0.021569759
000280 44 97 d2 39 69 ea f8 3c f6 0f a7 bc 43 78 84 3d
       0.00040167023 0.030385213 -0.020393353 0.064682506
000290 14 18 9d 3d 69 b2 02 3d f1 95 a5 3b be 99 fb bc
       0.07670608 0.031908426 0.005053275 -0.030712958
0002a0 0d 72 a3 3a 5b c9 8b 3c 9b ee a5 bd e4 de d7 bc
       0.0012469903 0.017063787 -0.08102151 -0.0263514
0002b0 a5 5d f8 bd f8 93 42 bc bb ff 9c 3d 4b 18 c5 3c
       -0.12127236 -0.011876099 0.07665964 0.024059435
0002c0 9c fc f9 bd 33 ae 8f 3d fa 63 a2 3d 2a b7 47 bd
       -0.122063845 0.07015648 0.07929225 -0.048758663
0002d0 68 6f b2 bc f7 82 a6 3c 60 23 09 bb d6 e7 7e bd
       -0.021781638 0.02032612 -0.0020925626 -0.062232815
0002e0 43 90 bb 3d 52 4e c9 bc 32 7d ae bc f5 82 dd bb
       0.09158375 -0.024573479 -0.021299932 -0.006759996
0002f0 da 28 da bd 6f 14 a9 3d 26 3c d2 3d 26 b5 4d bd
       -0.10652323 0.082558505 0.10265379 -0.050221585
000300 f1 8c cc 3d 93 45 95 bd 26 6b 6e 3d 7d 14 8e 3d
       0.0998782 -0.07288661 0.058207653 0.069375016
000310 75 39 07 bc ec 04 67 bd e3 b3 40 3d c5 a9 3b 3d
       -0.008253445 -0.05640118 0.047046553 0.0458162
000320 59 f1 7f bd d0 3f 88 bd 69 57 b4 3c aa d9 31 3d
       -0.062486026 -0.06652796 0.022014337 0.04342047
000330 83 b9 68 3c fc 48 9c bd 88 be 9c bd 3b 66 b4 3d
       0.014204386 -0.07631108 -0.076535285 0.088085614
000340 57 4a 24 bd 80 ac 67 3d 24 44 c4 bd f0 85 56 bd
       -0.04010996 0.056560993 -0.09583309 -0.052373827
000350 6c 9f c2 3d 1a 1c 39 bd 7c 70 57 3c 5b 32 ae 3d
       0.095030636 -0.045192815 0.013149377 0.08505698
000360 62 c4 e4 bd d9 80 9e 39 ce 92 b0 bd 0d d2 3e 3c
       -0.111702695 0.00030232107 -0.08621751 0.01164676
000370 16 b4 cb bc 5a 6c 93 bd 9c ad bf bd e8 db c0 bd
       -0.024866145 -0.07198401 -0.09359285 -0.09416944
000380 d8 c2 9d 3d 9e f4 84 bd b4 ac a2 3d 83 83 ff 3c
       0.07703179 -0.064919695 0.07943097 0.03119064
000390 9a 2f d5 bd a4 58 46 3d 26 75 73 3d a0 13 ee bd
       -0.1040947 0.048424378 0.059437893 -0.11624837
0003a0 21 90 90 3b 9f 77 a4 3d 57 da 03 3e e1 12 9a 3c
       0.0044117128 0.080306284 0.12876259 0.01880783
0003b0 a0 4f 81 3d 18 4f dd bd b0 42 b1 bd f4 df f2 bc
       0.063140154 -0.108061016 -0.08655298 -0.029647805
0003c0 a2 68 e0 3d b7 9d 85 bc ce 41 0b 3d 30 4b 9e 3d
       0.10957457 -0.016310556 0.033998303 0.07729185
0003d0 51 97 9e bd d2 27 fd 3c 15 43 5d 3d 1c 1b 50 3d
       -0.07743705 0.030902777 0.054019053 0.050807104
0003e0 e6 df d1 3d fe 6e da 3d 10 a2 80 3d 4f 28 fd 3c
       0.10247783 0.10665701 0.06280911 0.03090301
0003f0 b5 41 85 bd 29 8e 8e 3d 1b 39 bb 3d a4 c7 1c 3d
       -0.06506673 0.06960709 0.091417514 0.03827633

fc3.bias f4 [64]
000000 c4 a4 a5 bd f9 67 f4 3d 90 50 e9 bd 3f 70 c3 3d
       -0.08088067 0.11933894 -0.11392319 0.095428936
000010 65 d7 9f bc b3 30 bb bd bf 5e db bd 47 2a b6 3d
       -0.019511888 -0.09140148 -0.10711431 0.088947825
000020 b9 cc a4 3d 66 6b f8 3d 72 8e 0a bd 5e dd 68 bd
       0.0804686 0.121298596 -0.033827253 -0.056851737
000030 b0 b0 1e 3d 28 b5 c4 bd 16 12 8b bd dc 73 e4 3d
       0.03874272 -0.09604865 -0.06790559 0.11154911
000040 c4 7a ef bd 53 0c 97 3b e1 50 8f 3c c9 df ba bd
       -0.116933376 0.0046096235 0.01749462 -0.09124715
000050 5d e2 5e 3d 5f 78 c6 bd 5e 7e 2b 3d 8e c3 71 bd
       0.054415096 -0.09690928 0.04186856 -0.059024386
000060 7b 2f b1 3d d9 0b 9b 3d 39 0c e8 3c e5 ba be 3d
       0.08651634 0.07570619 0.02832614 0.09312991
000070 a7 01 8a 39 f7 43 9b bc 1e 71 e2 3d 95 1c 13 bd
       0.00026322642 -0.018953307 0.11056732 -0.03591593
000080 66 fc eb 3b cc e6 68 bd 74 a2 f8 3d 0f 4e 9e bd
       0.007201719 -0.05686073 0.121403605 -0.07729732
000090 0a 78 af bc 77 26 e8 3c b4 39 d7 3d 7c 3a b8 3d
       -0.021419544 0.028338654 0.10509053 0.0899553
0000a0 84 35 30 3c ca 1b de bc 37 46 78 3d b8 5f 94 3c
       0.010754947 -0.02711286 0.060613837 0.018112049
0000b0 b9 c6 7a bd 8f 05 d1 3d bd 4a c6 bd 23 b3 b5 bc
       -0.061224673 0.10206138 -0.09682224 -0.022180146
0000c0 99 83 b9 3d 92 c5 ed bd 79 c6 d6 bd 47 7d 03 bc
       0.090583034 -0.11609949 -0.104870744 -0.008025474
0000d0 38 1a e6 3d 5a e7 ba 3c 84 03 46 3d 8b 5e fa bd
       0.112354696 0.022815395 0.048343197 -0.12225064
0000e0 40 f3 35 bd 7d 12 ee bd 5f cd 81 3c bc 90 d2 bd
       -0.044421434 -0.1162462 0.015844999 -0.10281512
0000f0 05 c8 ce 3d 11 c3 bd bb 2a eb d9 bd e7 b8 89 3c
       0.100967444 -0.005791076 -0.10640557 0.016811801

out.weight f4 [2, 64]
000000 4c c0 b1 3d f8 86 c4 bc 23 57 0e bc e4 f8 eb bd
       0.08679256 -0.02399014 -0.008687767 -0.115220815
000010 22 73 ee 3d dc f2 ad 3d 55 dc 16 3d 06 c4 56 3d
       0.116430536 0.084935874 0.03683122 0.052433036
000020 f6 f1 64 bd 00 75 bb 3d 24 23 45 bd a1 4a cc bc
       -0.055894814 0.09153175 -0.048129216 -0.02493793
000030 24 cf c3 bd 57 89 b1 3d 46 8c 00 3e c2 d9 15 bd
       -0.09560993 0.086687736 0.1255351 -0.036584623
000040 1c f3 c6 bd 9b 05 9d 3d f1 15 9a bd a7 57 bc 3d
       -0.09714338 0.07667085 -0.07523716 0.09196406
000050 20 50 61 bc a5 fe ec bd 4b 0d 05 be 1f ee e5 3d
       -0.013752013 -0.11572007 -0.12993352 0.112270586
000060 18 cf bc bc 68 22 ff 3c c3 ec 8d bd 4c 6b ae 3d
       -0.023047969 0.031144336 -0.06929924 0.08516559
000070 dd d4 97 bc 95 97 3f bc 29 82 0b bd 30 c4 30 3b
       -0.018534118 -0.011693855 -0.034059677 0.0026972406
000080 3b cf 08 3c 75 cd 07 3d f2 9a 00 bd c1 28 83 bd
       0.008350189 0.033154923 -0.031397767 -0.064042576
000090 fb e0 4e 3d 47 95 0d bd b3 1e a4 bc 61 31 c4 3c
       0.050507527 -0.03456619 -0.02003417 0.023949327
0000a0 55 83 bc bc 85 a8 e0 bd 2c 00 e1 3d 12 8b 30 bd
       -0.023011843 -0.109696425 0.10986361 -0.043101378
0000b0 08 c2 92 bd 08 72 93 3d b6 c6 86 bc 48 3e a9 bd
       -0.07165915 0.07199484 -0.016452175 -0.08263832
0000c0 d0 f0 31 bd 0d ef 4c bc 93 14 b0 3c 9f e2 61 3c
       -0.043442547 -0.012508166 0.021494186 0.013786941
0000d0 16 bb 06 3e 5f c5 1b bd c3 b1 06 be 3a 97 9b 3d
       0.13157305 -0.038030025 -0.13153748 0.075972036
0000e0 11 f8 81 3d 49 0b 08 bd 7e 06 50 bd 75 0c 5b 3d
       0.06346143 -0.033213887 -0.05078744 0.053478677
0000f0 ba 61 91 3c 79 bd c5 bd bf 43 88 3a da c3 ce 3d
       0.017746795 -0.0965528 0.0010396166 0.100959495
000100 d4 f3 91 bd 89 b5 83 3d 59 12 b8 bb 36 c1 b6 3c
       -0.07126585 0.064311095 -0.0056174216 0.022308927
000110 1b c9 a8 bc 2a 44 1f bd 38 8d 84 3d 39 86 db bd
       -0.020603707 -0.038883366 0.06472248 -0.1071896
000120 29 36 ac 3d ad 03 a2 3d 13 f4 ad bd 12 fc 30 bc
       0.08408768 0.07910857 -0.08493819 -0.010802286
000130 14 ac f0 3c a6 bc 98 3d a0 44 2d 3a 3c ec 20 3c
       0.029378928 0.07457857 0.0006609652 0.009821948
000140 4f 9e 46 3d 48 b0 90 bb f2 3e 96 3d 06 b8 f4 bc
       0.04849082 -0.0044155456 0.073362246 -0.029872905
000150 8e 66 99 bd 90 72 f8 bc 9c 81 6e bd 91 2c 0f 3c
       -0.07490264 -0.030328065 -0.058229074 0.008738653
000160 09 e6 01 bc ef 49 dc bd fe ce fa 3c c9 04 b4 3d
       -0.00792838 -0.10756289 0.03061628 0.08789975
000170 59 e4 3a 3d c9 62 d9 3d 21 6c 8c 3d 0b a0 9b bd
       0.045627926 0.10614545 0.068565615 -0.07598885
000180 15 94 44 bd b6 3b fa bb c3 04 e2 3c b9 c7 e8 3d
       -0.047992785 -0.0076365126 0.027590161 0.11366219
000190 5c 57 f9 3d b9 3b c0 bc 03 c6 8a 3d 5e 80 4f bd
       0.121748656 -0.023465978 0.06776049 -0.05065953
0001a0 64 10 e3 bd 61 b7 fa 3d d3 ba be 3c 94 14 41 ba
       -0.11087111 0.12242008 0.023282444 -0.0007365432
0001b0 45 99 ce bd 67 b1 c0 3d 69 dc db 3d 13 60 8c bd
       -0.100878276 0.09408837 0.10735399 -0.06854262
0001c0 f3 0d 0f bc 1f 2b 0a bd 89 41 9a 3c 7d 15 14 bd
       -0.008731353 -0.03373253 0.018830078 -0.036153305
0001d0 c8 33 94 3d db 95 f3 bd 6a 75 b6 bc 4f 32 51 3d
       0.07236439 -0.11893817 -0.022272784 0.05107337
0001e0 43 c0 e5 3d 8c 47 2d bd 53 08 a1 bd 78 a6 b7 bd
       0.11218312 -0.04230456 -0.07862916 -0.08967298
0001f0 00 f4 97 bd 60 23 8a 3d 42 17 4a 3c 1b 26 22 bd
       -0.07419586 0.067450285 0.012334647 -0.03958712

out.bias f4 [2]
000000 85 15 06 be 1d fd 2b bb
       -0.13094147 -0.0026243397
