Santiago_version/models/Umbumping_cars_V4.pth (torch, 39352 bytes, 8 tensors)

fc1.weight f4 [64, 8]
0	0xbd343d97	-0.04400405
1	0xbe282b22	-0.16422704
2	0x3e16a6eb	0.14712112
3	0x3e548397	0.20753323
4	0x3e91b767	0.28460237
5	0x3f9af4a1	1.2105905
6	0xbe2e5711	-0.170254
7	0xbe489f46	-0.19592008
8	0x3ce0d007	0.027442945
9	0x3d26b7be	0.040702574
10	0x3dbe43c3	0.09290268
11	0xbd23f58f	-0.040029105
12	0x3e83ec78	0.2576635
13	0x3ea265fa	0.31718427
14	0x3dfee639	0.12446255
15	0xbcfe61f8	-0.031052575
16	0xbe036de8	-0.12834895
17	0xbde986b0	-0.11402643
18	0x3bd3fdcd	0.0064694644
19	0xbe1f82d7	-0.15577255
20	0x3f08b799	0.5340515
21	0x3eb97b23	0.36226758
22	0x3d21c454	0.039493874
23	0xbd9647e4	-0.07337931
24	0x3d97e6eb	0.07417091
25	0xbd9a3962	-0.07530476
26	0xbc84ea34	-0.016224958
27	0x3e33732f	0.17524408
28	0x3d203c64	0.039120093
29	0xbe305958	-0.17221582
30	0xbea299cc	-0.31757963
31	0x3e71399d	0.23557134
32	0x3d4a6a8d	0.04941802
33	0x3e3cb8a8	0.18429816
34	0x3c1713b0	0.009221002
35	0xbe6f892f	-0.23392175
36	0xbf0cdd3d	-0.5502508
37	0xbf88ff19	-1.070285
38	0x3e3eb545	0.18623836
39	0xbc1b821c	-0.00949147
40	0x3e09ba9d	0.13450094
41	0xbe176aba	-0.14786807
42	0x3e566b28	0.20939314
43	0xbe9ec67d	-0.3101081
44	0x3e8be460	0.27322674
45	0x3ee31693	0.4435316
46	0x3c5e86a5	0.013581906
47	0x3ea75864	0.32684624
48	0x3e6ef3ca	0.23335186
49	0x3e8cdfc1	0.2751446
50	0xbaa88e15	-0.0012859727
51	0x3e1336da	0.14376393
52	0xbeff918b	-0.49915728
53	0xbd8f364d	-0.06992779
54	0x3e4f1bcb	0.20225446
55	0xbeab2dfe	-0.33433527
56	0x3e8e1d59	0.27756765
57	0x3e87b323	0.26503858
58	0x3d609bce	0.054836087
59	0xbd3483a8	-0.04407087
60	0xbeb9833b	-0.36232933
61	0xbf9973b0	-1.198843
62	0x3e459e7c	0.19298738
63	0xbe7440c4	-0.23852831
64	0xbea217cd	-0.31658784
65	0x3d263fc7	0.040588167
66	0xbdfee848	-0.12446648
67	0x3baedef5	0.005336637
68	0x3f11745a	0.56818163
69	0x3ecfdcab	0.40598044
70	0xbe3097bc	-0.17245382
71	0xbda7e5af	-0.081981055
72	0x3d3967fa	0.045265175
73	0xbeb0932c	-0.34487283
74	0xbe8ee484	-0.2790872
75	0x3d15442a	0.03644196
76	0x3e06cfe8	0.13165247
77	0x3d2a5811	0.041587893
78	0xbe3e236b	-0.18568198
79	0x3e569334	0.20954591
80	0xbcbe4b77	-0.023229344
81	0x3d07af46	0.03312614
82	0xbd5f13db	-0.054462295
83	0xbe949ad8	-0.29024386
84	0x3e58df36	0.21178898
85	0xbdcaa23e	-0.098942265
86	0xbdfdb5c4	-0.12388185
87	0xbd97eb29	-0.074179
88	0xbec3d9b8	-0.38252044
89	0x3d8628bb	0.065507375
90	0xbe3516ef	-0.1768453
91	0x3d8bff73	0.068358324
92	0x3e6803f9	0.22657765
93	0x3ea58a84	0.32332242
94	0xbdb12043	-0.086487316
95	0x3d85ebce	0.06539117
96	0x3e61aee5	0.22039373
97	0x3eaeb60f	0.34123275
98	0xbe5cb5e6	-0.21553764
99	0x3e353b1a	0.17698327
100	0xbf6059e8	-0.87637186
101	0xbf884ac1	-1.0647813
102	0xbe5f97e0	-0.2183528
103	0x3e8a8cd3	0.27060565
104	0x3e48b53b	0.19600384
105	0x3e4f0ca6	0.20219669
106	0xbd885e82	-0.06658651
107	0xbe289000	-0.16461182
108	0xbf536cac	-0.82587695
109	0xbf97aba1	-1.1849252
110	0xbe3480d5	-0.1762727
111	0xbdd9b359	-0.10629911
112	0x3df655da	0.12028094
113	0x3aff0ef8	0.0019459417
114	0x3dfacece	0.12246476
115	0xbe8b09ca	-0.27155906
116	0xbeebc1ca	-0.46046287
117	0xbe9d9238	-0.3077562
118	0x3dbc3691	0.09190095
119	0xbe4a8145	-0.19775875
120	0x3e48b536	0.19600376
121	0x3eaf8daa	0.3428777
122	0xbe40cb0a	-0.18827453
123	0x3e9da8e8	0.30792928
124	0xbed76df9	-0.4207609
125	0xbf342dc6	-0.70382345
126	0xbe3e31ac	-0.18573636
127	0x3e7fbbf7	0.24974047
128	0x3ac486ca	0.0014993784
129	0x3d7a4a0a	0.061105765
130	0xbd995db8	-0.074885786
131	0x3e1ffdb2	0.15624121
132	0xbd4dc509	-0.050236735
133	0x3ecb09eb	0.39656004
134	0x3e8081a8	0.2509892
135	0x3e27404c	0.16333121
136	0x3de8239d	0.11334918
137	0xbe94168e	-0.28923458
138	0x3e07b281	0.13251688
139	0x3c5acac2	0.013354005
140	0x3eb9d1df	0.3629293
141	0xbe3eca12	-0.18631771
142	0x3d0b4f32	0.034011073
143	0xbe8259b7	-0.25459072
144	0x3c7b3942	0.015333476
145	0x3e65acbc	0.22429174
146	0xbe49ea6c	-0.19718331
147	0xbd9ed71e	-0.07755874
148	0x3ef6e77e	0.4822349
149	0x3dc89fd5	0.097961105
150	0xbdc0b239	-0.09408993
151	0xbe81b203	-0.25331125
152	0xbe882efd	-0.2659835
153	0xbd28500a	-0.041091956
154	0x3e4bab49	0.19889559
155	0xbdd75579	-0.105143495
156	0x3f22f599	0.63656
157	0x3f622955	0.8834432
158	0xbc523c5f	-0.012831776
159	0xbe7c79e1	-0.24655868
160	0x3e9b322f	0.30311725
161	0x3e266b60	0.16251898
162	0xbe30c5f2	-0.1726301
163	0xbcf4b7be	-0.029872771
164	0xbf81b295	-1.0132624
165	0xbfa63a1f	-1.2986487
166	0x3e873c0c	0.26413
167	0xbe6b5317	-0.22980915
168	0x3ece3389	0.40273693
169	0x3e28b5a7	0.16475545
170	0x3d4b53ad	0.049640346
171	0xbe4c6bc2	-0.19962981
172	0xbf002fb4	-0.5007279
173	0xbfc949ce	-1.5725648
174	0xbe8b26bf	-0.27177998
175	0xbea5802d	-0.32324353
176	0xbbb799f1	-0.005603068
177	0x3e9af9bb	0.30268654
178	0xbe99be1c	-0.30027854
179	0x3dd676c3	0.10471871
180	0xbe3aae40	-0.18230534
181	0xbdd4bda5	-0.10387734
182	0x3d14d180	0.036332607
183	0xbe82a266	-0.25514525
184	0x3e576ed7	0.21038376
185	0xbea1f14a	-0.316294
186	0xbda839a5	-0.0821412
187	0x3d7c9977	0.061669793
188	0x3dcab315	0.098974384
189	0x3e96a403	0.29422006
190	0xbc947e97	-0.018126769
191	0x3d3db379	0.046313737
192	0xbe595049	-0.21222033
193	0x3ef37d32	0.47556454
194	0xbea82d8d	-0.32847252
195	0x3e3ba8ff	0.18326186
196	0xbca243ba	-0.019807685
197	0xbf0d5630	-0.55209637
198	0x3e6c16d9	0.2305559
199	0xbd6783bf	-0.056522127
200	0xbd802c0e	-0.06258403
201	0x3e2bc38a	0.16773811
202	0xbbd9ba38	-0.0066445135
203	0x3e8a9f67	0.2707474
204	0x3e9de09b	0.30835423
205	0x3e78eef9	0.24309911
206	0x3d45d31f	0.048297044
207	0x3e22699d	0.15860601
208	0xbd67df48	-0.056609422
209	0x3ed94df8	0.42442298
210	0xbec49da9	-0.38401535
211	0x3dab1c12	0.08354963
212	0x3e34e9c4	0.176673
213	0xbe17dcc2	-0.14830306
214	0x3dc1caa2	0.09462477
215	0xbdbdef18	-0.09274119
216	0x3e5abf41	0.2136202
217	0x3ec5270d	0.38506356
218	0xbdde8b53	-0.10866418
219	0x3e43fc2f	0.19139169
220	0xbd0c95c4	-0.034322515
221	0xbf643522	-0.89143574
222	0xbe32ba32	-0.1745384
223	0xbdc33797	-0.09532087
224	0x3d84dc94	0.064873844
225	0x3e2fe3cd	0.17176743
226	0xbe84de34	-0.25950778
227	0x3da53518	0.080667675
228	0xbf04b412	-0.51837265
229	0xbe40f368	-0.18842852
230	0xbdd2ab52	-0.10286583
231	0x3e9d2967	0.3069565
232	0x3e150673	0.14553241
233	0x3d70f774	0.05882974
234	0x3e91fb17	0.2851188
235	0xbbf7d491	-0.0075631817
236	0x3eaca12d	0.33716717
237	0x3f192408	0.59820604
238	0x3e44367d	0.1916141
239	0xbe1943a4	-0.14967209
240	0xbe260ae2	-0.16215089
241	0xbe9430ae	-0.2894339
242	0xbe747955	-0.2387441
243	0x3d1f7faa	0.03894011
244	0x3e2fe6c9	0.17177881
245	0xbd52c6a4	-0.05145897
246	0x3e58982a	0.21151796
247	0x3e98a300	0.2981186
248	0x3dd54c5b	0.10414954
249	0x3e569e48	0.20958817
250	0xbdece812	-0.115677014
251	0x3da5faf1	0.08104504
252	0xbf11893a	-0.56850016
253	0x3cecb7c6	0.028896224
254	0x3e243870	0.16037154
255	0x3d2f6f17	0.042830553

fc1.bias f4 [64]
0	0xbed0a581	-0.4075127
1	0xbd7ca56c	-0.061681196
2	0x3e8a27ad	0.26983395
3	0xbeb2d5bf	-0.349287
4	0xbe3a91b6	-0.18219647
5	0xbb6f38ab	-0.0036502283
6	0xbebfd4d4	-0.37467062
7	0xbe3d0b69	-0.18461384
8	0x3e774041	0.24145605
9	0xbd8ce8f9	-0.068803735
10	0x3e65e4c8	0.22450554
11	0x3e98c4ea	0.29837734
12	0x3e1492d1	0.14509131
13	0x3e801824	0.25018418
14	0x3ddc098d	0.10744009
15	0xba43748e	-0.00074560277
16	0xbe897fb3	-0.2685524
17	0xbea89a34	-0.32930148
18	0x3d039441	0.032123808
19	0xbc6a95ca	-0.014317939
20	0x3e21c1d7	0.157966
21	0x3d51e22a	0.051241077
22	0xbc3d1bf9	-0.011542314
23	0x3d617a7a	0.055048443
24	0x3e83fa7d	0.25777045
25	0x3e6f45b1	0.23366429
26	0xbed0ae9e	-0.40758222
27	0x3ea54e9f	0.32286546
28	0xbe4d5226	-0.20050868
29	0x3eb4adcb	0.35288844
30	0x3eae0034	0.3398453
31	0x3bd5c3f6	0.0065236045
32	0x3d8fb139	0.070162244
33	0x3eb41248	0.35170197
34	0x3ca95332	0.020669553
35	0xbe087228	-0.13324797
36	0x3dfd2726	0.123609826
37	0x3e5525b1	0.2081516
38	0x3d8b6f29	0.068083115
39	0xbec6a403	-0.38797006
40	0xbe877e43	-0.26463518
41	0x3e9f9ea9	0.31175736
42	0xbdf23e56	-0.11828296
43	0x3d056587	0.032567527
44	0xbe3c3cff	-0.18382643
45	0x3e1dab44	0.15397364
46	0x3e5c0cc9	0.21489252
47	0xbdc0a63f	-0.09406709
48	0x3ea7d3f3	0.32778892
49	0x3e963907	0.29340383
50	0xbe79bb9e	-0.24387977
51	0x3d3adb30	0.04561919
52	0x3e8753b1	0.2643104
53	0x3d965a06	0.07341389
54	0x3e839124	0.2569667
55	0xbdbec4b3	-0.09314861
56	0x3e6adaf8	0.22935092
57	0xbe8b7270	-0.27235746
58	0xbde6c1fb	-0.112674676
59	0x3d9f4c32	0.07778205
60	0x3dc2aecf	0.09505998
61	0x3ea392b1	0.31947854
62	0xbce0c7c2	-0.027439002
63	0x3e12ab5a	0.14323178

fc2.weight f4 [64, 64]
0	0xbdad869c	-0.0847294
1	0x3d7b5ad6	0.061365925
2	0x3d185dd8	0.03719887
3	0xbc4ec471	-0.0126200775
4	0xbdea21bb	-0.11432215
5	0xbe3f2bfc	-0.18669122
6	0x3d3ca16f	0.046052393
7	0xbe214279	-0.15748014
8	0x3cd44ae6	0.02591462
9	0x3d6d5e04	0.05795099
10	0x3da50200	0.08057022
11	0xbdf8fbb9	-0.12157387
12	0xbe8a0f16	-0.26964635
13	0xbe91467e	-0.28374094
14	0xbdaf8c75	-0.08571712
15	0xbe3e0d0f	-0.18559669
16	0xbe13d7e4	-0.14437824
17	0xbc95d280	-0.01828885
18	0xbdb8787e	-0.09007357
19	0xbcdfd506	-0.027323257
20	0xbe389e39	-0.18029107
21	0xbd907258	-0.07053059
22	0x3d08204e	0.033233933
23	0xbd991bde	-0.07476018
24	0xbe1e27f9	-0.15444936
25	0xbc808c42	-0.01569188
26	0x3d4910e3	0.04908837
27	0x3b9867ff	0.004651069
28	0xbd86db02	-0.06584741
29	0xbe4e7b14	-0.20164138
30	0xbe128de0	-0.14311934
31	0xbd7c3666	-0.061575316
32	0xbe14533c	-0.14484876
33	0x3d43dd93	0.04781873
34	0x3c47ab4a	0.012186835
35	0x3d9becb6	0.076135084
36	0xbdc3a6ab	-0.09553274
37	0xbdb2a90e	-0.08723651
38	0xbc5bcc22	-0.013415368
39	0x3d4cb4a6	0.049976967
40	0x3d840edf	0.06448149
41	0xbe15243d	-0.14564605
42	0xbe1ba114	-0.15198165
43	0x3d32bfe7	0.043640044
44	0x3b5a032a	0.0033266046
45	0x3d20c394	0.039249018
46	0x3d05fb14	0.03271015
47	0xbdc0f61b	-0.09421941
48	0xbde6a84c	-0.11262569
49	0xbd844710	-0.064588666
50	0xbd4bec2d	-0.04978578
51	0x3cd1d95b	0.025616338
52	0xbd70973d	-0.058737982
53	0x3da33178	0.0796842
54	0xbe020c64	-0.12700039
55	0xbe2339de	-0.15940043
56	0xbd6b8fbf	-0.057510134
57	0xbdd949f7	-0.10609811
58	0xbde0fd4b	-0.10985812
59	0xbb9753dc	-0.004618151
60	0xbd160be4	-0.036632434
61	0x3bbf6537	0.005840923
62	0xbd6b34a8	-0.057423264
63	0xbd4c8e5e	-0.04994046
64	0xbcdd64a5	-0.02702553
65	0xbe19596f	-0.14975522
66	0xbc34c2fc	-0.011032816
67	0x3da7669c	0.08173868
68	0xbdea629a	-0.11444588
69	0xbc3e1989	-0.011602768
70	0x3cf87a4a	0.03033175
71	0xbe01c8c6	-0.12674245
72	0xbc630efb	-0.013858552
73	0xbdbfbd78	-0.0936231
74	0xbc3bbf30	-0.011459157
75	0xbe083c6e	-0.13304302
76	0xbe7c1515	-0.24617417
77	0xbe68f1e3	-0.22748522
78	0xbdd2c2c1	-0.102910526
79	0xbd718e17	-0.058973398
80	0x3aa51c6f	0.0012596975
81	0xbcc1e5f4	-0.02366922
82	0x3d51f84f	0.051262196
83	0xbd7cc4ec	-0.061711237
84	0xb94cfa44	-0.00019548187
85	0xbe1812a1	-0.14850856
86	0x3c1426bd	0.009042439
87	0xbc41ebfa	-0.011836046
88	0x3dc7fca9	0.09764988
89	0x3d1058bd	0.035240877
90	0x3ca05889	0.019573467
91	0xbd0c462f	-0.03424662
92	0x3d797c47	0.060909536
93	0xbe1f38e9	-0.15549053
94	0xbded9090	-0.11599839
95	0xbd6bfc51	-0.057613675
96	0x3d664cf8	0.056225747
97	0xbd21be1a	-0.039487936
98	0xbc3483d5	-0.011017759
99	0xbd84f8e2	-0.06492783
100	0xbd85f648	-0.06541115
101	0x3d4864a9	0.048924122
102	0xbe2fd5dc	-0.17171425
103	0xbcfa5b2a	-0.030561049
104	0xbdaaa5aa	-0.08332379
105	0xbe12a202	-0.14319614
106	0xbe1a8ac5	-0.15091999
107	0x3d8b3d35	0.06798784
108	0x3b0145b3	0.0019725382
109	0x3d0b4741	0.0340035
110	0xbc9997f3	-0.018749213
111	0xbc4a9e0d	-0.012366784
112	0xbcaf6263	-0.02140922
113	0x3da1f1df	0.079074614
114	0xbe2f1a51	-0.17099883
115	0xbd422596	-0.047399126
116	0xbe0c0af2	-0.1367605
117	0xbe1d9eba	-0.1539258
118	0xbd8e3ea7	-0.06945544
119	0x3d906253	0.07050004
120	0xbe08ddfc	-0.1336593
121	0x3d0a6a11	0.03379256
122	0xbe11e46e	-0.14247295
123	0xbdc96967	-0.09834557
124	0xbdc5f8ca	-0.096665934
125	0xbd96ec84	-0.073693305
126	0xbda88509	-0.082284994
127	0xbdb84f1a	-0.089994624
128	0x3e092c40	0.13395786
129	0x3e00f925	0.12595041
130	0x3e1257cd	0.14291306
131	0x3dc66177	0.09686559
132	0xbec37ebb	-0.38182625
133	0x3e132800	0.14370728
134	0xbbf3a5dc	-0.0074355435
135	0xbf0e2266	-0.5552124
136	0x3ca2d5ff	0.019877432
137	0x3e295a12	0.16538265
138	0x3df14d15	0.1178228
139	0x3e15bc33	0.14622574
140	0xbf6b4098	-0.9189544
141	0xbf32aa5c	-0.697912
142	0x3d6f7453	0.058460545
143	0xbe853a87	-0.26021215
144	0x3e05a40b	0.13050859
145	0x3e43797b	0.1908931
146	0x3e169558	0.14705408
147	0x3e10eef3	0.14153652
148	0xbf7e18b6	-0.99256456
149	0xbf1156a0	-0.56772804
150	0xbe0c2ac7	-0.13688193
151	0x3d73cb74	0.0595202
152	0x3c748a9e	0.014925627
153	0xbd127640	-0.035757303
154	0xbdd047f6	-0.101699755
155	0xbe23a3c7	-0.15980445
156	0x3d45b015	0.048263628
157	0x3e361011	0.17779566
158	0x3d34c8f6	0.044136964
159	0xbdb404b7	-0.08789962
160	0xbcdf6955	-0.027271906
161	0x3d567043	0.052353155
162	0x3cbf30f0	0.023338765
163	0xbc379e2a	-0.011207143
164	0xbe1bdb1f	-0.15220307
165	0x3e48f157	0.19623314
166	0x3c8ae997	0.016957087
167	0x3e4ddce1	0.2010379
168	0xbe08284c	-0.13296622
169	0x3dd4f5ed	0.10398469
170	0xbf7e4d93	-0.9933712
171	0xbc019753	-0.007909614
172	0x3dc57304	0.09641078
173	0xbc4c837c	-0.01248252
174	0xb976ff2c	-0.00023555447
175	0xbdc1dc05	-0.094657935
176	0x3e533cc6	0.20628652
177	0xbd9639f7	-0.07335275
178	0x3df10604	0.117687255
179	0x3c7fd506	0.015614754
180	0x3e130002	0.14355472
181	0x3e2abe08	0.16674054
182	0x3e0d18c4	0.13778979
183	0x3d947aca	0.07249983
184	0x3e823c2b	0.2543653
185	0xbe612d7c	-0.21990007
186	0x3e15a148	0.14612305
187	0x3e6eedf6	0.23332962
188	0xbd73d57b	-0.059529763
189	0xbdb2d291	-0.087315686
190	0x3d220b20	0.03956139
191	0xbddc3921	-0.10753084
192	0x3d2850d7	0.04109272
193	0x3ca991d0	0.020699412
194	0xbdeb129b	-0.11478158
195	0xbd8971c2	-0.06711151
196	0xbe1e4c7f	-0.15458868
197	0x3dced87a	0.100998834
198	0x3c59f4e8	0.013303019
199	0xbe9b5aa3	-0.30342588
200	0x3b03d1c1	0.0020114037
201	0xbdce95d4	-0.10087171
202	0x3d9f9842	0.07792713
203	0x3d03a8de	0.032143466
204	0xbee702a7	-0.4511921
205	0xbeb972c3	-0.3622037
206	0xbdf41094	-0.119172245
207	0xbe8a9345	-0.27065483
208	0xbdfd7210	-0.12375271
209	0xbd16a071	-0.036774103
210	0x3d941617	0.07230776
211	0xbd4b47fb	-0.049629193
212	0xbe86be9b	-0.26317295
213	0xbeb1fdb0	-0.3476386
214	0xbd1beb40	-0.03806615
215	0xbbbb5455	-0.0057168403
216	0x3cfb0b44	0.03064502
217	0xbc4f27fc	-0.01264381
218	0xbd8523c1	-0.0650096
219	0xbdbf5de6	-0.093440816
220	0xbdd14849	-0.102188654
221	0xbd83548c	-0.064126104
222	0xbd256910	-0.0403834
223	0xbe0ce0be	-0.13757607
224	0x3aad518d	0.0013223157
225	0x3cfff59c	0.031245045
226	0xbdc565ce	-0.09638558
227	0xbdf61f7f	-0.12017726
228	0xbd9efa48	-0.07762581
229	0x3da0cf3b	0.07852026
230	0xbd7c47eb	-0.061592024
231	0x3cee607b	0.02909874
232	0x3d694264	0.05694808
233	0x3dcb1e36	0.09917872
234	0xbec6590c	-0.38739812
235	0x3dd0b0a5	0.10189942
236	0xbd239f93	-0.039947104
237	0x3b8ceff5	0.004301066
238	0xbddab4bc	-0.106790036
239	0xbdf8802c	-0.12133822
240	0x3b9cf79e	0.0047902605
241	0xbe253bb8	-0.16136062
242	0x3d4b3036	0.049606524
243	0xbe04c658	-0.12966287
244	0x3b61269e	0.0034355293
245	0x3c1f585a	0.0097256545
246	0x3db878d2	0.0900742
247	0x3ddb25c2	0.10700561
248	0x3d1b8725	0.03797068
249	0xbd787065	-0.060654063
250	0xbd0568d7	-0.032570686
251	0xbdd23c03	-0.102653526
252	0xbbfa9691	-0.0076473434
253	0xbdd6b24a	-0.10483225
254	0x3d82d99b	0.06389161
255	0xbdf69dd9	-0.12041826

fc2.bias f4 [64]
0	0xbde7be6b	-0.11315616
1	0x3b9d8ca2	0.0048080245
2	0x3ceb5f00	0.028731823
3	0xbd63f18e	-0.055650286
4	0xbc897884	-0.0167811
5	0xbdaeea62	-0.08540799
6	0xbe0ec5c4	-0.13942629
7	0x3db9fde5	0.0908163
8	0xbdd09a40	-0.10185671
9	0xbc70c9a1	-0.01469651
10	0x3dab678b	0.08369359
11	0x3de339d0	0.11095011
12	0x3d8bda67	0.06828766
13	0xbda13043	-0.07870533
14	0xbb97dce1	-0.004634485
15	0xbc0c6132	-0.008568095
16	0x3d4e2544	0.050328508
17	0x3cc67874	0.024227358
18	0xbc86404d	-0.016388083
19	0xbd1bba3a	-0.038019396
20	0xbe21b356	-0.15791067
21	0xbdda3187	-0.10653978
22	0xbd60cd0d	-0.05488305
23	0x3e01f191	0.12689807
24	0xbc89a320	-0.016801417
25	0xbdc2b5f0	-0.09507358
26	0xbddcfafd	-0.1079006
27	0x3dae302c	0.08505282
28	0x3da36a47	0.07979255
29	0xbcb80f11	-0.022468122
30	0xbd3e1a01	-0.046411518
31	0xbd95b1c3	-0.07309296
32	0x3c54dec7	0.012992567
33	0xbdae99ed	-0.08525453
34	0xbdf9df09	-0.12200744
35	0xbd659da8	-0.056058556
36	0xbdb1a772	-0.08674516
37	0x3db8f00b	0.090301596
38	0xbdcc885f	-0.09986948
39	0xbdce68d7	-0.1007859
40	0x3cdcbb2c	0.02694472
41	0xbdb431a8	-0.08798534
42	0x3e255f54	0.16149646
43	0xbd3d9be4	-0.046291247
44	0xbe112554	-0.14174396
45	0xbdc1ff4a	-0.09472521
46	0xbded9d80	-0.11602306
47	0xbd992873	-0.07478418
48	0xbdcbd667	-0.099530034
49	0xbd563815	-0.052299578
50	0x3ddaa6be	0.10676335
51	0xbbece86c	-0.0072298553
52	0xbddc75ea	-0.10764678
53	0xbd054ebd	-0.032545794
54	0xbc034e39	-0.008014255
55	0xbd91fb59	-0.07128019
56	0xbc0ac2cb	-0.008469294
57	0xbd88d48b	-0.06681164
58	0xbc2d85b5	-0.01059096
59	0x3da6deb1	0.08147944
60	0xbdb714bd	-0.089395024
61	0xbd8d3f37	-0.06896823
62	0xbdd2f0dd	-0.10299847
63	0xbe019549	-0.12654604

fc3.weight f4 [64, 64]
0	0xbcc6c414	-0.02426342
1	0x3d31f610	0.043447554
2	0x3cc4c777	0.024020893
3	0xbcde8549	-0.027163165
4	0xbd2b19a6	-0.041772507
5	0x3d7debcb	0.061992448
6	0xbe05b076	-0.13055596
7	0x3d2be94c	0.041970536
8	0xbd60f17a	-0.05491779
9	0xbe1ab8f7	-0.15109621
10	0x3e0eaac2	0.13932326
11	0xbda23058	-0.07919377
12	0xbcba4653	-0.022738611
13	0x3a2aa4ec	0.00065095606
14	0x3df44a2a	0.11928208
15	0xbde57341	-0.112036236
16	0xbbb1ba3f	-0.0054238136
17	0x3d11a970	0.03556198
18	0x3d98ba20	0.074573755
19	0x3d11c8fd	0.035592068
20	0xbe1bb455	-0.1520551
21	0x3d4528e8	0.048134714
22	0x3c90946e	0.017648902
23	0xbcf9d74b	-0.030498167
24	0xb93e92e0	-0.00018174527
25	0xbd785b96	-0.06063422
26	0xbc021b89	-0.007941135
27	0x3e084098	0.1330589
28	0xbc127729	-0.008939543
29	0xbde169b7	-0.11006492
30	0x3c601804	0.013677601
31	0xbdffe59a	-0.12494965
32	0x3c07501e	0.0082588475
33	0x3dadfaf9	0.08495135
34	0x3c7b07dd	0.015321699
35	0x3e11cf1f	0.14239167
36	0xbd830dc0	-0.06399107
37	0x3c4b6420	0.012414008
38	0x3da58aef	0.0808314
39	0xbd5a61b4	-0.053315833
40	0x3da72a0d	0.081623174
41	0x3dac42ae	0.08411156
42	0x3e0e3fde	0.13891551
43	0xbd4b1914	-0.049584463
44	0xbddc4dc0	-0.10757017
45	0x3e0cc4f5	0.13747008
46	0xbe3bca05	-0.18338783
47	0xbd0d0d79	-0.034436677
48	0xbe0ef40b	-0.13960283
49	0xbd440b2e	-0.047862224
50	0xbd6fa817	-0.058509912
51	0xbd7d6493	-0.061863493
52	0x3da1ce4e	0.079006776
53	0x3df06728	0.117384255
54	0x3d58a6a9	0.052893315
55	0x3cfb0ee9	0.030646758
56	0xbca6375c	-0.02029007
57	0xbd3efd3c	-0.046628222
58	0x3e014d03	0.12627034
59	0xbde54d8c	-0.111964315
60	0xbda1ecdf	-0.07906508
61	0x3b917abd	0.0044396804
62	0xbce9444a	-0.028474946
63	0x3bd50f75	0.0065020868
64	0xbca674bb	-0.020319333
65	0xbd9f2dc3	-0.077724
66	0xbe3fb896	-0.18722758
67	0xbd090f92	-0.033462115
68	0xbca6d74c	-0.020366333
69	0x3d916e31	0.071010955
70	0x3deb5c17	0.11492174
71	0xbcb81f55	-0.022475878
72	0x3cbd75c7	0.02312745
73	0x3dab47b8	0.08363289
74	0xbd096e63	-0.03355254
75	0xbca89958	-0.020580932
76	0x3bb30106	0.0054627685
77	0xbe071bf1	-0.13194253
78	0xbdd166a1	-0.10224653
79	0xbc758376	-0.014984956
80	0xbe02f036	-0.12786946
81	0x3c55d19b	0.013050462
82	0xbe3f5c27	-0.18687497
83	0xbcdb1ebd	-0.026748056
84	0x3ca1ece1	0.019766273
85	0x3d18bf0f	0.037291583
86	0xbd69c945	-0.05707671
87	0xbcd22f88	-0.02565743
88	0xbda23bfe	-0.07921599
89	0xbe304cb7	-0.17216764
90	0xbd258614	-0.04041107
91	0xbde8d079	-0.11367888
92	0x3dc85d03	0.097833656
93	0xbbb073ea	-0.005384912
94	0xbdd58559	-0.10425825
95	0x3db4c137	0.08825915
96	0x3cfa29a7	0.03053744
97	0x3c578e70	0.013156518
98	0xbdbb1367	-0.0913456
99	0xbd9aa638	-0.07551235
100	0xbe401efd	-0.18761821
101	0xbe4ab50f	-0.19795631
102	0xbd0559f3	-0.032556485
103	0xbd16314a	-0.0366681
104	0x3cf52081	0.029922726
105	0xbe5ad792	-0.21371296
106	0xbe5d3d6e	-0.21605465
107	0x3dc708ec	0.097184986
108	0x3d45bcd3	0.04827578
109	0xbb3e6fb8	-0.0029058289
110	0x3db7a974	0.089678675
111	0xbe0d6094	-0.13806373
112	0xbda87b68	-0.08226663
113	0x3d9e4964	0.07728842
114	0xbd89b6a9	-0.06724293
115	0x3d7d0815	0.061775286
116	0xbd8d46f5	-0.068982996
117	0xbe197413	-0.14985685
118	0xbdf957ec	-0.12174973
119	0x3d45ae92	0.048262186
120	0xbe03a162	-0.12854531
121	0xbe273ef6	-0.16332611
122	0xbdc890e4	-0.09793261
123	0xbdd739b0	-0.1050905
124	0xbe2aa86e	-0.16665813
125	0xbd6cacb2	-0.057781883
126	0xbd43b2f2	-0.047778077
127	0xbdad56bf	-0.08463811
128	0x3b706dce	0.0036686542
129	0xbd57aaff	-0.05265331
130	0x3dc3cca2	0.09560515
131	0x3cd28e1a	0.025702525
132	0x3dff218a	0.12457569
133	0xbcf9a1fc	-0.030472748
134	0xbe0af084	-0.13568312
135	0xbddec6bf	-0.108777516
136	0xbc91fd6f	-0.017821042
137	0xbde89dd2	-0.11358227
138	0x3d0880d1	0.033325974
139	0x3d8febe0	0.070274115
140	0x3df15cae	0.11785255
141	0x3df8bd96	0.12145536
142	0x3e4b33e5	0.19844015
143	0x3dc0cf9f	0.094146006
144	0xbd8263fd	-0.063667275
145	0x3b9fbe4d	0.0048749805
146	0x3e5cc42f	0.21559213
147	0xbdc82d5a	-0.09774275
148	0xbe1d1bda	-0.15342656
149	0xbdce0721	-0.100599535
150	0x3d95399e	0.0728638
151	0x3e4ac794	0.19802696
152	0x3e4e002e	0.20117256
153	0x3d1caf74	0.038253263
154	0xbd40528d	-0.046953727
155	0x3d8be096	0.06829946
156	0xbe059ee1	-0.13048889
157	0xbde7b405	-0.11313633
158	0x3a23d606	0.00062498485
159	0xbdb96069	-0.09051592
160	0xbdd4e1ad	-0.10394607
161	0xbd24deda	-0.04025159
162	0x3c462561	0.012093873
163	0x3e481114	0.19537765
164	0x3c24d850	0.010061339
165	0x3e3625b9	0.17787828
166	0xbce882bd	-0.028382653
167	0x3e0dc96e	0.1384637
168	0x3c299449	0.010350295
169	0x3e742de8	0.23845637
170	0x3e82bf53	0.25536594
171	0x3c7c7baa	0.015410343
172	0xbc7700ee	-0.015075905
173	0x3d09f18b	0.03367762
174	0xbddbbd29	-0.10729439
175	0x3e459d04	0.19298178
176	0xbdafc357	-0.0858218
177	0xbdf6b5ac	-0.1204637
178	0xbd0d4073	-0.03448529
179	0xbe0ed43e	-0.13948151
180	0x3e027fee	0.12744114
181	0x3e0013d7	0.12507568
182	0x3d10c230	0.03534144
183	0xbd2c3ab0	-0.042048156
184	0xbd64e348	-0.055880815
185	0x3dc9221f	0.09820961
186	0xbd054250	-0.032533944
187	0xbd143c5c	-0.036190376
188	0xbd70adc2	-0.05875946
189	0xbdcfd06c	-0.10147175
190	0x3c5606f6	0.013063183
191	0x3e457f3e	0.1928682
192	0xbe158933	-0.14603119
193	0xbdd3a5d4	-0.103343636
194	0xbdbfbdca	-0.09362371
195	0x3dae693f	0.08516168
196	0x3d700acd	0.05860405
197	0xbdb449d4	-0.08803144
198	0xbbf4b6d4	-0.007468084
199	0x3d2123f9	0.039340947
200	0xbd157352	-0.03648693
201	0xbe2b42cb	-0.16724698
202	0x3d06a231	0.03286952
203	0xbe0710e6	-0.1319004
204	0x3d841ba4	0.064505845
205	0x3d056348	0.032565385
206	0xbd9a7f57	-0.075438194
207	0xbdd18881	-0.10231114
208	0x3d422ea7	0.047407772
209	0x3c5d3086	0.013500338
210	0xbe29fdfe	-0.16600797
211	0xbc58bd3e	-0.013228713
212	0xbe315ee6	-0.17321357
213	0xbe1b3a7c	-0.15159029
214	0xbe0ac29e	-0.13550803
215	0x3d121b27	0.035670426
216	0x3b9fad35	0.004872943
217	0xbba0ec93	-0.0049110143
218	0x3c581443	0.0131884245
219	0xbd4b5c1e	-0.049648397
220	0x3d2e18ca	0.04250411
221	0xbd82054c	-0.063486665
222	0xbba527d6	-0.005040149
223	0xbe2151d9	-0.15753879
224	0xbd6f0afd	-0.05836009
225	0x3ca45b66	0.020063113
226	0xbde54659	-0.111950584
227	0xbd1bc47a	-0.03802917
228	0xbd51ecd9	-0.051251266
229	0x3d3cca17	0.046091165
230	0x3c63acc8	0.013896175
231	0xbd251f55	-0.040313084
232	0xbe07fb0f	-0.13279365
233	0x3d87b4a3	0.066262506
234	0x3d6a47c1	0.057197336
235	0x3d6d183a	0.057884432
236	0xbe0f9cec	-0.14024705
237	0xbe12f623	-0.14351706
238	0xbdbfe45d	-0.09369729
239	0xbcf011f7	-0.029305441
240	0xbc4bab5d	-0.012430993
241	0xbddcbafb	-0.10777851
242	0xbdb9e8e2	-0.09077622
243	0x3d5f9834	0.05458851
244	0xbe087cd2	-0.13328865
245	0x3d9fe3be	0.0780711
246	0xbd800f45	-0.062529124
247	0xbe1d4785	-0.15359314
248	0xbdedec33	-0.11617317
249	0xbdf27132	-0.118379965
250	0xbd6564e7	-0.05600443
251	0xbd95b21f	-0.073093645
252	0xbdb56f33	-0.088591
253	0x3bf6aa0d	0.007527596
254	0xbde57057	-0.11203068
255	0x3b7bb063	0.0038404695

fc3.bias f4 [64]
0	0xbd08fb42	-0.033442743
1	0x3d4d99c2	0.050195463
2	0x3da6072e	0.08106838
3	0xbdb4ce4e	-0.08828412
4	0xbdb94ead	-0.09048209
5	0xbc37c4be	-0.011216341
6	0x3cb679b1	0.022274824
7	0xbd8419ee	-0.06450258
8	0x3cfa33a1	0.030542197
9	0x3e058016	0.13037142
10	0x3dead8a0	0.11467099
11	0xbda33e95	-0.07970921
12	0xbcd6fda5	-0.026243994
13	0x3b3c9e8c	0.0028781025
14	0xbe27cf41	-0.16387655
15	0xbd740689	-0.059576545
16	0xbdb23515	-0.08701531
17	0xbda5f7b4	-0.08103886
18	0xbd6ade8a	-0.057341136
19	0x3dd301c0	0.10303068
20	0xbde5b570	-0.11216247
21	0x3c7ec608	0.015550144
22	0xbd691bed	-0.056911398
23	0x3c9829a3	0.018574541
24	0xbd1db267	-0.038500216
25	0x3d893314	0.066991955
26	0xbce50756	-0.0279576
27	0xbe0ee06c	-0.13952798
28	0xbcde6544	-0.027147897
29	0xbd50ebe7	-0.051006224
30	0xbdd63ba5	-0.10460595
31	0x3da2357a	0.07920356
32	0x3d700845	0.058601636
33	0xbbe8a9b0	-0.0071003065
34	0xbdfdb74b	-0.12388476
35	0x3d67ea7f	0.056620117
36	0xbdedd1a8	-0.116122544
37	0xbda4bdfb	-0.080440484
38	0xbd410c3d	-0.047130812
39	0xbd08dcc1	-0.033413652
40	0xbde1e5ee	-0.11030184
41	0xbd85a836	-0.06526224
42	0x3d1bce13	0.038038325
43	0xbd2f49dd	-0.04279505
44	0xbe164c43	-0.14677529
45	0x3de0b473	0.10971918
46	0x3e03220f	0.12805961
47	0xbd8d039c	-0.06885454
48	0xbd1fe393	-0.03903539
49	0xbd1e042a	-0.03857819
50	0x3c946a8b	0.01811721
51	0x3d36415e	0.044495933
52	0xbc926063	-0.017868226
53	0xbdaff30c	-0.085912794
54	0x3dfbe8a1	0.1230023
55	0xbd918fba	-0.07107492
56	0xbc99c0af	-0.018768637
57	0xbd28c40b	-0.041202586
58	0xba8cecee	-0.0010751763
59	0x3cd2d28f	0.025735168
60	0xbd9d3acb	-0.076772295
61	0x3d29149c	0.04127942
62	0x3c26d757	0.010183177
63	0xbc7abb39	-0.015303426

out.weight f4 [2, 64]
0	0xbd97f0a7	-0.07418948
1	0x3d8e7cdb	0.06957408
2	0xbdf42b45	-0.119223155
3	0x3949a864	0.00019231584
4	0x3d0311ce	0.0319994
5	0xbdd891d0	-0.105746865
6	0x3d0449da	0.032296993
7	0x3c49c20a	0.012314329
8	0x3d880c28	0.066429436
9	0x3cbcd32d	0.023049915
10	0xbce667b1	-0.028125616
11	0xbda1d5cb	-0.07902106
12	0xbd72269c	-0.059118852
13	0xbb91cd80	-0.0044495463
14	0xbb7b9c6e	-0.00383928
15	0x3d12627b	0.03573845
16	0xbdca705a	-0.098847106
17	0xbd4b30e7	-0.049607184
18	0xbdc9898b	-0.09840687
19	0xbdac436d	-0.08411298
20	0xbca73bbb	-0.020414224
21	0x3c71de0a	0.014762411
22	0xbdb98df2	-0.09060277
23	0x3dd7c2e0	0.10535216
24	0x3d1edcca	0.03878478
25	0x3d60047b	0.054691773
26	0xbdd94a7b	-0.10609909
27	0xbc9b86fe	-0.018985268
28	0xbce5407b	-0.027984848
29	0xbc88f42c	-0.016717993
30	0xbdc499c4	-0.09599641
31	0xbd9fa97b	-0.07795998
32	0xbdf6c5a9	-0.120494194
33	0x3d814ef6	0.06313889
34	0xbabd548a	-0.001444475
35	0x3c1bccaa	0.009509245
36	0xbd3bb07a	-0.045822598
37	0xbbcf10aa	-0.006319125
38	0xbc1dff08	-0.009643324
39	0x3d5c836f	0.053836282
40	0x3dac0388	0.08399111
41	0x3d2730f9	0.04081819
42	0x3d6d2ebd	0.0579059
43	0xbddad55b	-0.106852256
44	0xbd86f077	-0.06588834
45	0xbdd7f8b7	-0.105454855
46	0xbcb3a7f9	-0.021930682
47	0xbc137305	-0.008999591
48	0xbb92fb4d	-0.004485524
49	0x3dbe4465	0.09290389
50	0xbd6b8a63	-0.057505023
51	0xbbe28d49	-0.006913815
52	0xbd7f4301	-0.06231976
53	0x3a7f6d31	0.0009743749
54	0xbd6a3b4a	-0.05718545
55	0xbc70ffcc	-0.014709424
56	0x3d8b590a	0.06804092
57	0x3db85137	0.089998655
58	0x3d2c9cbc	0.04214166
59	0x3d18b8f7	0.03728577
60	0x3d41ff82	0.047362812
61	0xbc6313b4	-0.013859678
62	0xbd69133f	-0.05690312
63	0xbdc6f0dc	-0.09713909
64	0xbdb6dac5	-0.08928446
65	0x3d8ba556	0.06818645
66	0xbe33ac24	-0.17546135
67	0xbd00c8e3	-0.03144158
68	0xbe0d5b98	-0.13804471
69	0xbce2a66d	-0.027667249
70	0xbe2203f8	-0.15821826
71	0x3d50d6bc	0.050986037
72	0xbe12712a	-0.14300981
73	0xbdc77881	-0.09739781
74	0xbe1fa55c	-0.15590423
75	0x3d8fe1cf	0.070254914
76	0xbdacdcd1	-0.08440555
77	0xbd5747eb	-0.05255882
78	0xbc9fe94c	-0.019520424
79	0xbd78fdf6	-0.06078907
80	0xbdf9e684	-0.122021705
81	0xbddebfab	-0.108764015
82	0xbdea509d	-0.11441157
83	0xbd63296f	-0.055459436
84	0x3c4bc359	0.012436711
85	0xbda3f870	-0.0800637
86	0x3c44d375	0.012013306
87	0xbd863e9e	-0.06554912
88	0xbd8fa14d	-0.070131876
89	0xbdfb4830	-0.12269628
90	0x3d2d7258	0.042345375
91	0xbd35831d	-0.044314492
92	0xbe113c95	-0.14183266
93	0xbd677de5	-0.056516547
94	0xbe11e797	-0.14248501
95	0xbd7a38d4	-0.06108935
96	0xbd72c953	-0.05927403
97	0x3d6e8d3e	0.058240168
98	0xbce7fd05	-0.028318891
99	0xbe0d17a5	-0.13778551
100	0xbd852978	-0.0650205
101	0xbbdab9ba	-0.0066749724
102	0x3d1c4881	0.038155083
103	0xbd6eb766	-0.05828037
104	0xbd6a811d	-0.05725204
105	0x3d8369ce	0.06416665
106	0xbd88fe2a	-0.06689103
107	0xbd85e3a3	-0.06537559
108	0x3d8ccf70	0.06875503
109	0xbe2f5482	-0.17122081
110	0xbe233026	-0.15936336
111	0xbd77fea9	-0.060545597
112	0xbc7cb188	-0.015423186
113	0xbe1e4c60	-0.15458822
114	0xbdc4bf69	-0.09606821
115	0x3cc9ae51	0.024619253
116	0x38351176	4.3170025e-05
117	0xbe09542e	-0.13411018
118	0xbdd9ac6b	-0.10628589
119	0xbe0aca9d	-0.13553853
120	0xbd5a7584	-0.053334728
121	0xbdb91560	-0.0903728
122	0xbe375b93	-0.17906027
123	0xbca389fa	-0.019963253
124	0xbe005c8f	-0.12535308
125	0x3c93a971	0.018025132
126	0xbd57ab19	-0.052653406
127	0x3d3eaae8	0.046549708

out.bias f4 [2]
0	0x3d7ad851	0.06124145
1	0xbb06b456	-0.0020554266
