Santiago_version/models/Umbumping_cars_V5.pth (torch, 39352 bytes, 8 tensors)

fc1.weight f4 [64, 8]
0	0xbdbcb9b3	-0.09215107
1	0x3e305212	0.17218807
2	0x3e7994c2	0.24373153
3	0x3e833a18	0.2563026
4	0x3e562a5e	0.209146
5	0xbe26d9cc	-0.1629402
6	0xbeb3f9ce	-0.35151523
7	0xbea3d766	-0.32000273
8	0x3eaf90a5	0.34290043
9	0xbe98f649	-0.298754
10	0xbd40bc54	-0.047054604
11	0x3daa5df9	0.08318705
12	0x3e7f37a7	0.24923573
13	0xbea7ee8e	-0.3279919
14	0xbd88c64b	-0.066784464
15	0x3dfbf7ce	0.12303124
16	0x3ea6c72f	0.3257384
17	0xbd1cb634	-0.0382597
18	0xbe8e6e4c	-0.27818525
19	0x3e39daa0	0.18149805
20	0x3d9ddc10	0.07707989
21	0x3e976e6c	0.29576433
22	0x3e894cef	0.26816508
23	0x3e924766	0.28570098
24	0xbda40493	-0.08008685
25	0x3d900102	0.07031442
26	0x3dac4b22	0.08412768
27	0xbe17c9e2	-0.14823106
28	0xbd2f3d48	-0.04278305
29	0xbe4becc6	-0.1991454
30	0xbe87eeb2	-0.26549298
31	0x3cb5c658	0.022189304
32	0xbda860d8	-0.082215965
33	0xbe4ee49d	-0.20204397
34	0x3e8af415	0.27139345
35	0xbe876bff	-0.26449582
36	0x3e3b48b8	0.18289459
37	0x3d11c6f5	0.03559013
38	0x3e9b412f	0.3032317
39	0xbeac6d25	-0.3367702
40	0xbd85ef50	-0.06539786
41	0xbe117a10	-0.1420672
42	0xbe684dbd	-0.22685905
43	0xbd160049	-0.036621366
44	0x3e7b1fef	0.245239
45	0x3e054688	0.13015187
46	0xbe6c74c2	-0.23091415
47	0x3e584f69	0.21124043
48	0x3e2f602a	0.17126527
49	0xbde320fc	-0.11090276
50	0xbdea370e	-0.11436282
51	0x3e96e8d1	0.294745
52	0xbe03c554	-0.12868243
53	0x3d2ba040	0.041900873
54	0xbeaa41f6	-0.3325345
55	0xbe83370f	-0.25627944
56	0xbe5b34bd	-0.21406837
57	0xba630302	-0.0008659811
58	0xbe3f9a5f	-0.18711232
59	0xbe87b1cf	-0.26502845
60	0x3ea16371	0.3152118
61	0xbeac7b69	-0.33687904
62	0xbd93d49f	-0.07218289
63	0x3e34b470	0.17646956
64	0x3eaf2fbb	0.34216103
65	0x3e50941f	0.20369004
66	0x3e1e882b	0.15481631
67	0x3d9ea4ea	0.077462986
68	0xbdb63869	-0.08897478
69	0x3e06e757	0.13174187
70	0xbeb205fe	-0.34770197
71	0xbe46cf3f	-0.19414996
72	0x3e40d6bd	0.18831916
73	0x3e8c2c9d	0.27377787
74	0x3d887b7d	0.066641785
75	0x3daf92bb	0.085729085
76	0xbe80c4f8	-0.25150275
77	0x3e7918b3	0.24325828
78	0xbe8a1bc1	-0.269743
79	0xbe0159e0	-0.12631941
80	0xbe21a71d	-0.15786405
81	0xbe857224	-0.26063645
82	0xbe73319c	-0.23749393
83	0xbe5c0cab	-0.21489207
84	0x3ea2fb4c	0.3183235
85	0xbea99306	-0.33119982
86	0xbe3e30d8	-0.1857332
87	0x3e8a4753	0.2700754
88	0x3bd53099	0.0065060374
89	0x3e11058d	0.14162274
90	0xbea1bdfa	-0.31590253
91	0xbe8c3d78	-0.27390647
92	0x3e755660	0.2395873
93	0xbe08fe0a	-0.13378158
94	0x3c5562d4	0.013024051
95	0x3d3dcc9f	0.04633772
96	0x3dc03a60	0.09386134
97	0xbd83338d	-0.06406317
98	0xbe160499	-0.14650191
99	0xbe9d4252	-0.3071466
100	0xbe0bda7e	-0.13657567
101	0xbe90f1fa	-0.28309613
102	0xbe50fb61	-0.20408393
103	0xba96f08e	-0.0011515783
104	0xbe880421	-0.2656565
105	0x3e921dc5	0.28538337
106	0x3dc3704e	0.09542905
107	0xbd030f29	-0.03199688
108	0x3eaf808d	0.34277764
109	0x3e2bb522	0.16768315
110	0xbe0ff194	-0.14056998
111	0xbe9c6208	-0.30543542
112	0xbe4a9330	-0.1978271
113	0xbe4cd379	-0.20002545
114	0x3e4f74ce	0.20259401
115	0xbcdafe95	-0.026732722
116	0xbd851ba6	-0.06499414
117	0xbe4aaad0	-0.19791722
118	0x3c81fd54	0.015867867
119	0x3ea28ecf	0.3174958
120	0x3e7d59c9	0.24741282
121	0xbe238dea	-0.15972105
122	0x3e98389d	0.29730693
123	0x3e6efc25	0.23338373
124	0x3e4e754b	0.20161931
125	0x3e6bc182	0.23023036
126	0x3e257a9f	0.16160057
127	0xbe1adebc	-0.15124029
128	0x3e227f74	0.15868932
129	0xbe150607	-0.1455308
130	0xbd1ecc96	-0.038769327
131	0xbeaa035e	-0.33205694
132	0xbe70350f	-0.2345774
133	0x3e83ef94	0.2576872
134	0xbcce9073	-0.025215363
135	0x3e935152	0.2877298
136	0xb9be5f88	-0.000363108
137	0x3e8654e8	0.26236653
138	0xbe125350	-0.14289594
139	0x3e2d981f	0.16952561
140	0x3e3c1b2c	0.1836974
141	0x3d2f238b	0.042758506
142	0x3e2f841e	0.17140242
143	0x3e109789	0.14120306
144	0x3d53be81	0.05169535
145	0xbe571b82	-0.21006587
146	0x3e92d991	0.28681615
147	0x3e779e1e	0.2418141
148	0x3ea7f2fe	0.32802576
149	0xbea96256	-0.33082837
150	0xbe8b0868	-0.2715485
151	0x3de29b48	0.11064774
152	0xbe124db3	-0.14287452
153	0x3ea94d80	0.3306694
154	0x3ddbbc1b	0.10729238
155	0x3e97ba6d	0.2963442
156	0x3e8e4438	0.27786422
157	0x3e29e804	0.16592413
158	0xbe8be784	-0.2732507
159	0x3e1c9763	0.15292124
160	0xbc81cdd4	-0.015845217
161	0xbe8319ef	-0.25605723
162	0xbdce5c97	-0.10076254
163	0xbe912057	-0.28344986
164	0xbe987922	-0.29779917
165	0x3da506d7	0.08057945
166	0xbe88d832	-0.26727444
167	0x3e8208d2	0.25397354
168	0xbe773b4d	-0.24143715
169	0x3e92f9b5	0.28706136
170	0xbe913cc8	-0.28366685
171	0xbe292114	-0.16516525
172	0xbdf6590b	-0.12028702
173	0x3ea4724e	0.32118458
174	0xbdd9a940	-0.10627985
175	0x3e850831	0.25982812
176	0x3e5cd4f6	0.21565613
177	0x3e63c554	0.22243243
178	0x3e14b1ce	0.14520952
179	0xbe874d9a	-0.26426393
180	0xbd9379ff	-0.07201003
181	0xbeb3c640	-0.3511219
182	0x3e3c202b	0.18371646
183	0x3e8a4c46	0.27011317
184	0x3e6a897b	0.22904007
185	0x3cb2bf94	0.021819867
186	0xbe813ad2	-0.2524019
187	0x3d3a1188	0.045426875
188	0x3dd97ebe	0.10619877
189	0x3e7eb097	0.24872051
190	0x3ccef1ad	0.025261724
191	0x3e774da8	0.24150717
192	0xbe3a3b61	-0.18186714
193	0x3ce28638	0.027651891
194	0x3d199935	0.037499625
195	0x3e89c318	0.26906657
196	0x3d442b39	0.047892783
197	0xbe0bf49c	-0.1366753
198	0xbe611b89	-0.2198316
199	0xbe92af7e	-0.28649515
200	0x3c648aa2	0.013949068
201	0x3c0b7c2b	0.008513491
202	0xbd9fe9ae	-0.07808243
203	0xbeb155a8	-0.34635663
204	0x3d9f4c12	0.07778181
205	0x3e90baf0	0.28267622
206	0xbe9703f1	-0.29495195
207	0xbe7e12eb	-0.24811904
208	0x3e1e7814	0.15475494
209	0xbe30ce3e	-0.17266175
210	0x3dc1f1bd	0.09469936
211	0x3e92550e	0.28580517
212	0x3d7c2480	0.061558247
213	0xbd3b91e7	-0.04579344
214	0x3e53d881	0.20688058
215	0xbd29889f	-0.041390058
216	0xbe890a4f	-0.26765677
217	0x3e90fb59	0.28316763
218	0xbdef9f7d	-0.11700342
219	0x3e39dc1d	0.18150373
220	0xbe17ab83	-0.1481152
221	0x3dbfeb3d	0.0937104
222	0xbe84c0ef	-0.25928447
223	0x3d590090	0.052979052
224	0x3e0cf278	0.1376437
225	0x3e8b1bbf	0.27169606
226	0xbeaebb4f	-0.3412728
227	0x3e908846	0.28228968
228	0x3d4903ed	0.04907601
229	0xbea65f42	-0.3249455
230	0xbcc37bfb	-0.02386283
231	0x3e9e8c40	0.30966377
232	0x3eaaca50	0.33357477
233	0xbe981a9b	-0.29707798
234	0xbe0a4d3f	-0.1350603
235	0xbc32c3d0	-0.010910943
236	0x3da38fdf	0.079864256
237	0x3ca87798	0.02056484
238	0xbeab53ed	-0.33462468
239	0x3e55afe4	0.20867878
240	0xbe563aea	-0.20920911
241	0xbe7e856e	-0.24855587
242	0x3e7dd7b8	0.24789321
243	0x3da39319	0.07987041
244	0x3e9d028d	0.3066601
245	0xbe2de6da	-0.16982594
246	0xbe378c68	-0.17924654
247	0x3e844011	0.2583013
248	0x3eb055b6	0.34440392
249	0xbe2860d0	-0.16443181
250	0x3e7b5820	0.24545336
251	0x3ba4117e	0.005006968
252	0xbdd7a792	-0.105300084
253	0xbe22568c	-0.15853328
254	0x3e5e3bd5	0.21702512
255	0x3dc4c589	0.09607989

fc1.bias f4 [64]
0	0xbe1ed3a0	-0.15510416
1	0x3e779d1a	0.24181023
2	0x3db948fd	0.090471245
3	0x3d1c7a90	0.038202822
4	0x3e9ecb9b	0.31014714
5	0xbcd4f4ed	-0.025995696
6	0xbe0c1712	-0.13680676
7	0xbdfda540	-0.123850346
8	0xbe2d59f6	-0.16928849
9	0x3dcb15b7	0.09916251
10	0x3cdaf3d6	0.026727598
11	0x3e342d14	0.17595321
12	0x3e509498	0.20369184
13	0x3e78ee77	0.24309717
14	0x3d260bcd	0.040538598
15	0xbde15edf	-0.11004423
16	0x3d4a5bfc	0.04940413
17	0x3e170fb1	0.1475208
18	0x3e617228	0.22016203
19	0xbe94cec6	-0.29064006
20	0xbe3019db	-0.17197363
21	0xbe35a487	-0.17738543
22	0x3e834828	0.25640988
23	0x3ead02ce	0.33791202
24	0x3ea9ac89	0.33139446
25	0x3e66a38e	0.22523329
26	0x3e88eb04	0.26741803
27	0xbcb38a79	-0.021916615
28	0x3d402507	0.046910312
29	0xbd939db2	-0.07207812
30	0x3e2ca8db	0.16861288
31	0x3e9813ca	0.29702598
32	0x3da6d986	0.08146958
33	0xbd98d2ce	-0.07462083
34	0x3ddda3c3	0.10822251
35	0xbe835039	-0.25647143
36	0xbea1ad50	-0.3157754
37	0xbd68d892	-0.056847163
38	0x3e6bc84d	0.23025627
39	0xbe330533	-0.17482452
40	0x3e31522b	0.17316501
41	0x3e1db33c	0.15400404
42	0xbe9cac26	-0.3060009
43	0x3e07d758	0.13265741
44	0x3e5c5c60	0.21519613
45	0xbe415525	-0.18880136
46	0x3eae2428	0.3401196
47	0xbc227871	-0.009916411
48	0x3e016121	0.12634708
49	0xbe77134a	-0.24128452
50	0xbdb945c6	-0.09046511
51	0xbdc53890	-0.09629929
52	0x3e93a86b	0.2883943
53	0xbd9f4b0f	-0.07777988
54	0x3e7b54a2	0.24544004
55	0x3e80160f	0.2501683
56	0xbe4c717d	-0.19965167
57	0xbea981f3	-0.33106956
58	0xbd1322b5	-0.03592177
59	0x3bccdb57	0.0062517333
60	0xbdecea4b	-0.11568125
61	0xbe4cdc6b	-0.20005958
62	0x3d7ff418	0.062488645
63	0x3e9a4114	0.30127776

fc2.weight f4 [64, 64]
0	0x3cbee20f	0.023301153
1	0xbc3989b8	-0.011324339
2	0xbd5cfa0d	-0.053949405
3	0xbdf1bdbc	-0.11803767
4	0x3dd21960	0.10258746
5	0xbc2ded5f	-0.010615676
6	0x3d8b1506	0.06791119
7	0xbd8824ac	-0.066476196
8	0x3a9fbcf6	0.0012187052
9	0x3da40abf	0.08009862
10	0xbc8aa710	-0.016925365
11	0x3da83d52	0.08214821
12	0x3d4d2107	0.050080325
13	0x3de6c61b	0.11268254
14	0x3d18cdf5	0.03730579
15	0x3d17ddfd	0.03707694
16	0xbcc6cfc2	-0.024268989
17	0xbd927c6a	-0.07152636
18	0x3d357846	0.044304155
19	0x3dd6a024	0.10479763
20	0xbdcc5cf3	-0.09978666
21	0xbd3dbf7a	-0.046325184
22	0x3dca9b42	0.09892894
23	0x3d068be9	0.032848272
24	0xbcfc9673	-0.030833459
25	0xbd3b7ac3	-0.04577137
26	0xbd50f9ca	-0.051019467
27	0xbdb011d8	-0.085971534
28	0xbdbd2344	-0.09235242
29	0xbc84fc41	-0.016233565
30	0x3b602587	0.0034202056
31	0xbd3a45d4	-0.04547675
32	0x3dafa4ef	0.085763805
33	0xbd3a194b	-0.045434278
34	0x3dfd4532	0.123667136
35	0xbd96acc7	-0.073571734
36	0xbcbe3a54	-0.023221172
37	0x3df9d271	0.12198342
38	0xbc16f234	-0.009213019
39	0xbd7f9b56	-0.062404
40	0xbd803d3d	-0.0626168
41	0x3c7a0783	0.01526058
42	0xbd7346a7	-0.05939355
43	0x3dc589db	0.096454345
44	0x3c9d9d5e	0.019240078
45	0x3dbd3e69	0.092404194
46	0xbdc20d19	-0.094751544
47	0x3dc70082	0.09716894
48	0xbdcfe417	-0.101509266
49	0xbdd2c307	-0.10291105
50	0x3de1927a	0.11014266
51	0xbdcb6353	-0.09931054
52	0x3d6d3320	0.057910085
53	0xbcbdb132	-0.023155782
54	0x3d504f54	0.050856903
55	0xbdf9482b	-0.12171968
56	0xbc88d7be	-0.016704436
57	0x3dc6acce	0.09700929
58	0x3d1157ed	0.035484243
59	0x3d9a14b9	0.07523484
60	0x3d4ed552	0.050496407
61	0x3ddd1e01	0.107967384
62	0xbcc4be58	-0.024016544
63	0xbcce6f8d	-0.025199676
64	0x3caec195	0.021332541
65	0x3df04ad7	0.117330246
66	0x3db1c3ca	0.08679922
67	0x3ca16e70	0.019705981
68	0xbdb65c0f	-0.089042775
69	0x3dd24a0f	0.10268032
70	0x3b2df2b0	0.0026542358
71	0xbd8561e8	-0.06512815
72	0x3d90682a	0.07051118
73	0x3ccd6c18	0.025075957
74	0xbdcb7cdf	-0.09935927
75	0x3d50df02	0.050993927
76	0xbb3f79ab	-0.0029216807
77	0xbdb418f4	-0.08793822
78	0x3d53ad1e	0.05167877
79	0xbd8402e7	-0.06445866
80	0x3e03fb3a	0.12888804
81	0x3d3a7194	0.045518473
82	0x3ca7178e	0.020396974
83	0x3d9ce578	0.07660955
84	0xbcfac46d	-0.030611241
85	0x3d2836b2	0.041067787
86	0x3dd16da8	0.102259934
87	0xbdb31dcf	-0.0874592
88	0xbddd7fd3	-0.10815396
89	0x3d9859f9	0.07439036
90	0xbdbfb0b4	-0.09359875
91	0x3d88665e	0.0666015
92	0x3dadb788	0.084822714
93	0x3d6c6335	0.0577118
94	0xbde9cb86	-0.11415772
95	0x3d96b613	0.07358947
96	0xbdc57f54	-0.096434265
97	0xbdf1c8f7	-0.11805909
98	0xbcab3663	-0.020899957
99	0x3d9b7c5a	0.075920776
100	0x3d037cef	0.032101568
101	0xbdacb974	-0.0843381
102	0xbd7cc224	-0.061708584
103	0x3dc6e577	0.09711736
104	0xbd612fcd	-0.054977227
105	0x3d98878f	0.07447731
106	0x3da550c5	0.08072046
107	0x3de01fb8	0.1094355
108	0x3d810962	0.06300618
109	0xbdc7afcd	-0.09750328
110	0x3d9841e6	0.07434444
111	0xbce75687	-0.028239502
112	0xbcb5618c	-0.02214124
113	0x3c466927	0.012110031
114	0x3da78923	0.08180454
115	0xbc010d63	-0.007876727
116	0x3b432454	0.0029776292
117	0xbddd8460	-0.10816264
118	0x3dd31cc0	0.10308218
119	0x3da85e62	0.08221127
120	0x3debef16	0.115202114
121	0x3d73d6c0	0.059530973
122	0x3deafe5f	0.11474299
123	0xbce4612a	-0.027878363
124	0x3daa51dd	0.083163954
125	0xbc7520fd	-0.014961478
126	0x3d6fdbde	0.05855929
127	0xbdb916ad	-0.09037528
128	0xbdaf4b91	-0.08559335
129	0xbcea3572	-0.028589938
130	0x3a0f37e2	0.0005463344
131	0xbdb8a898	-0.09016532
132	0xbddb0d15	-0.106958546
133	0x3dad239c	0.084540576
134	0x3d40ba77	0.047052827
135	0x3d1ad97b	0.03780506
136	0xbd97a737	-0.074049406
137	0xbdf51426	-0.11966734
138	0xbd9b799a	-0.07591553
139	0x3d158ae1	0.0365094
140	0x3d9e74a6	0.07737093
141	0xbdd9d911	-0.10637105
142	0x3d6561e5	0.056001563
143	0xbd1ac7de	-0.037788264
144	0x3d57012a	0.052491345
145	0xbb96ce2c	-0.0046022143
146	0x3caa9662	0.020823661
147	0x3d417540	0.04723096
148	0xbd7b3355	-0.06132825
149	0x3dbaaa3c	0.09114501
150	0x3db15f5e	0.08660768
151	0xbcf8314d	-0.030296946
152	0xbbb74974	-0.005593473
153	0x3b798685	0.0038074565
154	0xbd0c00cd	-0.03418045
155	0x3cdefd79	0.027220475
156	0xbd64dc93	-0.05587442
157	0xbd6ea14d	-0.058259297
158	0x3de417fc	0.11137387
159	0xbc735915	-0.014852782
160	0x3d8a4c87	0.06752878
161	0xbdc2e6e8	-0.09516698
162	0x3ccdf9ec	0.025143586
163	0xbdb28039	-0.08715863
164	0x3c1965fc	0.009362694
165	0xbd90e683	-0.070752166
166	0xbcfc80b7	-0.030823095
167	0xbdda19eb	-0.10649475
168	0x3c8fc719	0.017550992
169	0x3b8b5edd	0.004253252
170	0x3acd8797	0.0015680668
171	0xbd78acd5	-0.0607117
172	0x3dd454d1	0.1036774
173	0x3dafbc41	0.085808285
174	0xbddd9cac	-0.108208984
175	0x3d8bb43b	0.068214856
176	0xbd3a3bf9	-0.04546735
177	0xbd5c6909	-0.053811107
178	0xbcd0ad9c	-0.025473408
179	0x3c3face7	0.011698938
180	0xbcbfc4ee	-0.023409333
181	0xbdab44cb	-0.083627306
182	0x3d920b72	0.07131089
183	0x3d9407b0	0.07228029
184	0xbdf32a0a	-0.11873253
185	0x3d688c52	0.056774445
186	0x3da565aa	0.080760315
187	0xbdef60f9	-0.11688418
188	0xbdbdf282	-0.0927477
189	0x3cec6967	0.028858854
190	0xbded03b3	-0.11572971
191	0xbd02aa6d	-0.031900812
192	0xbda7c64e	-0.081921205
193	0xbdd1c4e6	-0.102426335
194	0x3dc16232	0.094425574
195	0x3c82ed3e	0.015982267
196	0xbda199d5	-0.07890669
197	0x3c0d6ea4	0.008632336
198	0xbbdde834	-0.0067720655
199	0x3d401286	0.046892665
200	0x3d95540c	0.07291421
201	0xbd60d98f	-0.05489498
202	0x3df40be5	0.11916331
203	0xbd15da96	-0.036585413
204	0xbda1dcf6	-0.07903473
205	0x3d0bf693	0.0341707
206	0xbb48ddf3	-0.003064987
207	0xbc630c12	-0.013857858
208	0xbdb5662e	-0.0885738
209	0x3d146f47	0.036238935
210	0xbdb71566	-0.08939628
211	0xbdb63b53	-0.08898034
212	0x3d061e74	0.032743886
213	0xbcf130ef	-0.029442279
214	0xbd696634	-0.056982234
215	0xbda34fb4	-0.079741865
216	0x3d7e4da9	0.06208578
217	0xbc849db9	-0.01618849
218	0xbd896f1c	-0.067106456
219	0x3d4ffdc7	0.05077913
220	0xbacacdca	-0.0015472707
221	0xbdd4f7af	-0.103988044
222	0xbdb86616	-0.09003846
223	0xbcd5954d	-0.026072169
224	0xbd80c534	-0.062876135
225	0x3cc7d147	0.024391783
226	0xbd38998c	-0.04506831
227	0x3d900b71	0.07033432
228	0x3d6b9134	0.057511523
229	0x3d2ed328	0.042681843
230	0x3c358845	0.0110798525
231	0x3d7c0204	0.06152536
232	0xbc362c06	-0.011118894
233	0xbdf4bf85	-0.11950592
234	0x3d179b55	0.03701337
235	0x3c8daa35	0.017293075
236	0xbc9f4086	-0.019439947
237	0x3d0e59bd	0.03475355
238	0x3d51ea61	0.05124891
239	0x3d3c376c	0.045951292
240	0xbd04d9cc	-0.03243427
241	0x3e00c50c	0.12575167
242	0xbc264eea	-0.0101506505
243	0xbce6c5a5	-0.028170416
244	0xbd01f551	-0.031728093
245	0x3dde082a	0.10841401
246	0xbc8824d9	-0.016619133
247	0xbc9244e4	-0.017855115
248	0xbd018d59	-0.03162894
249	0x3c8ee577	0.017443402
250	0xbd51a5f6	-0.051183663
251	0x3d7770a3	0.060410153
252	0xbd8f347a	-0.06992431
253	0x3d325d1e	0.043545835
254	0x3d990d02	0.07473184
255	0x3e044d0c	0.12920016

fc2.bias f4 [64]
0	0xbdcc4b49	-0.09975297
1	0x3d2db46e	0.0424084
2	0x3c3714c3	0.011174384
3	0xbd8b2b9e	-0.06795429
4	0xbd327bc8	-0.04357508
5	0xbd78a216	-0.060701452
6	0x3dc53d7e	0.09630869
7	0x3da56ac5	0.08077005
8	0x3dce1d1e	0.100641474
9	0x3c8234ae	0.01589426
10	0x3d819664	0.06327513
11	0x3d397f94	0.045287684
12	0x3d21d7ef	0.03951257
13	0xbd0f0b1a	-0.034922697
14	0x3da21bfa	0.07915492
15	0xbdf520d7	-0.11969154
16	0x3dcde1c1	0.10052825
17	0x3dee69b9	0.11641259
18	0x3d46d7ff	0.048545834
19	0x3dae5e74	0.08514109
20	0xbd33a008	-0.04385379
21	0x3db6261f	0.0889399
22	0x3d965836	0.07341044
23	0xbcea1839	-0.028576003
24	0xbc504cf7	-0.012713662
25	0x3cef0f40	0.029182076
26	0x3c0dae82	0.008647563
27	0x3d343e3d	0.044004668
28	0xbd1ae01e	-0.03781139
29	0x3d99ff6d	0.07519422
30	0x3d84eff3	0.06491079
31	0x3d0e08e5	0.03467645
32	0x3d0516e0	0.03249252
33	0x3be71ab4	0.007052744
34	0xbc5c05de	-0.013429133
35	0xbd7ee8c3	-0.062233698
36	0x3d4c34b5	0.049854953
37	0xbbe2deaf	-0.0069235186
38	0xbc6cbe66	-0.014449691
39	0x3d317afe	0.043330185
40	0xbaec51bb	-0.0018029729
41	0x3d8f4449	0.06995446
42	0x3d055aa6	0.032557152
43	0x3cf0a47d	0.02937531
44	0xbd1781b2	-0.03698892
45	0xbc5268a3	-0.01284233
46	0xbc9c6c81	-0.019094707
47	0x3df88266	0.121342465
48	0x3de50c66	0.111840054
49	0xbc37fc84	-0.011229638
50	0xbc4eb244	-0.012615744
51	0x3d85e7be	0.06538342
52	0x3de98dfa	0.11404033
53	0xbd9b36a4	-0.07578781
54	0x3d8d9d16	0.069147274
55	0xbc293daa	-0.010329643
56	0x3de32e33	0.11092796
57	0x3c2c83ca	0.010529468
58	0x3dd03569	0.10166437
59	0xbd061bee	-0.03274148
60	0x3a6764e2	0.00088269834
61	0x3dfefe25	0.12450818
62	0x3d5bc2e6	0.053652667
63	0xbdf88057	-0.12133854

fc3.weight f4 [64, 64]
0	0xbdcefba4	-0.101065904
1	0x3de3ea4c	0.11128673
2	0x3d77df75	0.06051584
3	0x3da186c2	0.07887031
4	0xbdbc44f7	-0.091928415
5	0xbdc2155d	-0.09476731
6	0xbd4d57bc	-0.0501325
7	0xbdd93717	-0.10606211
8	0x3de7fa85	0.1132708
9	0xbc1df47c	-0.009640809
10	0x3d13bb1f	0.036067124
11	0x3ce58b96	0.028020661
12	0xbdca6a9d	-0.09883616
13	0x3cf23ccc	0.029570006
14	0xbd291d92	-0.041287966
15	0x3cdbf69a	0.026850987
16	0x3d0fc211	0.035097186
17	0x3d815d50	0.06316626
18	0x3d4b900a	0.049697913
19	0x3b247f43	0.0025100268
20	0xbde073c0	-0.109595776
21	0x3df26b5b	0.11836883
22	0xbde5345b	-0.11191627
23	0x3dbc209f	0.091859095
24	0x3ddf4abc	0.10902926
25	0xbd847c6b	-0.06469043
26	0xbd65ebbb	-0.056133013
27	0xbdb0c2c4	-0.086308986
28	0xbd797570	-0.060903013
29	0x3db1e29d	0.08685801
30	0x3afa5c3f	0.0019100978
31	0xbdc37a99	-0.09544868
32	0x3d8b4cb4	0.06801739
33	0x3e0138fa	0.12619391
34	0xbcda4b2c	-0.026647173
35	0x3cb7b011	0.022422822
36	0x3dc01f46	0.09380965
37	0xbb9d0201	-0.0047914986
38	0xbd860a08	-0.06544882
39	0xbc998d1c	-0.018744044
40	0xbd897946	-0.06712584
41	0xbda7215d	-0.081606604
42	0x3b81a498	0.0039563887
43	0xbdc857af	-0.09782349
44	0x3d5038c8	0.0508354
45	0x3c6a2482	0.014290931
46	0xbd5f75a3	-0.054555546
47	0x3df24a46	0.11830573
48	0xbd9d2111	-0.076723225
49	0x3dc19d40	0.09453821
50	0x3df1d313	0.11807837
51	0x3dfa807e	0.12231539
52	0x3d79146e	0.0608105
53	0x3dffbad5	0.12486807
54	0x3dc6f1fb	0.09714123
55	0xbde88711	-0.11353887
56	0x3db714d6	0.08939521
57	0xbd6b8b0f	-0.057505663
58	0x3cc244cc	0.023714446
59	0x3d3dc874	0.046333745
60	0x3db46307	0.088079505
61	0x3b8f0a22	0.0043652216
62	0xbde84c82	-0.11342718
63	0xbd7d9184	-0.061906353
64	0xbd470f2e	-0.04859846
65	0xbd5d096e	-0.05396407
66	0xbc1660f5	-0.00917839
67	0x3cbd82fc	0.023133747
68	0x3de24b6c	0.11049542
69	0xbd7e1ce3	-0.062039267
70	0xbd865093	-0.06558337
71	0x3c09c9b5	0.008409907
72	0x3b038fd5	0.0020074744
73	0xbc8f5ed3	-0.01750127
74	0xbdd30ad9	-0.103048034
75	0xbd93025f	-0.071781866
76	0x3d7eebb7	0.062236514
77	0xbdb24282	-0.087040916
78	0x3d336685	0.043798942
79	0x3da53cf6	0.08068268
80	0xbd01b4d0	-0.031666577
81	0x3d9df8f3	0.07713499
82	0x3c02765c	0.007962789
83	0xbdea1c5b	-0.114311896
84	0x3d8f7b37	0.07005923
85	0xbdf87ee7	-0.1213358
86	0xbdfa3034	-0.12216225
87	0x3c6a59a8	0.014303602
88	0xbdddc9db	-0.108295165
89	0x3de1b533	0.11020889
90	0xbdb51efa	-0.08843799
91	0xbc1b3d28	-0.00947503
92	0x3980b7bd	0.00024550958
93	0xbd4402fa	-0.0478544
94	0x3d11c340	0.035586596
95	0xbd467a73	-0.04845662
96	0xbdf653de	-0.12027715
97	0xbd2e53ba	-0.042560317
98	0xbc8d2c76	-0.017233115
99	0xbd2d65f8	-0.042333573
100	0xbd9f19bc	-0.0776858
101	0xbd689e60	-0.056791663
102	0x3c488a70	0.012240037
103	0xbb86494d	-0.0040980936
104	0x3e035b1d	0.12827726
105	0x3d195db5	0.03744288
106	0xbd184eb8	-0.037184447
107	0xbd95952e	-0.073038444
108	0x3dc70aac	0.097188324
109	0xbc3012ea	-0.010746697
110	0x3d820154	0.063479096
111	0x3db51f82	0.088439
112	0xbda3b085	-0.07992653
113	0xbd7e244d	-0.062046338
114	0x39fc634e	0.00048139173
115	0xbd9a48b0	-0.07533395
116	0xbd186675	-0.037207086
117	0xbdc2d386	-0.09513001
118	0xbded4d63	-0.11587026
119	0xbdbf7b04	-0.09349635
120	0x3cb313ea	0.021860082
121	0x3dbd04eb	0.09229454
122	0x3dbaa337	0.09113162
123	0x3dbe13d4	0.09281126
124	0xbd56553d	-0.052327383
125	0x3dc15d98	0.0944168
126	0x3d272ef2	0.040816255
127	0x3d05443b	0.032535773
128	0xbbf2aba3	-0.0074057146
129	0x3c601425	0.013676678
130	0x3dcec6fe	0.100965485
131	0x3d90a1bc	0.070620984
132	0xbd2b5ee2	-0.041838534
133	0x3d96e6a7	0.07368212
134	0x3daa354b	0.08310946
135	0xbdc3ba28	-0.09556991
136	0x3dd7d197	0.10538023
137	0xbcb43130	-0.02199611
138	0x3dfe1956	0.12407176
139	0xbdfcc12f	-0.12341534
140	0x3df67778	0.120345056
141	0x3b8567bf	0.0040712054
142	0xbcd64a53	-0.026158487
143	0xbdd6efeb	-0.104949795
144	0x3d8e0591	0.069346555
145	0xbc12d256	-0.008961281
146	0xbd75c486	-0.060001872
147	0x3b12f6a9	0.0022424853
148	0xbdd23150	-0.10263312
149	0xbc2d1db0	-0.01056616
150	0xbda3271e	-0.079664454
151	0x3df6bc41	0.12047625
152	0x3c579ff2	0.0131606925
153	0xbdfb6644	-0.12275365
154	0x3d4ec916	0.05048474
155	0x3c3f58c4	0.011678878
156	0xbddc2ff5	-0.107513346
157	0x3da81556	0.082071945
158	0xbcb78a25	-0.02240474
159	0x3dd64178	0.10461706
160	0x3cb9cef0	0.022681683
161	0xbc9a2087	-0.018814338
162	0x3d88339d	0.066504695
163	0x3d655a41	0.055994276
164	0xbcbb2988	-0.022846952
165	0xbdbe8c6b	-0.09304126
166	0xbd56a75f	-0.05240571
167	0x3df528d4	0.11970678
168	0x3daae1e6	0.08343868
169	0xbda3fa4f	-0.08006727
170	0x3d9fdc4a	0.07805689
171	0x3d88d374	0.066809565
172	0xbd047e8b	-0.032347243
173	0xbdcc5a1b	-0.09978124
174	0xbd0f6369	-0.035006914
175	0x3dd7a7f0	0.105300784
176	0x3de68399	0.11255569
177	0xbd060b94	-0.032725886
178	0xbce322db	-0.027726581
179	0x3da27e2b	0.07934221
180	0xbd802c43	-0.06258442
181	0xbd0ee0b1	-0.03488225
182	0xbd9354a6	-0.0719388
183	0x3dc5e3e7	0.096626095
184	0x3dade98c	0.08491811
185	0x3d7c80f8	0.06164643
186	0xbcd777cc	-0.02630224
187	0xbdd65133	-0.10464706
188	0x3d929eea	0.07159217
189	0x3def6c18	0.11690539
190	0x3c334565	0.010941838
191	0x3ce4dd5d	0.027937585
192	0xbccc34aa	-0.024927456
193	0xbdc4908b	-0.09597882
194	0xbd7125bb	-0.058873873
195	0xbd8e71af	-0.06955277
196	0xbca2a69c	-0.019854836
197	0xbd643cfd	-0.055722225
198	0x3d606a64	0.054788962
199	0x3bf9b86c	0.0076208618
200	0xbd911afd	-0.07085226
201	0x3b9ff9d1	0.0048820754
202	0xbdb13239	-0.08652157
203	0x3cdcb919	0.02694373
204	0x3d866b32	0.06563415
205	0x3b9cc0de	0.0047837337
206	0xbdc115ef	-0.094280116
207	0xbddc5aaa	-0.1075948
208	0xbd28d4cb	-0.04121856
209	0xbceceba2	-0.028920952
210	0xbdc3f9c6	-0.09569125
211	0x3c74039a	0.014893437
212	0x3d316576	0.04330965
213	0x3dc3be77	0.09557813
214	0xbdabc4db	-0.083871566
215	0xbd9bb69a	-0.07603188
216	0x3ca7fefe	0.020507332
217	0xbdb6b54f	-0.089213006
218	0x3d87774e	0.066145524
219	0xbd93fda0	-0.072261095
220	0xbbf04f89	-0.0073337
221	0x3db13573	0.08652773
222	0xbd5e0b0d	-0.054209758
223	0xbd1dc1a1	-0.038514737
224	0xbd2bab91	-0.041911665
225	0x3cfd1b3e	0.03089678
226	0xbe0a7f3b	-0.13525097
227	0x3d7ac1a2	0.06121982
228	0x3d55f053	0.052231144
229	0x3d64761c	0.0557767
230	0xbdbf0a62	-0.09328152
231	0xbda9ce43	-0.082912944
232	0x3dd2bfe7	0.10290509
233	0x3d08e99b	0.03342591
234	0x3b410ae1	0.0029455947
235	0x3d522e95	0.051313955
236	0x3d7fafd5	0.062423546
237	0xbd91db76	-0.07121937
238	0x3baed3a4	0.005335288
239	0xbdcacda5	-0.09902505
240	0x3de2dbf0	0.11077106
241	0x3cb4adf6	0.022055607
242	0x3d394bff	0.04523849
243	0xbd972783	-0.07380583
244	0xbcb80446	-0.022462975
245	0xbd4d1d8e	-0.050077014
246	0xbdc4b4ad	-0.09604774
247	0xbd93f9a1	-0.07225347
248	0x3c4522da	0.012032235
249	0xbdd8759b	-0.105693065
250	0x3ddcd8ed	0.10783563
251	0xbdd5a0b8	-0.10431045
252	0xbd16cb53	-0.036815
253	0xbd8ac75f	-0.06776308
254	0x3d9073a4	0.07053307
255	0x3d10bd68	0.035336882

fc3.bias f4 [64]
0	0xbd6b79a8	-0.057489067
1	0x3b4f0668	0.0031589512
2	0xbc8e17d8	-0.017345354
3	0x3dc21ea1	0.09478498
4	0x3c02a681	0.007974268
5	0xbd86f7d7	-0.065902404
6	0x3cd81d59	0.026381182
7	0xbd30d3b8	-0.04317066
8	0x3df7af5e	0.120939955
9	0xbdc5178c	-0.09623632
10	0xbde31905	-0.110887565
11	0xbd90c0d8	-0.07068032
12	0xbdec8bb1	-0.115500815
13	0xbdca7ed4	-0.09887472
14	0xbd623623	-0.05522741
15	0xbdad66bb	-0.0846686
16	0xbda343b5	-0.079718985
17	0x3d23a55b	0.039952617
18	0xbcee5f6c	-0.029098235
19	0x3cdfd32f	0.02732238
20	0xbdd43b26	-0.10362844
21	0xbdb3f9c6	-0.08787875
22	0xbda58969	-0.080828495
23	0x3d9b5eda	0.07586451
24	0x3d8a9163	0.067660116
25	0xbcd23090	-0.025657922
26	0x3d9bc585	0.07606033
27	0x3d31122f	0.04323023
28	0xbbd9c32b	-0.0066455803
29	0x3dc78adf	0.097432844
30	0x3d45cf37	0.04829332
31	0x3d98433b	0.07434698
32	0x3d1c4e21	0.038160447
33	0x3d8ca856	0.06868045
34	0xbdc0dc33	-0.09417
35	0x3dd13974	0.102160364
36	0xbc02e2f5	-0.007988681
37	0xbce4341d	-0.02785688
38	0xbdac16bf	-0.08402776
39	0x3c26bcbd	0.010176835
40	0x3d0881fd	0.03332709
41	0xbc8187e6	-0.015811872
42	0x3db26ded	0.08712373
43	0xbd063286	-0.032763027
44	0xbd0fc0c4	-0.035095945
45	0x3da79b9d	0.08183978
46	0xbd72a1ee	-0.05923646
47	0x3dcf1a7d	0.10112474
48	0xbdd5d6a7	-0.10441332
49	0x3d0a80a7	0.0338141
50	0x3d1ac258	0.037782997
51	0xbdc298da	-0.0950181
52	0x3d47f0ae	0.048813514
53	0xbbf3bf97	-0.007438611
54	0x3d0905f7	0.033452954
55	0x3df77e93	0.12084689
56	0x3da9cc75	0.0829095
57	0xbc7c8005	-0.015411382
58	0x3da0762c	0.078350395
59	0x3db98389	0.090582915
60	0x3db72f72	0.08944596
61	0xbd0367de	-0.032081477
62	0xbcb71ed9	-0.022353576
63	0xbd4f0b8b	-0.050548118

out.weight f4 [2, 64]
0	0xbbcd3d73	-0.006263429
1	0x3bb40f0d	0.0054949583
2	0x3dab4eee	0.08364664
3	0xbdc150ec	-0.09439263
4	0x3db30db4	0.08742848
5	0xbd5e6583	-0.054296028
6	0x3dccc7f5	0.09999076
7	0xbc658555	-0.01400884
8	0xbdcbbee0	-0.09948516
9	0xbd30169d	-0.042990316
10	0xbd7accd3	-0.06123049
11	0x3d518503	0.05115224
12	0xbd0749ce	-0.03302937
13	0xbde4c250	-0.11169875
14	0xbdb6bde3	-0.08922937
15	0x3c5f0315	0.013611575
16	0x3d2e3e7d	0.042540062
17	0x3ddf51a7	0.10904246
18	0xbdd89140	-0.10574579
19	0x3cd7941e	0.026315745
20	0xbdbb8a14	-0.09157196
21	0xbd2f0129	-0.042725716
22	0x3a207cb0	0.00061220955
23	0xbdf51c1c	-0.11968252
24	0x3c9cab2e	0.019124594
25	0xbdcadb7e	-0.09905146
26	0xbc9241c4	-0.017853625
27	0x3d8fec42	0.070274845
28	0xbd5b093a	-0.053475596
29	0xbd01f590	-0.031728327
30	0x3c49815c	0.012298908
31	0xbd8e66fa	-0.06953235
32	0xbdd98b96	-0.10622327
33	0xbcd4a2fd	-0.025956625
34	0xbddfbf48	-0.10925156
35	0x3dc3f7c5	0.09568743
36	0x3c4926c2	0.012277307
37	0xbd2950ee	-0.041336946
38	0x3dcd0130	0.10009992
39	0xbd976507	-0.07392316
40	0xbbdff282	-0.006834329
41	0x3d6b6aac	0.057474777
42	0x3d875a14	0.06608978
43	0xbd76cff5	-0.060256917
44	0x3d494e97	0.049147215
45	0x3d5def77	0.05418345
46	0x3e3afb1d	0.18259855
47	0x3dcf264d	0.10114727
48	0xbdc26743	-0.09492352
49	0x3dfc32b5	0.12314359
50	0xbd5881b3	-0.052858066
51	0xbdc1006e	-0.0942391
52	0xbd3cef84	-0.046126857
53	0xbdc30b09	-0.09523589
54	0xbdb03644	-0.086041
55	0x3dfdbc83	0.123894714
56	0xbb6f526e	-0.0036517638
57	0xbe0221cd	-0.12708206
58	0x3a7541fc	0.0009355841
59	0xbc977509	-0.018488424
60	0xbce3b81b	-0.02779775
61	0x3df0b514	0.11753288
62	0x3d0085c4	0.03137757
63	0x3c90548a	0.017618436
64	0xbdf27a8c	-0.1183978
65	0xbc7d0904	-0.015444044
66	0x3cc0f68a	0.023555059
67	0x3bcaedbe	0.006192892
68	0xbd41805d	-0.047241557
69	0xbdfca441	-0.123360164
70	0xbdd8e8db	-0.10591289
71	0x3d8cc625	0.068737306
72	0x3d8ec31f	0.0697081
73	0x3de0d587	0.10978227
74	0xbc9aa555	-0.018877665
75	0xbda77c0b	-0.08177956
76	0x3dc3ba73	0.09557047
77	0x3d6bb7a1	0.05754817
78	0x3c4aea79	0.012385004
79	0xbdc62a9e	-0.09676097
80	0xbc643e45	-0.013930862
81	0x3a85f5f9	0.00102204
82	0x3db123c1	0.08649398
83	0xbd9986c0	-0.07496405
84	0x3dafe01b	0.085876666
85	0x3d042c0c	0.03226857
86	0xbcf15704	-0.029460438
87	0x3dabd47a	0.08390136
88	0x3d183911	0.037163798
89	0x3cf1784d	0.02947631
90	0x3ddcf01f	0.10787987
91	0xbdd497c7	-0.10380512
92	0xbc90bf62	-0.017669383
93	0xbba50504	-0.0050359983
94	0x3b5156fd	0.0031942718
95	0x3d2b2583	0.04178382
96	0x3dd7304c	0.10507259
97	0xbd8068ad	-0.06269965
98	0xbbf100ac	-0.0073548164
99	0xbd99babe	-0.07506321
100	0x3dbd732e	0.092504844
101	0xbdf2cba9	-0.11855251
102	0x3da9122f	0.08255421
103	0x3c666b0b	0.014063607
104	0xbd95036a	-0.07276042
105	0x3d9318c0	0.07182455
106	0x3d186647	0.037206914
107	0x3d3eaee5	0.04655351
108	0xbdadef17	-0.084928684
109	0xbd391c60	-0.045193076
110	0x3de0222f	0.1094402
111	0x3dab6639	0.08369107
112	0x3da8186d	0.08207784
113	0xbdb83b73	-0.08995714
114	0xbd5adcd5	-0.053433258
115	0x3d83fb04	0.06444362
116	0xbd941847	-0.07231193
117	0xbd1e53a7	-0.038653996
118	0xbdf0851e	-0.1174414
119	0x3ca247c1	0.019809606
120	0x3c7cb353	0.015423614
121	0xbd9aa0ed	-0.075502254
122	0x3c60bfbb	0.013717587
123	0x3d5df271	0.05418629
124	0xbccc1fc2	-0.024917487
125	0xbdf131b4	-0.11777058
126	0xbd8a2812	-0.06745924
127	0x3d699b6f	0.057033

out.bias f4 [2]
0	0x3dc6a9f5	0.097003855
1	0xbdc6a8e3	-0.09700181
