Santiago_version/models/Umbumping_cars_V1.pth (torch, 38840 bytes, 8 tensors)

fc1.weight f4 [64, 6]
0	0xbfcd7ea5	-1.6054274
1	0xbf51b236	-0.81912553
2	0xbe4bdbd6	-0.1990808
3	0x3eb5a11a	0.35474473
4	0xbdcd42a1	-0.10022474
5	0xbecf0e17	-0.40440437
6	0x3ef4eaa5	0.4783527
7	0x3ee70fcb	0.45129237
8	0xbe89def0	-0.269279
9	0xbea9cf28	-0.3316586
10	0xbf58341f	-0.8445453
11	0x3e8f2e51	0.27965024
12	0x3efece54	0.4976679
13	0x3efb2a87	0.49055883
14	0xbdd012ac	-0.101598114
15	0xbf0e294e	-0.55531776
16	0xbf3fc35e	-0.7490748
17	0x3dca4271	0.09875954
18	0x3fb2cdfe	1.3969114
19	0x3f7e5d17	0.99360794
20	0xbd5cb661	-0.053884868
21	0xbec45a1a	-0.38349992
22	0xbf0a3042	-0.53979886
23	0x3e2a1a0e	0.16611502
24	0xbc9b240b	-0.018938085
25	0x3f2c34aa	0.6726786
26	0xbf01f08b	-0.50757664
27	0xbed64e0d	-0.41856423
28	0x410f0965	8.939794
29	0x3f8f203f	1.1181716
30	0x3f89823f	1.0742873
31	0x3ea02f12	0.31285912
32	0xbed98da4	-0.42490876
33	0xbf20d972	-0.62831795
34	0x4115328f	9.324843
35	0xbf89b382	-1.0757906
36	0xbfccb894	-1.5993829
37	0xbf745849	-0.9544721
38	0x3ea186dd	0.31548205
39	0x3e4afb92	0.19822529
40	0x3e3798a4	0.17929322
41	0xbc887abf	-0.016660092
42	0x3f236d7a	0.6383892
43	0x3ed3b70a	0.41350585
44	0xbf042915	-0.51625186
45	0xbf0a10b6	-0.5393175
46	0xbfa6ff61	-1.3046685
47	0x3f01c204	0.5068667
48	0x3f2a9d4e	0.6664628
49	0x3e8a289a	0.26984102
50	0xbec13e53	-0.37742862
51	0xbe90e1fb	-0.2829741
52	0xbfb82a2d	-1.4387871
53	0xbf0d1caa	-0.5512186
54	0xbfe5ddf2	-1.7958357
55	0xbf3b28e8	-0.73109293
56	0x3de55704	0.111982375
57	0x3f0962f5	0.5366662
58	0x3e93a15d	0.28834048
59	0xbec10bd3	-0.37704334
60	0xc0081d56	-2.1267905
61	0xbf0f23e2	-0.5591413
62	0x3e8cf694	0.27531874
63	0x3d3b711c	0.045762166
64	0xbe59ae7d	-0.21257968
65	0xbe62ff16	-0.2216762
66	0xbdbe73bf	-0.092994206
67	0xbf42353d	-0.75862485
68	0x3eb18499	0.34671476
69	0x3ee861c9	0.45387104
70	0x3fdcd892	1.7253592
71	0x3e4a9d30	0.19786525
72	0x3f3a395b	0.7274377
73	0x3f33437c	0.7002485
74	0x3e5b409d	0.21411367
75	0xbe15bbee	-0.1462247
76	0x40ea23a6	7.3168516
77	0x3e29b10a	0.16571441
78	0xbe85566e	-0.26042503
79	0xbf33d20c	-0.7024238
80	0x3e70b876	0.23507866
81	0x3f201f1a	0.6254746
82	0x3f405607	0.7513127
83	0xbf040223	-0.5156576
84	0x3f07e30d	0.53080827
85	0x3eccf7fd	0.4003295
86	0xbeb63c2f	-0.3559279
87	0xbe86bcfc	-0.2631606
88	0xbf8a0fd4	-1.078608
89	0x3e88b065	0.26697078
90	0xbf8a9495	-1.0826594
91	0xbf4e5582	-0.80599225
92	0x3ec8e8c5	0.3924009
93	0x3ee8d052	0.45471436
94	0x3dbd1bf4	0.09233847
95	0xbf33e8d4	-0.7027714
96	0x3fbef79a	1.4919312
97	0x3edd449d	0.4321641
98	0xbf49b435	-0.787906
99	0xbf460b3a	-0.7736088
100	0x40b68510	5.703743
101	0xbf4c8cdd	-0.7990244
102	0x3f81fbcf	1.0154971
103	0x3ec77e3a	0.3896349
104	0xbe39132b	-0.18073718
105	0x3b73882d	0.0037160025
106	0x41303aed	11.014386
107	0xbf397bd1	-0.72454554
108	0x3f12a133	0.5727722
109	0x3e5b7afb	0.21433632
110	0xbd604185	-0.054749984
111	0xbe9eb1cf	-0.30995032
112	0xbf12b2c8	-0.5730405
113	0xbec6c658	-0.388232
114	0xbf4eca5f	-0.80777544
115	0xbeb9f2e8	-0.36318135
116	0x3f21f928	0.6327081
117	0x3f0ba5d4	0.5454991
118	0x3f487da6	0.78316724
119	0xbeffbb58	-0.4994762
120	0x3f3db4f2	0.74104226
121	0x3e8946f3	0.26811942
122	0xbea8c1e2	-0.3296042
123	0xbe426709	-0.18984617
124	0x4114620b	9.273936
125	0x3e9f0580	0.31058884
126	0xbf06fe32	-0.5273162
127	0xbf0d5fbc	-0.55224204
128	0x3ece0f68	0.4024613
129	0x3ef68914	0.48151457
130	0x3f39b817	0.72546524
131	0xbe9aaa16	-0.3020789
132	0xbf150b2e	-0.58220184
133	0xbf1ebc7e	-0.62006366
134	0x3ef8694b	0.48517832
135	0x3e733667	0.23751222
136	0xc115fdeb	-9.374492
137	0xbdc47919	-0.0959341
138	0x3cda5702	0.026652817
139	0x3e7c49c6	0.24637517
140	0xbeb7b18f	-0.35877654
141	0x3d835e8e	0.06414519
142	0x4111e265	9.117772
143	0x3f106af7	0.56413215
144	0xbfe240d9	-1.767604
145	0xbf389e09	-0.7211614
146	0x3ea5ff53	0.3242136
147	0x3e3c257a	0.18373671
148	0x3e607d97	0.21922909
149	0xbe9b1393	-0.3028837
150	0x3f437fd0	0.763669
151	0x3e5edea7	0.21764623
152	0xbf072553	-0.5279133
153	0xbe354612	-0.17702511
154	0xbfab6e77	-1.3393086
155	0xbd51b1a0	-0.051194787
156	0x3d8830f8	0.06649965
157	0x3f1d8685	0.61533386
158	0xbe591486	-0.21199235
159	0x3c1e2777	0.009652964
160	0xc07ab540	-3.9173126
161	0xbeb3e4ff	-0.35135648
162	0xbcca9965	-0.024731347
163	0xbd0ac72c	-0.03388135
164	0xbec6443e	-0.3872394
165	0xbebb9ceb	-0.36643156
166	0xbe25dd64	-0.16197735
167	0xbe842317	-0.2580802
168	0x3dfdc74c	0.123915285
169	0x3e1d2880	0.15347481
170	0x3ec85f96	0.39135426
171	0x3f78b91f	0.9715747
172	0x3e6527d1	0.2237847
173	0xbe2798ca	-0.16366878
174	0x3f0e297e	0.5553206
175	0x3ee8e2b2	0.45485455
176	0xbeff5d7a	-0.49876004
177	0xbe8af5ff	-0.27140805
178	0xbf776683	-0.96640795
179	0x3f07a09c	0.52979445
180	0x3edc146c	0.4298433
181	0x3f1dc66d	0.616309
182	0xbcd5da05	-0.026104936
183	0xbf32ca30	-0.69839764
184	0xbf8c7db0	-1.0975857
185	0x3e9292c2	0.28627592
186	0xbf8b7d06	-1.0897529
187	0xbecfddaf	-0.4059882
188	0x3f250012	0.6445323
189	0x3f244477	0.6416697
190	0x3f132157	0.5747275
191	0xbea5a9d7	-0.3235614
192	0xbfd029ef	-1.6262797
193	0xbf57aea2	-0.84250844
194	0x3e8b0828	0.2715466
195	0x3eb32676	0.3499028
196	0x3f118e16	0.5685743
197	0xbe2e6d4b	-0.1703388
198	0x3f266706	0.6500095
199	0x3eee51e2	0.46546847
200	0xbec622c3	-0.38698396
201	0xbe955a20	-0.29170322
202	0xbf0dfa99	-0.55460507
203	0x3ef6694b	0.48127207
204	0x3ee52a73	0.4475895
205	0x3ecd29d6	0.4007098
206	0xbef908be	-0.48639482
207	0x3c8b29df	0.01698774
208	0xbf977f53	-1.1835731
209	0xbef590e8	-0.47962117
210	0x3f2595bc	0.646816
211	0x3e837c3e	0.25680727
212	0xbe75fd66	-0.24022445
213	0xbe97bf3a	-0.29638082
214	0xbf7224ac	-0.94587207
215	0xbe995611	-0.29948476
216	0x3db0c0b0	0.08630502
217	0x3e8b3064	0.27185357
218	0x3dddffdf	0.10839819
219	0xbef61c52	-0.48068482
220	0x4105d9e3	8.365695
221	0x3f0c21eb	0.54739255
222	0x3fb8de1f	1.4442786
223	0x3f5eddd8	0.87057257
224	0xbcf5c7cd	-0.030002499
225	0xbd48457b	-0.048894387
226	0x3ee4fd1e	0.44724363
227	0xbe845b68	-0.25850987
228	0xbfa09289	-1.2544719
229	0xbf2b5f70	-0.669425
230	0x3ee14cfe	0.44004053
231	0x3e714c86	0.23564348
232	0xc12db119	-10.855737
233	0x3f45ddde	0.7729167
234	0xbfb179d2	-1.3865302
235	0xbf78f955	-0.9725545
236	0x3edcd08b	0.43127856
237	0x3e8d82af	0.27638766
238	0x3e9cb8db	0.30609784
239	0xbebd35ca	-0.369551
240	0x3f00847a	0.50202143
241	0x3ed9bb92	0.42525917
242	0xbe898518	-0.26859355
243	0xbed6b11a	-0.41931993
244	0xbf87657b	-1.0577844
245	0x3e6bee30	0.2304008
246	0x3f8baad2	1.0911505
247	0x3f2d67f1	0.67736727
248	0xbe9fbf23	-0.31200513
249	0xbb0816d3	-0.0020765557
250	0x3e54936e	0.20759365
251	0x3f1cd9a6	0.61269605
252	0x3efe63bf	0.49685475
253	0x3eecf0b8	0.46277404
254	0xbe03b4e0	-0.12861967
255	0xbf02be77	-0.51071876

fc1.bias f4 [64]
0	0xbe7b5059	-0.24542369
1	0x3dbf01b9	0.093265004
2	0x3ec83e05	0.39109817
3	0x3e4fa9c6	0.20279607
4	0x3f08ac2a	0.533877
5	0x3e08cb0f	0.1335871
6	0xbe8ed27e	-0.27894968
7	0xbda59df3	-0.08086767
8	0xbe64ea30	-0.2235496
9	0xbe9842ba	-0.29738408
10	0xbe81fbba	-0.25387365
11	0xbe1deb16	-0.1542171
12	0xbd565209	-0.05232433
13	0xbf3356d3	-0.7005436
14	0x3f12c4c1	0.5733147
15	0xbd1bc9c4	-0.038034216
16	0x3f3be159	0.7339073
17	0x3f16aeba	0.5886036
18	0x3ea34551	0.31888822
19	0xbf1181d8	-0.5683875
20	0xbe0aaef1	-0.13543297
21	0xbf22e5d7	-0.6363196
22	0xbd8957ab	-0.067061745
23	0x3ead9c26	0.33908194
24	0x3d800578	0.06251043
25	0x3f0a7540	0.5408516
26	0x3eda13d6	0.4259326
27	0xbe835832	-0.25653225
28	0xbf4a0d3b	-0.7892644
29	0x3f488400	0.78326416
30	0x3efdf408	0.49600244
31	0xbf3c3eb2	-0.73533165
32	0xbed65cd0	-0.41867685
33	0x3ed041bd	0.40675154
34	0x3e98bd56	0.29831952
35	0x3f12fabc	0.5741384
36	0x3edaa74d	0.42705765
37	0x3f31ed08	0.69502306
38	0xbf2ab2ae	-0.66678894
39	0xbd09090b	-0.03345589
40	0x3e43ef93	0.19134359
41	0x3f217099	0.63062435
42	0x3e9e3708	0.3090136
43	0xbf3543d4	-0.7080662
44	0xbe2c9b6f	-0.16856168
45	0xbd9e864a	-0.07740457
46	0x3eca7a63	0.395465
47	0x3f1f36dd	0.6219309
48	0xbedcd6dd	-0.43132678
49	0x3f295b73	0.66155165
50	0xbe5e70b6	-0.21722683
51	0x3ce5b417	0.028039975
52	0x3f050cad	0.51972467
53	0x3d884a72	0.06654824
54	0xbe7906ff	-0.24319075
55	0xbeb08f45	-0.34484306
56	0x3f2ac052	0.6669971
57	0x3f010a1e	0.5040606
58	0x3e617858	0.22018564
59	0xbed15bd0	-0.4089036
60	0x3d6b9719	0.057517145
61	0x3e6dda51	0.23227812
62	0x3f30000d	0.6875008
63	0x3c1928f5	0.009348144

fc2.weight f4 [64, 64]
0	0x3c335e7f	0.010947823
1	0x3ea6cd27	0.32578394
2	0x3e2dec88	0.16984761
3	0x3e82c7cb	0.25543055
4	0xbf15f4ea	-0.58576834
5	0x3ed5c6d4	0.41753256
6	0xbea85414	-0.32876647
7	0x3efcf000	0.49401855
8	0x3ee522df	0.44753167
9	0xbe977f70	-0.29589415
10	0x3d658cbb	0.056042414
11	0xbe1c122e	-0.1524131
12	0x3d636433	0.05551548
13	0x3cab47ab	0.020908197
14	0x3e9ab1c0	0.30213737
15	0xbf1d99e0	-0.6156292
16	0x3f1dde8f	0.6166772
17	0xbdd4d8c7	-0.103929095
18	0x3e74e311	0.23914744
19	0xbef9d6aa	-0.48796588
20	0xbe1f2d0f	-0.15544532
21	0xbea266d6	-0.31719083
22	0xbd34df8e	-0.04415851
23	0xbe76a57d	-0.24086566
24	0xbd1ecd7e	-0.03877019
25	0x3ecfb1f0	0.40565443
26	0x3f0e828c	0.5566795
27	0x3e1a6395	0.1507705
28	0x3e1df51c	0.15425533
29	0x3ef0a209	0.46998623
30	0x3e62c4a9	0.22145332
31	0xbec4edc8	-0.38462663
32	0xbe655997	-0.22397457
33	0x3e875c99	0.26437834
34	0x3ef4e20d	0.47828713
35	0x3ec0399b	0.3754395
36	0xbe6c3827	-0.23068295
37	0x3e9bd0b1	0.30432656
38	0x3e897ad8	0.26851535
39	0xbecd234e	-0.40065998
40	0x3f0114c5	0.50422317
41	0x3e443cc9	0.19163813
42	0x3ea71bb9	0.32638338
43	0xbd84dc88	-0.064873755
44	0x3e90519c	0.28187263
45	0xbea31008	-0.31848168
46	0x3f0b29c8	0.5436063
47	0xbeba18b7	-0.3634698
48	0xbe0dfdf7	-0.13866411
49	0x3ed1116e	0.4083361
50	0x3d972f2b	0.073820435
51	0xbe7407b9	-0.23831071
52	0x3e35b22f	0.17743753
53	0x3ed3c4f3	0.41361198
54	0xbeb89197	-0.36048576
55	0x3e204090	0.15649629
56	0x3ed6597e	0.41865152
57	0x3ed4b92f	0.41547534
58	0xbd27d1ac	-0.040971443
59	0x3e507ead	0.20360823
60	0xbf170543	-0.58992404
61	0xbe52143b	-0.2051553
62	0xbe953546	-0.29142207
63	0x3ea5c782	0.32378775
64	0xbaec6015	-0.0018034006
65	0xbecf47f1	-0.40484574
66	0xbec90cc5	-0.39267555
67	0xbeb0c8ef	-0.345283
68	0x3e1dea1b	0.15421335
69	0xbd20c919	-0.03925428
70	0x3f14b6be	0.5809134
71	0xbf1349b6	-0.5753435
72	0xbe41b7bc	-0.18917745
73	0x3eb9b898	0.36273646
74	0x3df881ba	0.121341184
75	0x3eb05e88	0.34447122
76	0x3e22b276	0.1588839
77	0x3e6dbb7d	0.23216052
78	0xbf09c951	-0.5382281
79	0x3ee7c242	0.45265394
80	0xbe86be44	-0.26317036
81	0x3d98fdad	0.0747026
82	0xbd421007	-0.047378566
83	0x3f03875f	0.51378435
84	0x3e0e1bf0	0.13877845
85	0x3eddbf73	0.43310127
86	0xbe04620c	-0.12928027
87	0x3e6a5d16	0.22887072
88	0x3d99b5ce	0.075053796
89	0xbeef3259	-0.467181
90	0xbf6c6d66	-0.9235443
91	0xbe017fc4	-0.12646395
92	0x3e2d5af0	0.16929221
93	0xbf083425	-0.53204566
94	0xbf03a979	-0.5143047
95	0x3ed49981	0.41523364
96	0x3ee7b6de	0.45256704
97	0xbeb01e25	-0.34397998
98	0xbec69856	-0.38788098
99	0xbeb8db96	-0.3610503
100	0xbbb48bfa	-0.0055098506
101	0xbefc8a02	-0.49324042
102	0xbebc78c7	-0.36810896
103	0x3ee5e86e	0.44903892
104	0xbee2cd4d	-0.44297257
105	0xbec868b6	-0.39142388
106	0xbe996a7f	-0.29964063
107	0x3d9c7b77	0.076407366
108	0xbeafaa21	-0.34309486
109	0x3d88afaf	0.06674134
110	0xbea83e5e	-0.32860082
111	0x3e55e7ed	0.20889254
112	0xbe394c3f	-0.18095492
113	0xbef3fb8e	-0.47652858
114	0xbc8b0118	-0.016968295
115	0x3e01ca81	0.12674905
116	0xbece6a8d	-0.40315667
117	0xbe4133e0	-0.18867445
118	0x3ece6d68	0.40317845
119	0xbe83d719	-0.25750044
120	0xbf1cdb61	-0.61272246
121	0xbf0857ed	-0.53259164
122	0x3dd3b7cb	0.1033779
123	0xbe911674	-0.28337443
124	0x3debd8b5	0.11515943
125	0x3e1a8489	0.1508962
126	0x3e3490f3	0.17633419
127	0xbec2db2e	-0.38057846
128	0x3bd16e9f	0.006391361
129	0x3f29f7ac	0.6639354
130	0x3ecf757f	0.4051933
131	0x3eb35ffd	0.3503417
132	0xbea211bd	-0.31654158
133	0x3f2da746	0.67833364
134	0xbef0e61e	-0.47050565
135	0x3f116530	0.56795025
136	0x3f1fac3c	0.62372184
137	0xbef8d43a	-0.48599416
138	0xbdb936f2	-0.09043683
139	0xbebaf2b1	-0.36513284
140	0x3ebbfa31	0.36714318
141	0x3b8d5309	0.004312877
142	0x3f046700	0.51719666
143	0xbf028a0c	-0.5099189
144	0x3f230dee	0.6369313
145	0x3d37319d	0.04472505
146	0x3ec22a55	0.37922922
147	0xbf19e702	-0.60118115
148	0x3e0af589	0.13570227
149	0xbe903b0b	-0.28170046
150	0xbc64134a	-0.0139206145
151	0xbda76435	-0.0817341
152	0xbe2e1f5c	-0.1700415
153	0x3f133b87	0.57512707
154	0x3f3b63ed	0.7319935
155	0x3e42d724	0.19027382
156	0x3df9dee1	0.12200714
157	0x3f389b4d	0.7211197
158	0x3f122366	0.57085264
159	0xbe88df46	-0.26732844
160	0xbea5ace9	-0.32358482
161	0x3f3814af	0.7190656
162	0x3f3cb6a6	0.737162
163	0x3f350d21	0.7072316
164	0xbbe2849f	-0.0069127823
165	0x3eed3e88	0.4633677
166	0x3e3291a0	0.17438364
167	0xbf070a2e	-0.5274991
168	0x3f0209f3	0.5079643
169	0x3eedce0b	0.4644626
170	0x3ed2a953	0.4114481
171	0xbe06254c	-0.13100165
172	0x3f0a1f0f	0.5395364
173	0xbe3494ac	-0.17634839
174	0x3f3965c9	0.72420937
175	0xbe0e4a33	-0.13895492
176	0xbe867c7d	-0.26266852
177	0x3ef0cd92	0.47031838
178	0xbd9ae6df	-0.075635664
179	0x3c484725	0.012223993
180	0x3f19d647	0.60092586
181	0x3ebb1fd1	0.36547711
182	0xbee1fa05	-0.44136062
183	0x3e30c6cb	0.17263333
184	0x3f07d808	0.5306401
185	0x3eb59edb	0.3547276
186	0x3e5a9780	0.21346855
187	0x3e64b371	0.22334076
188	0xbf1e0034	-0.6171906
189	0x3e72ea84	0.23722273
190	0xbd78f25a	-0.060778
191	0x3f057fa6	0.521479
192	0xbed6b77c	-0.41936862
193	0x3eaf5398	0.34243464
194	0x3c7cbacc	0.015425395
195	0x3f1fb760	0.62389183
196	0xbe618d68	-0.22026598
197	0xbe098c20	-0.1343236
198	0xbf871add	-1.0555073
199	0x3e8c7c8b	0.2743877
200	0xbbccd038	-0.0062504075
201	0xbf836bf9	-1.0267326
202	0xbee6a051	-0.45044187
203	0xbf3e688f	-0.74378294
204	0xbe461355	-0.19343312
205	0xbf0ff595	-0.56234103
206	0x3e779b59	0.24180354
207	0xbf9f64b1	-1.2452604
208	0xbc5b85c2	-0.01339859
209	0xbe4ee255	-0.20203526
210	0xbe17862f	-0.1479728
211	0xbf75c962	-0.9601041
212	0xbdf20de5	-0.118190564
213	0xbf5d31dc	-0.86404204
214	0x3e49a31c	0.19691128
215	0xbdc83f80	-0.09777737
216	0xbf69d256	-0.9133657
217	0x3d701c74	0.058620885
218	0x3fca3ec8	1.5800409
219	0xbe24efe1	-0.16107132
220	0xbdaa0988	-0.08302599
221	0x3eb19861	0.34686568
222	0x3e4e2be6	0.20133933
223	0xbf2a18b7	-0.6644396
224	0xbf89e67f	-1.0773467
225	0x3ebc225b	0.3674496
226	0x3c868676	0.016421538
227	0x3ba366d8	0.004986625
228	0x3d0f4abe	0.03498339
229	0x3e636b20	0.22208834
230	0x3eff413b	0.49854454
231	0xbf8f4351	-1.1192418
232	0x3e542cbc	0.2072019
233	0x3e984ab0	0.29744482
234	0x3e933d38	0.28757644
235	0xbf03723e	-0.51346195
236	0x3f484cea	0.7824236
237	0xbe783d75	-0.24242194
238	0x3de0168b	0.109418
239	0xbe863480	-0.2621193
240	0xbc1eb0a0	-0.009685665
241	0x3e3755a2	0.1790376
242	0xbf2f04aa	-0.6836649
243	0xbd37d0f4	-0.044877008
244	0x3e6538b2	0.22384909
245	0x3e030852	0.12796143
246	0xbf714183	-0.9424059
247	0x3e975313	0.29555568
248	0x3ef919c8	0.48652482
249	0x3f2f373c	0.68443656
250	0xbd06c98f	-0.032907065
251	0x3e7b231d	0.24525113
252	0xbe34a09e	-0.17639396
253	0xbe291c1b	-0.16514628
254	0xbe255c0f	-0.16148399
255	0x3ef37cd1	0.47556165

fc2.bias f4 [64]
0	0x3d8de6bb	0.06928774
1	0xbcd71fd3	-0.026260292
2	0x3e5152c8	0.20441735
3	0xbd69b10e	-0.057053618
4	0xbd3d4fec	-0.046218798
5	0x3e1102f1	0.14161278
6	0xbd9dbe70	-0.07702339
7	0x3e58e1b1	0.21179844
8	0xbe7a9b36	-0.24473271
9	0x3dd88849	0.10572869
10	0x3d6c4e13	0.057691645
11	0x3dea0dcc	0.11428413
12	0xbcd71682	-0.02625585
13	0xbdf6d1b5	-0.12051717
14	0xbdd89452	-0.10575165
15	0x3de09a48	0.10966927
16	0xbdfa2947	-0.12214904
17	0x3e901492	0.28140694
18	0x3cc2c256	0.023774307
19	0x3ce8c51f	0.028414307
20	0x3da9f574	0.082987696
21	0xbb7caf43	-0.0038556613
22	0xbce6a155	-0.028153101
23	0x3db2a79b	0.087233745
24	0x3e1ce929	0.15323319
25	0xbdad376d	-0.08457837
26	0xbd976ec0	-0.07394171
27	0x3c2f6947	0.010706252
28	0xbd1f539c	-0.038898095
29	0x3d92676a	0.07148631
30	0x3e3fe8d7	0.18741165
31	0xbdc59ef4	-0.096494585
32	0xbcfa13c1	-0.030526998
33	0x3e659ff2	0.22424296
34	0x3e100f86	0.14068422
35	0xbe7ea9e5	-0.24869497
36	0x3df13c67	0.11779099
37	0xbe76b18a	-0.24091163
38	0xbb8915e5	-0.0041835182
39	0x3e463e70	0.19359756
40	0xbe6ead2b	-0.23308246
41	0x3dd728ca	0.10505827
42	0xbeaf802b	-0.34277472
43	0x3e0eedcd	0.13957901
44	0xbd9c0615	-0.076183476
45	0x3e1ab244	0.15107065
46	0xbe260e42	-0.16216376
47	0x3e0226c5	0.12710102
48	0x3e582d57	0.21111046
49	0x3c4cd3ab	0.012501637
50	0x3e24bc52	0.16087463
51	0x3dd5477d	0.10414026
52	0x3d39f185	0.045396347
53	0xb9facc29	-0.00047835827
54	0x3dbfb7c1	0.0936122
55	0xbe877ae2	-0.2646094
56	0x3df18b3e	0.117941365
57	0xbe4ab0a8	-0.19793952
58	0xbe39fae5	-0.18162115
59	0xbde48cc3	-0.11159661
60	0x3d5697cb	0.052390855
61	0xbe801297	-0.25014183
62	0xbe8c773e	-0.27434725
63	0xbe9c4476	-0.30520982

fc3.weight f4 [64, 64]
0	0xbd7e4cbd	-0.062084902
1	0xbd93dbd6	-0.07219665
2	0xbdc35a6b	-0.0953873
3	0xbd5ef256	-0.05443033
4	0xbe8df902	-0.2772904
5	0xbe4fb372	-0.20283297
6	0xbd8d38a6	-0.068955705
7	0xbf13297e	-0.5748519
8	0xbe395b0c	-0.18101138
9	0x3c801759	0.015636133
10	0xbd5b24fe	-0.053502075
11	0xbf452586	-0.7701038
12	0xbe99993a	-0.29999715
13	0xbd97fc7b	-0.07421204
14	0xbf450a05	-0.76968414
15	0x3dab9e67	0.08379822
16	0xbe848d7d	-0.25889197
17	0x3c578e77	0.013156525
18	0xbe7deced	-0.24797411
19	0xbdfed91d	-0.12443755
20	0x3d942b09	0.07234771
21	0xbd288b6c	-0.041148588
22	0xbe17fab8	-0.14841735
23	0xbe12bdfd	-0.14330287
24	0x3eb78c8d	0.3584942
25	0x3df8d335	0.121496595
26	0xbe21c81e	-0.15798995
27	0xbe0b30f8	-0.13592899
28	0xbe7fc67f	-0.24978064
29	0xbf341ed0	-0.70359516
30	0xbf05cd1b	-0.5226609
31	0xbe87c90e	-0.2652058
32	0xbe2a42df	-0.16627072
33	0x3e07560e	0.13216421
34	0xbe7ee0a4	-0.24890381
35	0xbd6bae4b	-0.057539266
36	0xbbeb1e8e	-0.0071752733
37	0xbe51c7ec	-0.2048642
38	0xbd625aa2	-0.055262215
39	0xbc9b01ce	-0.018921759
40	0xbeaf1223	-0.34193525
41	0xbc2360ab	-0.009971778
42	0xbe3bcae2	-0.18339112
43	0x3c0fc360	0.008774608
44	0xbe4a99ba	-0.19785205
45	0xbf55056f	-0.83211416
46	0xbe09a82b	-0.13443057
47	0xbee0d0b3	-0.43909225
48	0xbf2ec03d	-0.6826208
49	0xbe1a44a7	-0.15065251
50	0xbf0215c4	-0.5081446
51	0x3d3333ea	0.04375068
52	0x3dd16d5e	0.10225938
53	0x3f1c8240	0.61136246
54	0x3d8336a4	0.06406906
55	0xbe4ac612	-0.1980212
56	0xbded81e8	-0.11597043
57	0xbdb48556	-0.08814494
58	0xbe44744f	-0.19184993
59	0xbe4bcc53	-0.19902162
60	0xbdb1a33d	-0.08673713
61	0xbe19678e	-0.14980909
62	0xbe64a0a6	-0.22326908
63	0xbd5a8a7e	-0.053354733
64	0xbe617a25	-0.2201925
65	0xbd57a9de	-0.052652232
66	0xbd8258e0	-0.06364608
67	0xbf906afe	-1.1282651
68	0x3d92fa63	0.07176664
69	0x3ed350c3	0.41272554
70	0xbcb44f0e	-0.022010352
71	0x3f344775	0.70421535
72	0x3dc08af5	0.09401504
73	0xbdfc7176	-0.123263285
74	0xbf8b3ec4	-1.087853
75	0x3f8a6b09	1.0813915
76	0x3e4d70f3	0.20062618
77	0x3db02fee	0.08602892
78	0x3f29ad1d	0.66279775
79	0xbe3ec216	-0.18628725
80	0xbee7f072	-0.45300633
81	0xbe4c1437	-0.19929586
82	0xbeb90b60	-0.3614149
83	0xbca0cb68	-0.019628242
84	0xbe3b66fa	-0.18301001
85	0xbe1e04fc	-0.15431589
86	0xbf435654	-0.763036
87	0x3e3cec65	0.18449552
88	0xbe998bee	-0.2998957
89	0xbfaaee43	-1.3353962
90	0x3e1d873f	0.15383624
91	0xbee75411	-0.45181325
92	0x3eda5609	0.42643765
93	0x3f548952	0.83022034
94	0x3f53be6c	0.82712436
95	0xbd8ce3e9	-0.06879408
96	0x3dc07daf	0.09398972
97	0x3e7d97dd	0.24764962
98	0x3e9fa83c	0.3118304
99	0x3db4564e	0.08805524
100	0xbe46f95a	-0.19431058
101	0x3dbd7b27	0.09252005
102	0xbe546da4	-0.2074495
103	0xbe3b5f99	-0.18298186
104	0x3da627e6	0.08113079
105	0xbe61b75c	-0.22042602
106	0xbcbfeecc	-0.023429297
107	0xbd239181	-0.039933685
108	0xbd8f369e	-0.06992839
109	0x3f69fc2e	0.9140042
110	0xbd804b76	-0.06264393
111	0x3eec050f	0.4609761
112	0x3f1904b9	0.5977283
113	0x3e86992e	0.26288742
114	0x3f1b2dc7	0.60616726
115	0xbd15b3eb	-0.036548536
116	0xbe0193a3	-0.12653975
117	0xbedd8a14	-0.43269408
118	0x3d44e6ad	0.048071552
119	0x3dd3760f	0.10325252
120	0x3d9d8e60	0.076931715
121	0x3c452c72	0.012034522
122	0x3d9c4ccd	0.07631836
123	0x3c9b984f	0.018993525
124	0x3dc22732	0.09480132
125	0x3c210298	0.009827279
126	0x3ca300b9	0.019897806
127	0x3d1b1835	0.037864882
128	0xbeed7190	-0.46375704
129	0x3d2bfbce	0.041988187
130	0xbebefdec	-0.37303102
131	0xbe9a979f	-0.30193803
132	0x3e281e92	0.16417912
133	0xbe1ae894	-0.15127784
134	0x3e659fa8	0.22424185
135	0x3eaf2eba	0.34215337
136	0x3dbf2727	0.093336396
137	0xbe992037	-0.2990739
138	0xbe9197b1	-0.28436044
139	0x3e8a7ccc	0.27048337
140	0x3e129efb	0.14318459
141	0x3e753022	0.23944142
142	0x3f3e5dab	0.74361676
143	0xbeccf0b4	-0.40027392
144	0xbe5f3c9e	-0.21800467
145	0xbf04a149	-0.518086
146	0xbe5bd028	-0.21466124
147	0xbe85e811	-0.26153615
148	0xbed5c130	-0.41748953
149	0xbf2aa9de	-0.66665447
150	0xbea1d56a	-0.31608135
151	0xbf15b51a	-0.58479464
152	0xbea47ad3	-0.32124957
153	0xbe987b8c	-0.2978176
154	0x3e396c45	0.18107708
155	0xbe51eb71	-0.2049997
156	0x3e7b2c5f	0.24528645
157	0x3ec49e98	0.38402247
158	0x3ec22b88	0.37923837
159	0x3df7d296	0.12100713
160	0x3e56e31d	0.20985074
161	0xbd97ca73	-0.07411661
162	0xbe734656	-0.237573
163	0xbd41c8c4	-0.047310606
164	0xbecb727a	-0.39735776
165	0x3eaae7b6	0.33379906
166	0xbee32410	-0.4436345
167	0xbee78f4e	-0.4522652
168	0x3e2649aa	0.16239038
169	0xbef477cb	-0.47747645
170	0x3d238a0f	0.039926585
171	0xbeb28a29	-0.34871033
172	0x3db2a46e	0.08722769
173	0x3f1ba844	0.6080363
174	0x3da284a5	0.07935456
175	0x3ed0d55e	0.40787786
176	0x3ec495b3	0.3839546
177	0xbe44196b	-0.19150321
178	0x3eb76a1e	0.35823148
179	0xbf0e62c8	-0.5561948
180	0xbecb326c	-0.39686906
181	0xbf0c1be4	-0.5473006
182	0xbed83dc9	-0.42234638
183	0x3df8c48a	0.12146862
184	0xbe97646a	-0.29568797
185	0x3e16051c	0.14650387
186	0x3e759036	0.23980793
187	0x3de68f36	0.11257784
188	0xbe8c3fb7	-0.2739236
189	0x3d6acfd7	0.057327118
190	0x3e5ae4d8	0.2137636
191	0xbafa80d0	-0.0019111875
192	0xbd13a772	-0.03604836
193	0xbe749a1e	-0.23886916
194	0xbc8148d5	-0.0157818
195	0x3e01543c	0.12629789
196	0xbe5e29de	-0.21695659
197	0xbe6c4a83	-0.23075299
198	0xbe70e87e	-0.23526189
199	0xbf171df3	-0.59030074
200	0xbe45c9ea	-0.19315305
201	0x3c62a8ad	0.013834161
202	0xbd1e168b	-0.038595717
203	0xbf2c271e	-0.6724719
204	0xbe18f32a	-0.1493651
205	0xbe10ef09	-0.14153685
206	0xbf11bd09	-0.5692907
207	0x3db65c0c	0.08904275
208	0xbd9f4c4d	-0.07778225
209	0x3dfc6d1d	0.12325499
210	0xbda3b4ee	-0.07993494
211	0xbdeac3ac	-0.11463103
212	0x3e07498d	0.13211651
213	0x3b53233e	0.003221705
214	0xbe7f6221	-0.24939777
215	0xbdfea710	-0.124342084
216	0x3ea2b120	0.3177576
217	0x3e38f6b7	0.18062864
218	0xbdc88993	-0.09791865
219	0xbe00f8b2	-0.1259487
220	0xbea6ca87	-0.3257639
221	0xbf29b3be	-0.6628989
222	0xbf3a9209	-0.7287908
223	0xbde3efab	-0.111296974
224	0xbe178459	-0.1479658
225	0x3d782c8b	0.060589354
226	0xbea49ff0	-0.32153273
227	0xbdefbe9b	-0.11706277
228	0x3dd1e835	0.10249368
229	0xbe45adc0	-0.19304562
230	0x3d6ffe5c	0.058592185
231	0x3e472924	0.19449288
232	0xbe9bf85a	-0.30462915
233	0xbd35ed02	-0.04441548
234	0xbe373f5c	-0.17895263
235	0xbdfb35eb	-0.122661434
236	0xbd833754	-0.064070374
237	0xbf60aa13	-0.8775951
238	0xbe2d1bd3	-0.16905145
239	0xbf074468	-0.52838755
240	0xbf2afc92	-0.6679164
241	0xbce02ffb	-0.027366629
242	0xbf12c1bf	-0.57326883
243	0x3da4ddf4	0.08050147
244	0xbd477a63	-0.0487007
245	0x3eccc28a	0.39992172
246	0xbdc3cfc9	-0.09561116
247	0xbec4c55b	-0.3843182
248	0xbdc420bb	-0.09576555
249	0xbe61a6f2	-0.22036341
250	0xbde35896	-0.11100881
251	0xbe2e8572	-0.17043093
252	0xbddd5bbc	-0.108085126
253	0xbe45efd0	-0.19329762
254	0xbdcf2f5f	-0.10116457
255	0xbe3ea4b4	-0.18617517

fc3.bias f4 [64]
0	0xbe690f3f	-0.22759722
1	0x3dd9303b	0.10604902
2	0xbe30fc35	-0.1728371
3	0xbd46e296	-0.048555933
4	0x3daaef20	0.08346391
5	0x3d11d293	0.03560121
6	0xbe92cd6f	-0.28672358
7	0xbcfd6b42	-0.030934934
8	0x3cbe9e95	0.023268977
9	0x3e1a46b7	0.15066038
10	0x3e5d03bc	0.21583456
11	0xbe366b31	-0.17814328
12	0xbe115a66	-0.1419464
13	0xbd30f959	-0.043206546
14	0xbd8d389e	-0.068955645
15	0x3c2562ab	0.010094325
16	0x3dd8ca7f	0.10585498
17	0x3e374ddf	0.17900799
18	0xbdda9eb1	-0.10674799
19	0xbe3b7817	-0.1830753
20	0xbda3a889	-0.0799113
21	0xbd2a7c8d	-0.041622687
22	0xbe2fed75	-0.17180426
23	0xbe53404f	-0.2063
24	0xbd44502b	-0.047928017
25	0xbe31cb8d	-0.17362805
26	0xbe616679	-0.22011746
27	0x3dbddaec	0.09270272
28	0x3cbadfa3	0.022811716
29	0x3e116627	0.14199124
30	0x3c02cc7c	0.007983323
31	0x3d9ff598	0.07810515
32	0xbe0ac665	-0.13552244
33	0x3ce04039	0.027374374
34	0x3c4b58d8	0.012411319
35	0xbe37ce98	-0.17949903
36	0x3e347ba3	0.17625289
37	0xbe562cb1	-0.20915486
38	0xbd383d28	-0.0449802
39	0xbd9dda9c	-0.07707712
40	0xbda43b4b	-0.08019122
41	0xbd83aeec	-0.06429848
42	0xbdc8e703	-0.09809687
43	0xbdd0625c	-0.101750106
44	0x3eb3a9c6	0.35090464
45	0xbe65deb0	-0.2244823
46	0x3d34d4bb	0.044148188
47	0xbcdf0bb3	-0.027227258
48	0x3e567d60	0.20946264
49	0x3dea702c	0.11447176
50	0xbe8d452d	-0.2759184
51	0xbca03f6f	-0.019561497
52	0xbbea1bf3	-0.007144445
53	0x3c8dc7f4	0.01730726
54	0x3e468804	0.19387823
55	0x3ea0cdfd	0.31407157
56	0xbe5ca429	-0.21546997
57	0x3c86d805	0.016460428
58	0xbe095731	-0.13412167
59	0xbd00b441	-0.031421904
60	0xbe9c5393	-0.30532512
61	0xbe00e200	-0.12586212
62	0x3ddea43c	0.10871169
63	0xbdf85523	-0.121256135

out.weight f4 [2, 64]
0	0x3d7b71e3	0.061387908
1	0xbe9e2e97	-0.3089492
2	0xbef5acf1	-0.47983506
3	0x3d9e1355	0.07718531
4	0xbeb32fa1	-0.34997275
5	0x3e41b775	0.1891764
6	0x3e8c022d	0.2734541
7	0x3e1e893e	0.15482041
8	0xbeaea3d3	-0.34109363
9	0x3e165396	0.14680323
10	0x3e53e1e4	0.20691639
11	0xbea2d891	-0.31805852
12	0x3e823fbd	0.25439253
13	0x3e923bf8	0.28561378
14	0x3e69473e	0.22781083
15	0x3d02c867	0.0319294
16	0x3e34c4da	0.17653218
17	0x3e679117	0.22613941
18	0xbd243969	-0.040093813
19	0xbd175f43	-0.036956083
20	0xbeae5d28	-0.34055448
21	0xbe1ae485	-0.15126236
22	0x3e485cfb	0.19566719
23	0x3eea3529	0.45743683
24	0xbe9429d7	-0.2893817
25	0x3e84e584	0.25956357
26	0x3ddef1ac	0.10885939
27	0x3e74b7f5	0.23898299
28	0xbe8f0e67	-0.27940676
29	0x3e5fc7f6	0.21853623
30	0xbe246c6b	-0.16056983
31	0x3dd124ce	0.10212098
32	0xbd5c3c07	-0.053768184
33	0x3e60d5e2	0.2195659
34	0xbf0b8627	-0.54501575
35	0x3e9944ac	0.29935205
36	0xbeefc53b	-0.46830162
37	0xbeb3ee3e	-0.35142702
38	0xbf324e8e	-0.69651115
39	0x3e882df7	0.26597568
40	0x3e7307c9	0.23733439
41	0xbeb4314b	-0.35193858
42	0x3dbdad5d	0.09261582
43	0x3e64c404	0.22340399
44	0x3e42d5a9	0.19026817
45	0x3e4cef0d	0.20013066
46	0xbd93434d	-0.07190571
47	0x3e3d7d85	0.18504913
48	0xbe8ba1ff	-0.2727203
49	0xbeba1c15	-0.3634955
50	0x3e81e699	0.25371245
51	0x3e32023b	0.17383663
52	0x3e2281b5	0.15869792
53	0xbee7ebad	-0.45296994
54	0x3e0f11e8	0.13971674
55	0x3e24ce3a	0.16094294
56	0xbe8e7c5c	-0.27829254
57	0xbe79b001	-0.24383546
58	0x3e1c84a8	0.1528498
59	0x3e87cf9c	0.2652558
60	0x3eba83f4	0.36428797
61	0xbeac3d8a	-0.336407
62	0xbe89c87a	-0.26910764
63	0x3e1532d0	0.14570165
64	0x3df05eeb	0.11736854
65	0xbd9b8b63	-0.07594945
66	0x3dc60406	0.09668736
67	0x3e9e0f67	0.30871126
68	0x3beebbf6	0.0072855903
69	0x3ef4ea16	0.47834843
70	0xbe006f85	-0.12542541
71	0x3ef25f98	0.47338557
72	0x3d9b4d3c	0.07583091
73	0xbf5df7c9	-0.86706215
74	0xbf31c9fb	-0.6944882
75	0x3e3d729d	0.18500753
76	0xbf19a417	-0.60016006
77	0xbf2edd21	-0.68306166
78	0xbf21e668	-0.632422
79	0x3e91efb7	0.285032
80	0x3ed14820	0.4087534
81	0xbf4b4cfa	-0.7941433
82	0x3ddcc0a9	0.107789345
83	0x3e59917f	0.21246909
84	0x3e851f26	0.26000327
85	0x3e97aff5	0.29626432
86	0x3e39026c	0.1806733
87	0xc003c3a6	-2.0588164
88	0x3e8aa170	0.27076292
89	0xbeba4884	-0.3638345
90	0x3ec52b5c	0.38509643
91	0x3e8600de	0.26172537
92	0x3eb083b6	0.34475487
93	0x3ebed1de	0.3726949
94	0x3e9633ff	0.29336545
95	0x3f3f1c4e	0.74652565
96	0xbea93a2f	-0.33052203
97	0x3e8dc27a	0.27687436
98	0xbe2216be	-0.15828988
99	0xbf3cb8ae	-0.737193
100	0x3e2e4e01	0.17021944
101	0x3e701237	0.23444448
102	0xbc89b6df	-0.016810833
103	0xbf2581af	-0.64651006
104	0xbec20578	-0.37894797
105	0x3e84b215	0.25917116
106	0xbf0ebf87	-0.55761
107	0xbfa1b55b	-1.263347
108	0xbf4eab9b	-0.807306
109	0xbe9353f5	-0.28774992
110	0x3e37c55e	0.17946383
111	0x3eaa6f69	0.33288124
112	0xbd907f17	-0.070554905
113	0x3d45de0d	0.048307467
114	0xbf40cccd	-0.753125
115	0x3e9d66cf	0.307425
116	0x3dd27a9b	0.102772914
117	0x3d223acb	0.03960685
118	0xbf7235ae	-0.9461316
119	0xbf5d9151	-0.8654986
120	0x3e93112a	0.28724033
121	0x3dabc743	0.083876155
122	0xbe244bff	-0.16044615
123	0x3e9e3c0e	0.30905193
124	0xbfddfda3	-1.7343029
125	0xbd4f9ecf	-0.05068856
126	0xbc1c1747	-0.009527034
127	0xbe8c60eb	-0.27417693

out.bias f4 [2]
0	0xbdbd7e2e	-0.092525825
1	0x3e12479b	0.14285128
