Santiago_version/models/Umbumping_cars_V4.pth (torch, 38840 bytes, 8 tensors)

fc1.weight f4 [64, 6]
0	0x3da8ab05	0.082357444
1	0xbe01cc16	-0.12675509
2	0xbf20e250	-0.62845325
3	0xbeb72831	-0.3577285
4	0xbfb2e9cc	-1.3977599
5	0xbe8c9f95	-0.274655
6	0x3e9b4355	0.30324808
7	0x3d9c2adb	0.076253615
8	0xbe8bb5e3	-0.27287206
9	0x3c1639e9	0.00916908
10	0xbf03391e	-0.5125903
11	0xbf6b1059	-0.9182182
12	0xb8e0ba79	-0.000107158856
13	0x3eefe687	0.46855566
14	0x3ef6bef1	0.48192552
15	0x3f5b5131	0.85670763
16	0x3f7b447e	0.98151386
17	0x3edd9f1c	0.43285453
18	0xbe6e18f2	-0.23251703
19	0xbf0306d5	-0.511823
20	0x3ef55f1b	0.47924122
21	0xbe64162b	-0.22274081
22	0x3f207bbd	0.6268881
23	0x3f5baeb7	0.8581347
24	0xbed0e454	-0.407992
25	0xbce8e7d0	-0.02843085
26	0xbf325103	-0.69654864
27	0xbd3807b6	-0.04492923
28	0x3f39cab0	0.725749
29	0xbf22e1d2	-0.63625824
30	0x3da1daf8	0.07903093
31	0xbe15de6a	-0.14635625
32	0x3e39b299	0.18134536
33	0x3d44ca2f	0.04804438
34	0x3e774f0d	0.24151249
35	0xbfa5b81e	-1.2946813
36	0xbe215938	-0.1575669
37	0xbef28a0a	-0.4737094
38	0xbe74b6d7	-0.23897873
39	0xbdd9d0d9	-0.10635538
40	0x3f4c0091	0.79688364
41	0x3f538bdf	0.826353
42	0x3f1042cd	0.5635193
43	0x3da164bc	0.07880542
44	0x3ef6b505	0.48184982
45	0xbe25afaa	-0.16180292
46	0xbf128e4c	-0.5724838
47	0x3f2316f6	0.6370691
48	0x3ee99583	0.4562188
49	0x3e8a2ce5	0.26987377
50	0x3ee4b4c7	0.44669172
51	0xbe8de882	-0.27716452
52	0xbf8cae83	-1.0990757
53	0xbf08f249	-0.534947
54	0xbe89349f	-0.2679796
55	0x3f02efee	0.51147354
56	0x3e6127f4	0.21987897
57	0x3ea092d9	0.31362036
58	0xbe30d250	-0.17267728
59	0xbfb58557	-1.4181317
60	0xbe7016c9	-0.23446192
61	0x3edf12af	0.43568942
62	0x3b76fdb4	0.003768784
63	0x3d99dedf	0.075132124
64	0xbc8ce7f2	-0.017200444
65	0xbf8c8e5a	-1.0980942
66	0xbe88ae7c	-0.2669562
67	0x3f300d1a	0.6876999
68	0xbc178ad8	-0.0092494115
69	0x3e852111	0.2600179
70	0x3f659638	0.8968234
71	0xbf69cf1c	-0.9133165
72	0x3d7a1fcc	0.06106548
73	0xbeb1b589	-0.34708813
74	0xbf04701a	-0.51733553
75	0xbe7ccceb	-0.24687545
76	0x3e9cf6f5	0.30657163
77	0x3f6eb560	0.93245506
78	0xbea4538a	-0.32094985
79	0xbe7715db	-0.24129431
80	0xbeb5e62d	-0.35527173
81	0xbeae3178	-0.34022117
82	0x3f4b6769	0.79454666
83	0xbf4b91f1	-0.79519564
84	0x3e8e51dc	0.2779683
85	0xbdfee9ab	-0.124469124
86	0xbe617875	-0.22018607
87	0x3e90b835	0.2826554
88	0xbf983096	-1.1889827
89	0x3dc482e6	0.095952794
90	0x3e41b1d9	0.189155
91	0xbf2c6228	-0.67337275
92	0xbe189add	-0.14902826
93	0x3ea5064f	0.32231376
94	0xbc0e2585	-0.008675938
95	0x3fa52241	1.2901078
96	0x3de974b0	0.113992095
97	0xbf11773b	-0.56822556
98	0xbf899ef6	-1.0751636
99	0xbf20a159	-0.62746197
100	0xbf81e47a	-1.014785
101	0xbf35426c	-0.70804477
102	0xbe6aad39	-0.22917642
103	0xbeca0a1e	-0.39460844
104	0x3ea0cd54	0.31406653
105	0x3e71752f	0.23579858
106	0x3eb917b3	0.36150894
107	0x3f460878	0.7735667
108	0x3e0da1f5	0.13831313
109	0xbe9f1dd5	-0.31077448
110	0x3e85f73a	0.2616518
111	0x3e6c5daf	0.23082612
112	0xbee42074	-0.4455601
113	0xbfc45195	-1.5337397
114	0xbf49c5ac	-0.7881725
115	0x3e5337a5	0.20626695
116	0x3f1fad78	0.6237407
117	0x3f247ba0	0.64251137
118	0xbf6cb32b	-0.9246089
119	0x3e76b388	0.24091923
120	0xbe86cd73	-0.2632862
121	0xbd2b2759	-0.04178557
122	0x3d4d729a	0.05015812
123	0xbe819eba	-0.2531641
124	0x3f93f999	1.1560546
125	0xbe237d6d	-0.15965815
126	0x3e4416fe	0.19149396
127	0xbf0aebfa	-0.5426632
128	0xbe88de79	-0.26732233
129	0xbe9d237f	-0.30691144
130	0xbdc97515	-0.09836785
131	0x3f4e421f	0.8056964
132	0x3e1091b1	0.14118077
133	0xbe8ddd24	-0.2770778
134	0x3ecee1a3	0.40406522
135	0x3ec9e63b	0.39433464
136	0xbf7af45c	-0.9802911
137	0x3e4dc831	0.20095898
138	0xbd3f4470	-0.046696126
139	0xbf20ab12	-0.6276103
140	0xbf3eee2a	-0.7458216
141	0xbe88c325	-0.26711383
142	0xbebb3e68	-0.3657105
143	0xbf0bcc2b	-0.5460841
144	0xbd485320	-0.0489074
145	0xbea6dfb6	-0.32592553
146	0xbea482a4	-0.3213092
147	0xbe0c4b7e	-0.13700673
148	0x3f83fede	1.0312154
149	0x3d6d8e4c	0.057997033
150	0x3eb29ec3	0.3488675
151	0x3dd916a8	0.106000245
152	0xbd95d961	-0.07316852
153	0xbe508159	-0.20361842
154	0xbf4d0690	-0.8008814
155	0x3eba560c	0.36393774
156	0xbe4d9b29	-0.2007872
157	0x3e922821	0.2854624
158	0x3c621274	0.013798345
159	0xbe14b70c	-0.14522952
160	0xbf605ec4	-0.876446
161	0xbfcb0550	-1.5860996
162	0x3ea49146	0.32142085
163	0x3ea691ee	0.3253321
164	0x3d89fc90	0.067376256
165	0xbdb728f8	-0.08943361
166	0xbecbeeb1	-0.39830545
167	0xbf05a802	-0.52209485
168	0xbe0253a5	-0.1272722
169	0xbf0ea04f	-0.5571336
170	0xbe387142	-0.18011954
171	0x3eb369a9	0.3504155
172	0x3ebdfe6f	0.3710818
173	0x3f77ed82	0.96846783
174	0xbdbe2fc1	-0.09286452
175	0x3f400a1d	0.7501543
176	0xbe8cfa0a	-0.27534515
177	0xbe7aff48	-0.24511445
178	0x3f27c273	0.6553108
179	0xbf7db241	-0.9910012
180	0x3e292062	0.1651626
181	0xbeb8ee58	-0.36119342
182	0x3e19fa1d	0.15036817
183	0x3e12f335	0.14350589
184	0xbf07ee6f	-0.53098196
185	0xbfead8d7	-1.8347424
186	0x3ab0e76f	0.0013496707
187	0x3ea81fef	0.32836863
188	0x3eee7804	0.4657594
189	0x3f387724	0.72056794
190	0x3fb5ec74	1.4212785
191	0x3ea39f9c	0.3195771
192	0xbf1ff692	-0.6248561
193	0xbd001d48	-0.031277925
194	0xbd4f4aa4	-0.050608292
195	0x3ea57592	0.32316262
196	0x3f2b083e	0.6680945
197	0xbf32313f	-0.69606394
198	0xbe95dba1	-0.29269126
199	0x3c3a6167	0.011375762
200	0x3d7469b9	0.059671137
201	0xbe4b569d	-0.19857259
202	0x3f805f71	1.0029126
203	0xbe8698fd	-0.26288596
204	0x3c43e801	0.0119571695
205	0x3f04bcd8	0.5185065
206	0x3e7a1924	0.24423653
207	0x3f0c32b0	0.54764843
208	0x3eeafa4a	0.4589408
209	0x3ed48425	0.41507068
210	0x3df51af5	0.11968032
211	0xbeb7c111	-0.35889485
212	0xbf23889c	-0.63880324
213	0xbed60b11	-0.41805318
214	0xbfb967fa	-1.4484856
215	0xbe96521c	-0.2935952
216	0x3e5ad450	0.21370053
217	0x3e5f5a04	0.21811682
218	0xbf12877c	-0.5723798
219	0xbf0dac65	-0.5534118
220	0xbfb1b87b	-1.3884424
221	0xbe8d696d	-0.27619496
222	0x3ebf1124	0.37317765
223	0xbe49ff51	-0.19726302
224	0xbf165072	-0.587165
225	0xbe5e9052	-0.21734741
226	0x3d7d2ecf	0.06181222
227	0x3fd06116	1.6279628
228	0x3e23a3f5	0.15980513
229	0xbe344f1c	-0.17608303
230	0xbe635c81	-0.22203256
231	0x3e3f5a41	0.18686773
232	0x3eb1e2d0	0.34743357
233	0xbff75dfb	-1.9325556
234	0xbe87823e	-0.26466554
235	0xbc766b43	-0.015040222
236	0xbe0c178a	-0.13680854
237	0x3e24bfd6	0.16088805
238	0x3f763857	0.9617972
239	0xbe125bff	-0.14292906
240	0xbe28c464	-0.16481167
241	0xbeb9b34a	-0.362696
242	0x3e987a52	0.29780823
243	0x3e2eb82b	0.17062442
244	0x3fa48eb9	1.2856055
245	0x3eae038c	0.3398708
246	0xbea94e65	-0.33067623
247	0x3d5b512a	0.0535442
248	0xbebce5fe	-0.3689422
249	0x3cfc16f0	0.030772656
250	0x3faadb5c	1.3348193
251	0xbe7e8ec3	-0.24859147
252	0x3e895ad8	0.2682712
253	0x3ed3a93e	0.4134006
254	0xbd39351a	-0.045216657
255	0xbe5495a2	-0.20760205

fc1.bias f4 [64]
0	0xbf3a0294	-0.72660184
1	0xbe98dc4b	-0.2985557
2	0x3e86424e	0.2622246
3	0x3e408e03	0.18804173
4	0xbede8fef	-0.43469188
5	0xbe109345	-0.14118679
6	0x3f05167f	0.5198745
7	0xbd9271ab	-0.07150587
8	0x3eb29918	0.34882426
9	0xbea109d7	-0.3145282
10	0x3ebf3c97	0.37350914
11	0x3ef0bef7	0.47020695
12	0x3d185f73	0.037200402
13	0xbdb4b0e6	-0.08822803
14	0x3dac7385	0.08420471
15	0x3e8b4f43	0.2720891
16	0xbf3a8099	-0.72852474
17	0x3d6805be	0.0566461
18	0x3e427cfa	0.18992987
19	0x3f20fe8c	0.6288841
20	0xbe9fef5a	-0.31237298
21	0xbece2b39	-0.4026735
22	0x3eff3a75	0.49849287
23	0xbec4364a	-0.3832267
24	0x3ead9e1e	0.33909696
25	0x3e659383	0.22419553
26	0x3f14e411	0.581605
27	0xbeefed4c	-0.4686073
28	0x3e96a209	0.29420498
29	0xbd915d7b	-0.07097908
30	0x3e74e67d	0.2391605
31	0x3eec1e76	0.4611699
32	0xbe859f82	-0.26098257
33	0xbe9da7d7	-0.30792114
34	0x3e8a4930	0.27008963
35	0xbe755421	-0.23957874
36	0xbd880090	-0.06640732
37	0xbf005d6a	-0.5014254
38	0x3d889dab	0.06670698
39	0xbeb26561	-0.3484297
40	0x3d72ad87	0.05924752
41	0xbecdf804	-0.40228283
42	0xbe1b3858	-0.15158212
43	0x3e259337	0.1616944
44	0xbf28e7ff	-0.65979
45	0x3eb90d10	0.36142778
46	0xbd4f287a	-0.05057571
47	0x3d602494	0.054722384
48	0x3e083843	0.13302712
49	0x3e7749f5	0.24149306
50	0x3eb1a045	0.34692588
51	0x3e028140	0.12744617
52	0x3f08c249	0.53421456
53	0x3e8cea7a	0.2752264
54	0xbe6ae849	-0.22940172
55	0x3c8a757c	0.016901724
56	0x3f06dd88	0.5268178
57	0x3ec9c7c3	0.3941022
58	0x3d7afcf3	0.061276387
59	0xbe105a22	-0.14096883
60	0xbedf2889	-0.43585613
61	0x3e6934a8	0.22773993
62	0xbe9a678c	-0.30157125
63	0xbef17694	-0.4716078

fc2.weight f4 [64, 64]
0	0x3ea7dbbb	0.3278483
1	0x3e1dd87c	0.15414613
2	0xbecb92d0	-0.39760447
3	0x3e84eb80	0.25960922
4	0x3cf018ab	0.029308638
5	0x3de1f2cc	0.11032638
6	0x3d239d21	0.03994477
7	0x3e3cceeb	0.18438308
8	0x3e922709	0.28545406
9	0xbedc8d0f	-0.4307637
10	0xbeb88fab	-0.3604711
11	0xbf044678	-0.51670027
12	0x3ebd2469	0.3694184
13	0xbdc51d42	-0.09624721
14	0x3d5a9dd4	0.053373173
15	0x3f03dedb	0.51511925
16	0x3eb69f33	0.35668334
17	0x3e5471dd	0.2074656
18	0x3e03672a	0.12832323
19	0xbe1369ec	-0.14395875
20	0xbe8a89e9	-0.27058342
21	0x3ed823df	0.42214867
22	0xbb8105d7	-0.0039374637
23	0x3e07461b	0.13210337
24	0xbe8c35ff	-0.27384946
25	0x3e927cc5	0.28610817
26	0xbe6d9101	-0.23199846
27	0xbd5b6297	-0.05356082
28	0x3e78faa7	0.24314366
29	0xbed5b618	-0.4174049
30	0x3de03e45	0.10949377
31	0xbe9888a8	-0.2979176
32	0xbe1a092b	-0.1504256
33	0xbd934bbc	-0.071921796
34	0xbe90a6a3	-0.28252134
35	0x3eb44d56	0.35215253
36	0x3e063e18	0.13109624
37	0x3f09f624	0.53891206
38	0x3c004493	0.007828849
39	0xbe850f68	-0.25988317
40	0xbeda60b0	-0.42651892
41	0xbe5754e0	-0.21028471
42	0x3d22b4ec	0.03972332
43	0x3e751d3b	0.23936932
44	0x3e57f6f6	0.21090302
45	0xbd0c138c	-0.03419833
46	0x3e93da67	0.28877565
47	0x3d3f16bb	0.046652537
48	0xbf00075e	-0.5001124
49	0xbcb741fb	-0.02237033
50	0x3e488560	0.19582129
51	0x3f3779ca	0.7167021
52	0x3c34e247	0.011040277
53	0x3e1d1080	0.15338326
54	0xbe752b46	-0.23942289
55	0xbdf70ead	-0.12063346
56	0xbed74fb8	-0.42053008
57	0xbc3af42c	-0.011410754
58	0xbe8dc697	-0.27690575
59	0xbc1fc64c	-0.0097518675
60	0x3e10958d	0.14119549
61	0xbd519506	-0.05116751
62	0x3ebb3835	0.3656632
63	0x3ef8c8f3	0.48590812
64	0xbe3c2d53	-0.18376665
65	0xbe454991	-0.19266345
66	0x3ea9e51a	0.33182603
67	0x3ef93db0	0.48679876
68	0x3e50861c	0.20363659
69	0xbc810a53	-0.015751993
70	0x3edac84f	0.42730948
71	0xbdb9ace7	-0.09066182
72	0xbe3f530a	-0.1868402
73	0xbe2bb12e	-0.16766807
74	0xbe0a9f1f	-0.13537262
75	0x3dc11ee0	0.09429717
76	0x3d6061bb	0.054780703
77	0x3decd059	0.11563177
78	0xbd842b24	-0.06453541
79	0x3e304226	0.17212734
80	0xbec7131a	-0.3888176
81	0x3e9d1a63	0.30684194
82	0x3caa1d93	0.020766055
83	0x3dcf639d	0.101264216
84	0x3d7ff943	0.062493574
85	0xbcd4b676	-0.02596591
86	0xbdea0970	-0.11427581
87	0xbe4bb024	-0.19891411
88	0x3d8f49e9	0.06996519
89	0xbe2e7f27	-0.17040692
90	0xbdcd9750	-0.10038626
91	0xbe0d7338	-0.13813484
92	0x3e8e65d5	0.27812067
93	0xbda948ea	-0.082658604
94	0x3a181fdd	0.0005803088
95	0x3e596fa9	0.21234001
96	0x3e804c92	0.2505842
97	0x3d8234f8	0.06357759
98	0x3daa5b58	0.08318204
99	0xbe5c8d96	-0.21538386
100	0xbe33bd07	-0.17552577
101	0x3e079a77	0.13242517
102	0x3d38a4a6	0.045078896
103	0x3e31d355	0.17365773
104	0x3ef5526b	0.47914442
105	0x3deadf7e	0.11468409
106	0xbe3c4edd	-0.18389459
107	0x3ef210f6	0.47278565
108	0x3e1f3685	0.15548141
109	0x3d8699e8	0.06572324
110	0xbe0a8519	-0.13527335
111	0xbe5f31c2	-0.21796325
112	0x3eef7a02	0.46772772
113	0x3cfcc716	0.03085665
114	0x3e95bcee	0.29245704
115	0x3de6000c	0.11230478
116	0x3d8e9714	0.069624096
117	0x3e60b178	0.21942699
118	0xbe0c6ce5	-0.13713415
119	0xbcae9d79	-0.021315323
120	0x3e474840	0.19461155
121	0x3e396bfa	0.18107596
122	0x3d5cac95	0.053875525
123	0x3dd2b611	0.10288633
124	0xbe1d6948	-0.15372193
125	0x3ef96112	0.4870687
126	0x3bbd546d	0.0057778866
127	0xbed0a1e6	-0.4074852
128	0x3d0ad2a9	0.033892307
129	0xbd9953f7	-0.07486718
130	0xbe2ca99d	-0.16861577
131	0xbe9c438a	-0.30520278
132	0xbe9c783e	-0.30560488
133	0xbe17b899	-0.14816512
134	0xbeaa4b08	-0.3326037
135	0x3e37b434	0.17939836
136	0xbd943f41	-0.07238627
137	0x3e893e07	0.26805136
138	0x3e1e231d	0.15443082
139	0x3e22dc71	0.15904404
140	0xbe02586e	-0.12729046
141	0xbe37390b	-0.17892854
142	0x3d95251c	0.07282469
143	0xbe894d91	-0.2681699
144	0x3ea0ed58	0.3143108
145	0xbce40bd3	-0.02783767
146	0xbe2922a8	-0.16517127
147	0x3e54602b	0.2073981
148	0x3c2d43dc	0.010575261
149	0xbdc98a8c	-0.09840879
150	0x3d8c6f27	0.06857138
151	0x3d8eb32c	0.06967768
152	0x3caf8f90	0.02143076
153	0x3e0e46a9	0.13894142
154	0x3d14c146	0.036317132
155	0x3d1594b6	0.036518775
156	0xbe98666b	-0.2976564
157	0x3dcc18c5	0.09965662
158	0xbeacdf51	-0.33764127
159	0xbe765cd3	-0.24058847
160	0xbdbbcd42	-0.09170009
161	0x3b96daa0	0.004603699
162	0xbe01d594	-0.1267913
163	0x3e217e03	0.15770726
164	0x3c734fd8	0.014850579
165	0xbefc938d	-0.49331322
166	0xbe5a34cf	-0.21309207
167	0xbe69805d	-0.22802873
168	0xbdb30c47	-0.08742576
169	0xbdcd1a76	-0.10014813
170	0x3e213acd	0.15745087
171	0xbeaaeb6a	-0.33382732
172	0xbecf2a92	-0.40462166
173	0xbde5336f	-0.11191451
174	0x3e59c73e	0.21267411
175	0x3cbadedd	0.022811348
176	0xbd5c782d	-0.053825546
177	0x3e68fc7f	0.2275257
178	0xbe42d503	-0.1902657
179	0xbecfb54d	-0.4056801
180	0x3df8cc80	0.1214838
181	0xbe9aa3c1	-0.3020306
182	0x3e218aec	0.1577565
183	0x3eac6c67	0.33676454
184	0xbc925689	-0.017863529
185	0x3d55627c	0.052095875
186	0x3e5ce5d7	0.21572052
187	0xbea15a5d	-0.31514254
188	0xbd9b3c77	-0.07579892
189	0xbdd02a7d	-0.10164354
190	0xbd51fb16	-0.051264845
191	0x3e37c21e	0.17945144
192	0xbe1f4e9e	-0.15557334
193	0xbda98ed5	-0.08279196
194	0x3da531a4	0.08066109
195	0x3ea52b96	0.32259816
196	0x3dafd8b8	0.08586258
197	0x3da23e43	0.07922032
198	0x3e218f76	0.15777382
199	0xbe4d74fc	-0.20064157
200	0xbe826297	-0.25465843
201	0xbda9d26d	-0.08292089
202	0xbdc74811	-0.097305425
203	0xbe3c79cf	-0.18405841
204	0x3a59ba72	0.00083056756
205	0xbc56fc3f	-0.013121664
206	0xbdc6c9f1	-0.09706486
207	0x3b0c94f2	0.0021451083
208	0xbea993d4	-0.33120596
209	0x3e130c27	0.14360105
210	0x3e0a1218	0.13483465
211	0xbe075ce3	-0.13219027
212	0xbe208dd1	-0.15679099
213	0xbda31291	-0.07962526
214	0x3cd5098e	0.026005533
215	0xbe36b053	-0.178407
216	0xbd7e4d3f	-0.062085386
217	0xbdd90652	-0.10596909
218	0xbeaeafbd	-0.34118453
219	0xbe82f231	-0.25575402
220	0x3cf933c6	0.030420195
221	0xbd924aeb	-0.07143196
222	0xbd108d8d	-0.035291243
223	0x3d464f56	0.048415504
224	0x3d2926a3	0.041296612
225	0xbcc0e858	-0.02354829
226	0xbbd9b968	-0.0066444166
227	0xbe16f793	-0.1474288
228	0xbddbfd83	-0.10741713
229	0x3e04ec5a	0.12980786
230	0x3d9ca9f2	0.07649602
231	0xbd2cd5fe	-0.042196266
232	0x3e2addde	0.16686198
233	0xbd3c371b	-0.04595099
234	0xbdedcc65	-0.11611251
235	0x3e6018db	0.21884482
236	0x3d4051bf	0.04695296
237	0xbdb92ed4	-0.09042135
238	0xbde03e85	-0.10949425
239	0xbe043bed	-0.12913485
240	0x3e7e036e	0.24805996
241	0xbebac321	-0.36476997
242	0x3e51d81d	0.20492597
243	0x3e18c0f5	0.14917357
244	0xbc24eae6	-0.01006577
245	0x3df3b0c7	0.11898952
246	0xbe6f74ef	-0.2338445
247	0xbde92f09	-0.11385924
248	0xbda55f34	-0.08074799
249	0xbe048b33	-0.12943725
250	0xbdc03da4	-0.09386757
251	0x3d337a83	0.04381801
252	0x3c60ee6b	0.013728718
253	0x3d9102e2	0.07080628
254	0x3da6ca7a	0.08144088
255	0xbe626efb	-0.22112648

fc2.bias f4 [64]
0	0xbc9342ca	-0.017976183
1	0xbc493980	-0.0122817755
2	0x3d316616	0.043310247
3	0xbe11f037	-0.14251791
4	0x3da196e5	0.07890109
5	0xbc3c1a58	-0.01148089
6	0x3d95553d	0.072916485
7	0xbd8a7d92	-0.06762232
8	0xbdd0fb45	-0.10204176
9	0xbd0956e9	-0.03353015
10	0x3bcd527c	0.0062659364
11	0xbcc0e7be	-0.023548003
12	0xbdc67b60	-0.09691501
13	0x3b92c81d	0.004479422
14	0x3bc05657	0.0058696675
15	0xbd00c7b8	-0.031440467
16	0x38e9917d	0.00011137405
17	0xbd590ada	-0.052988864
18	0xbd0caf7d	-0.034347046
19	0x3d3cb107	0.046067264
20	0xbddf4a28	-0.10902816
21	0xbd0c6de8	-0.034284502
22	0x3cd0f1a4	0.025505848
23	0xbc7d4ac3	-0.015459719
24	0xbd85dbe0	-0.065360785
25	0x3cce7e28	0.02520664
26	0xbd3386b0	-0.04382962
27	0x3d882d02	0.066492096
28	0xba2fc4f8	-0.0006705071
29	0x3d60822b	0.054811638
30	0xbda387d4	-0.079848915
31	0xbdf3e096	-0.11908071
32	0xbd1caf79	-0.03825328
33	0x3cc54edb	0.024085453
34	0xbd322e28	-0.04350105
35	0x3dc56b1c	0.0963957
36	0xbd2afabf	-0.041743036
37	0x3d99a815	0.07502762
38	0x3c890ed6	0.016730707
39	0xbe0e95f8	-0.13924396
40	0x3d4f6236	0.05063077
41	0xbd659bff	-0.056056973
42	0x3e055826	0.13021907
43	0xbdf2a3db	-0.11847659
44	0xbd9a4165	-0.07532004
45	0xbd0f9e5b	-0.03506313
46	0xbcba1a7d	-0.022717709
47	0xbdc0df4e	-0.09417592
48	0xbd3ef16d	-0.04661696
49	0xbc7d34d4	-0.01545449
50	0x3db0edf9	0.0863914
51	0xbc9970ea	-0.0187306
52	0x3cd4b0f3	0.025963282
53	0x3e0c3b85	0.1369458
54	0x3cdb567c	0.026774637
55	0x3da8b3e4	0.082374364
56	0x3d5df13e	0.054185145
57	0x3da77a7b	0.08177658
58	0xbdd6e760	-0.1049335
59	0x3dcebeee	0.10095011
60	0x3df705d8	0.120616615
61	0xbc8515c2	-0.016245726
62	0x3df3783c	0.11888167
63	0xbc9484ca	-0.018129725

fc3.weight f4 [64, 64]
0	0xbe89bf44	-0.26903737
1	0xbd1b3ab7	-0.03789779
2	0x3e3fe5de	0.18740031
3	0x3c9941cf	0.018708138
4	0xbeaaede5	-0.33384624
5	0xbd95d5ef	-0.07316195
6	0x3e3fefef	0.18743871
7	0xbd812ea6	-0.063077256
8	0x3cd35b22	0.025800291
9	0x3ddc0c57	0.10744541
10	0xbe429b51	-0.19004561
11	0x3ea8ec1e	0.32992643
12	0x3e20dbca	0.15708843
13	0x3e3b7e13	0.18309812
14	0x3dfb4bba	0.12270303
15	0xbe50841b	-0.20362894
16	0x3e9da9ff	0.3079376
17	0x3e0fa537	0.14027868
18	0x3cecda8e	0.028912809
19	0xbc81a93b	-0.015827766
20	0xbe916ccf	-0.28403327
21	0x3e86f4e8	0.26358724
22	0x3ea65adf	0.32491204
23	0xbe2a7658	-0.16646707
24	0xbc5f75d9	-0.013638937
25	0xbcade207	-0.021225942
26	0xbdb384f2	-0.08765592
27	0xbe1363d5	-0.14393552
28	0xbe4a31d4	-0.1974557
29	0x3e80a218	0.25123668
30	0x3d51e7b5	0.051246364
31	0xbcadcf72	-0.021217082
32	0x3d974751	0.073866494
33	0xbe0d4a9c	-0.13797992
34	0x3e2a0d37	0.16606604
35	0x3d5a231c	0.05325614
36	0xbe119e34	-0.14220506
37	0x3eb25a1c	0.34834373
38	0x3eb117cd	0.3458847
39	0xbea522ff	-0.32253262
40	0x3e5e4525	0.21706064
41	0x3ebd3a5f	0.36958596
42	0xbdd91798	-0.10600203
43	0x3e70fd41	0.23534109
44	0x3d89f879	0.067368455
45	0xbe573b06	-0.2101861
46	0xbd9277d2	-0.0715176
47	0xbe91df6b	-0.28490767
48	0x3c226792	0.009912388
49	0x3e55f77b	0.20895188
50	0xbe041dc3	-0.12901978
51	0x3ddcd483	0.10782721
52	0xbd95cc72	-0.073143855
53	0x3a78454e	0.00094707764
54	0xbe031403	-0.12800603
55	0x3d102658	0.035192817
56	0x3eac682a	0.3367322
57	0x3d41750c	0.047230765
58	0x3d1a0ad5	0.037607986
59	0xbe80bcdf	-0.25144097
60	0xbe29844c	-0.16554374
61	0x3dc5b7c7	0.09654193
62	0xbe3a942c	-0.18220586
63	0xbe636b7e	-0.22208974
64	0xbdf22b04	-0.11824611
65	0x3e2d960b	0.16951768
66	0xbe6e3d2f	-0.23265527
67	0xbc65a596	-0.01401653
68	0xbcf4e287	-0.029893173
69	0x3ce6dfe4	0.028182931
70	0xbdfe4a08	-0.12416464
71	0xbe816d9c	-0.25278938
72	0xbdfa03f9	-0.12207789
73	0xbeadedf0	-0.33970594
74	0xbd27c8f9	-0.040963147
75	0xbdd81610	-0.10551083
76	0xbe780478	-0.24220455
77	0xbe90180e	-0.28143352
78	0xbe9843ec	-0.2973932
79	0x3da0126a	0.07816012
80	0xbe7a46fd	-0.24441142
81	0xbdd9b969	-0.10631067
82	0x3eaf9a44	0.34297383
83	0x3d2bf6a1	0.04198325
84	0xbd3066cd	-0.04306679
85	0xbe99b4fa	-0.30020887
86	0xbceec5be	-0.029147025
87	0x3dbc9585	0.09208206
88	0x3ba3d836	0.0050001396
89	0xbe77346a	-0.24141088
90	0x3b881dcc	0.0041539427
91	0x3e6c8324	0.23096901
92	0x3e20375f	0.15646122
93	0x3ee639c1	0.44965938
94	0xbe9f03a3	-0.31057462
95	0xbb99f094	-0.0046978686
96	0xbe457dca	-0.19286266
97	0x3cf8b0bf	0.030357717
98	0xbe0db391	-0.1383803
99	0xbe5a7aa6	-0.21335849
100	0x3d8f5370	0.06998336
101	0xbdc630d9	-0.09677286
102	0xbe0b4699	-0.1360115
103	0xbc5e4202	-0.013565542
104	0xbd001f3b	-0.031279784
105	0xbdc72901	-0.09724618
106	0x3e9c2a55	0.30501047
107	0xbe54532b	-0.20734851
108	0x3e7adf3a	0.24499217
109	0x3dbb27d5	0.09138457
110	0x3e855875	0.2604405
111	0x3da075c4	0.07834962
112	0x3dcc070f	0.09962284
113	0xbde4a87e	-0.1116495
114	0x3e7307a4	0.23733383
115	0xbe300530	-0.17189479
116	0x3e8fb9d2	0.28071457
117	0x3e754f6b	0.23956077
118	0x3d0afdfe	0.033933632
119	0x3d541a5a	0.051782943
120	0xbe88ebbf	-0.2674236
121	0xbe9c7404	-0.30557263
122	0xbe375cf7	-0.17906557
123	0x3e0071fe	0.12543485
124	0x3d3bb0c3	0.04582287
125	0xbe88a479	-0.26687983
126	0xbdb3ff9e	-0.087889895
127	0x3d879405	0.06620029
128	0x3e883c71	0.26608613
129	0xbcc9ed88	-0.024649397
130	0xbe2ef52c	-0.17085713
131	0x3cd5a173	0.026077962
132	0x3e095004	0.1340943
133	0x3d7f4333	0.062319946
134	0xbd06945c	-0.03285633
135	0x3e7bcc0c	0.24589556
136	0x3e0006b1	0.12502553
137	0xbe43ea9f	-0.1913247
138	0x3e75b244	0.23993784
139	0xbed5f0c7	-0.4178526
140	0xbcfb45e9	-0.030672984
141	0xbe88a4c6	-0.26688212
142	0xbe46b9b7	-0.19406782
143	0x3dad9a1f	0.08476662
144	0xbe974a3b	-0.2954882
145	0xbdbed974	-0.0931882
146	0xbb5b2c71	-0.0033443237
147	0x3dd243b6	0.10266821
148	0x3e8a283f	0.2698383
149	0xbe58bc11	-0.21165492
150	0xbe9928f3	-0.29914054
151	0xbd39bcb3	-0.045345973
152	0x3dbc9863	0.09208753
153	0xbe157cd5	-0.14598401
154	0x3d3192df	0.043352958
155	0x3c3b6098	0.011436604
156	0x3e240f57	0.16021477
157	0xbe852196	-0.26002187
158	0x3e2b0b18	0.1670345
159	0xbd777910	-0.06041819
160	0xbe832f2a	-0.2562192
161	0x3e751da8	0.23937094
162	0xbdfdc08c	-0.12390241
163	0x3cf1c72e	0.029513922
164	0x3e86220e	0.26197857
165	0xbe935cb6	-0.2878167
166	0xbe045853	-0.12924318
167	0x3e798884	0.24368483
168	0xbe5a8266	-0.21338806
169	0xbe49741f	-0.19673203
170	0x3dbf6f15	0.09347359
171	0x3c370f6f	0.011173113
172	0xbe03e25e	-0.12879321
173	0x3d322d10	0.043500006
174	0xbda535b4	-0.08066884
175	0x3e901cba	0.28146917
176	0xbe0548b9	-0.13016023
177	0xbde4de29	-0.11175186
178	0x3c982c8b	0.018575927
179	0x3a947f6c	0.0011329479
180	0xbd8e6fd8	-0.06954926
181	0xbd82b1dd	-0.06381581
182	0x3e31f068	0.17376864
183	0xbd9b9c9c	-0.0759823
184	0xbe3e43b5	-0.18580516
185	0xbd832606	-0.06403737
186	0x3d108690	0.03528458
187	0x3e2bf006	0.1679078
188	0x3e54d801	0.20785524
189	0xbe0fde47	-0.14049636
190	0x3e3d3b95	0.1847976
191	0x3d120ee9	0.03565875
192	0xbe6c2634	-0.23061448
193	0xbd605b43	-0.054774534
194	0x3e064070	0.13110518
195	0x3d49a736	0.04923173
196	0xbec2e5a0	-0.38065815
197	0xbe8d7143	-0.27625474
198	0x3e218b45	0.15775783
199	0xbe62ba71	-0.22141434
200	0xbe5d6d0e	-0.21623632
201	0x3dfae728	0.12251121
202	0xbe2c6c5d	-0.16838212
203	0x3ed53d97	0.41648552
204	0x3de30a19	0.1108591
205	0x3e4cd888	0.20004475
206	0x3e5db747	0.21651946
207	0x3b2f5310	0.002675239
208	0x3e37bddb	0.17943518
209	0xbb26c1f7	-0.0025445202
210	0x3e282d53	0.1642354
211	0xbe016172	-0.12634829
212	0xbe7b3b36	-0.24534306
213	0x3ed4a9af	0.41535708
214	0x3eb95670	0.3619876
215	0xbd9e30d1	-0.07724155
216	0xbd31ef41	-0.04344106
217	0x3d681f43	0.05667044
218	0xbccc0a59	-0.024907278
219	0xbdbd7a9a	-0.092519
220	0xbe8240f2	-0.25440174
221	0x3ebda873	0.3704258
222	0xbcf4bb46	-0.029874455
223	0x3b91b238	0.004446294
224	0x3e2a5386	0.16633424
225	0xbe09fbed	-0.13475008
226	0x3e0d5238	0.13800895
227	0xbd2a65b9	-0.041600917
228	0xbe5d51b5	-0.216132
229	0x3ea145f0	0.3149867
230	0x3e4dbd89	0.20091833
231	0xbeaedec5	-0.34154335
232	0x3ddac8d8	0.10682839
233	0x3eccb457	0.39981338
234	0xbdbcb02f	-0.09213292
235	0x3e2f3c10	0.17112756
236	0x3da0552a	0.07828744
237	0xbe7e2748	-0.24819672
238	0x3d9c8858	0.07643193
239	0xbdd34534	-0.10315934
240	0xbdbb2d97	-0.09139555
241	0x3d03934c	0.032122895
242	0xbe1cd4c7	-0.15315543
243	0x3d4c3ddd	0.049863685
244	0x3d9ca0ad	0.07647834
245	0x3d6098f4	0.054833367
246	0xbe8a7c4f	-0.27047965
247	0x3d800188	0.06250292
248	0x3eaf9e36	0.34300393
249	0x3dd3ea64	0.10347441
250	0x3d2f3deb	0.04278366
251	0xbd9e495c	-0.07728836
252	0xbe522a12	-0.20523861
253	0x3e1f6a5e	0.1556792
254	0xbe057b05	-0.1303521
255	0xbe620f6c	-0.22076195

fc3.bias f4 [64]
0	0xbd6a5e1b	-0.057218652
1	0xbe0dbfc4	-0.13842684
2	0xbd6f1e29	-0.058378372
3	0xbe068b98	-0.13139188
4	0xbc98b01d	-0.018638665
5	0x3d89feae	0.067380294
6	0x3de17084	0.11007789
7	0x3dcc1f5e	0.0996692
8	0xbb454d7b	-0.0030105996
9	0x3e0f1bec	0.13975495
10	0xbdf78014	-0.12084976
11	0xbe1196e6	-0.1421772
12	0x3df13f3e	0.117796406
13	0x3dc0a7de	0.09407018
14	0x3daca069	0.08429033
15	0xbd64455f	-0.05573022
16	0xbc0f5dc3	-0.008750382
17	0x3cb35078	0.021888956
18	0x3d676640	0.056493998
19	0x3e17fa78	0.1484164
20	0x3da1969d	0.07890055
21	0x3d97a60b	0.07404717
22	0xbe001410	-0.12507653
23	0xbe16fb69	-0.14744343
24	0xbcd0787a	-0.025448073
25	0xbda70ecb	-0.081571184
26	0xbe0055f8	-0.12532794
27	0xbcc2c7af	-0.023776857
28	0xbb039ae3	-0.0020081333
29	0x3c8b2665	0.016986081
30	0x3d1c48e8	0.038155466
31	0x3d779e1c	0.06045352
32	0xbd4323d3	-0.047641587
33	0xbdad05ce	-0.08448373
34	0xbced8ddc	-0.028998308
35	0xbbb3b5e6	-0.0054843305
36	0x3d08f3ba	0.03343556
37	0x3d37a2f4	0.04483314
38	0xb9fb1a1f	-0.00047893912
39	0x3bf273e5	0.0073990696
40	0xbd88b32d	-0.066748
41	0xbdb3701b	-0.08761617
42	0xbd9a9b86	-0.07549195
43	0x3e08843b	0.13331692
44	0xbd7b588a	-0.061363734
45	0x3d72d7dc	0.05928789
46	0xbb96737b	-0.004591403
47	0xbe1594e7	-0.14607583
48	0x3cfb63d8	0.030687258
49	0x3c55583e	0.013021527
50	0x3dfd2021	0.12359644
51	0x3d6ea0ae	0.058258705
52	0x3dcb3184	0.09921554
53	0x3d8737d3	0.066024445
54	0xbd517828	-0.05113998
55	0xbd757c98	-0.059933275
56	0x3dc92019	0.09820575
57	0x3d7428bb	0.059609156
58	0xbdb2dedf	-0.087339155
59	0x3dd1fecd	0.102536775
60	0x3e0b39a0	0.13596201
61	0xbbdc0154	-0.0067140255
62	0xbe132bd6	-0.14372191
63	0xbe1cf334	-0.1532715

out.weight f4 [2, 64]
0	0x3e7af376	0.24506935
1	0xbe101679	-0.14071073
2	0xbe34d473	-0.17659168
3	0x3e2c3667	0.16817628
4	0x3ea19c0f	0.31564376
5	0x3e29c4f6	0.16579041
6	0xbe6640d3	-0.22485666
7	0xbe6054db	-0.2190737
8	0x3e29901b	0.16558878
9	0x3d0d9231	0.034563247
10	0xbe6d0dab	-0.23149745
11	0x3c882da0	0.016623318
12	0xbe74882d	-0.23880072
13	0xbe2e0406	-0.16993722
14	0xbe54f6f8	-0.20797336
15	0x3e821a40	0.25410652
16	0xbe0fb1b7	-0.14032637
17	0x3b11fccd	0.0022275925
18	0xbe8629ea	-0.26203853
19	0xbcecfe29	-0.028929787
20	0xbe6eaac0	-0.23307323
21	0xbe51a500	-0.20473099
22	0x3e2d2a94	0.16910774
23	0xbe1da541	-0.1539507
24	0xbd739cdb	-0.05947576
25	0x3e0adca7	0.13560735
26	0xbde40e82	-0.1113558
27	0xbdfd7f5e	-0.12377809
28	0x3e281385	0.16413696
29	0x3e923fe4	0.2856437
30	0x3e32a5b2	0.1744602
31	0xbde6b3f7	-0.11264794
32	0xbe067aa9	-0.13132729
33	0x3e8a78ba	0.27045232
34	0xbce9ee72	-0.028556082
35	0xbe36e151	-0.17859389
36	0x3e7a3278	0.24433315
37	0xbc38dca9	-0.011283078
38	0x3dcd1c8c	0.100152105
39	0xbe4208bb	-0.18948643
40	0x3dd6c3ee	0.10486589
41	0x3e600686	0.21877488
42	0x3e647c27	0.22312985
43	0xbe442133	-0.1915329
44	0x3e89b5fd	0.2689666
45	0x3e2a79e9	0.16648068
46	0x3de807b8	0.11329597
47	0xbce59c8f	-0.028028755
48	0x3e043ba2	0.12913373
49	0x3e6490e6	0.223209
50	0xbe1efb30	-0.15525508
51	0xbe9944f2	-0.29935414
52	0x3e3b2503	0.18275838
53	0x3dcbf78c	0.09959325
54	0xbe6343ea	-0.22193876
55	0xbe91aec6	-0.28453654
56	0x3e9a8b0a	0.30184203
57	0xbe67893d	-0.22610946
58	0xbddf3208	-0.108982146
59	0x3e741959	0.23837794
60	0x3dd370a2	0.103242174
61	0x3e863d1f	0.26218507
62	0xbe20274a	-0.15639988
63	0x3e3c8399	0.18409576
64	0xbe03bd45	-0.1286517
65	0xbd98a4d6	-0.07453315
66	0x3e4e1469	0.20124973
67	0xbe19e455	-0.15028508
68	0xbce52377	-0.027971013
69	0xbe05e52e	-0.13075706
70	0x3dc62bbe	0.09676312
71	0x3dffa537	0.12482684
72	0x3e3ff1b6	0.18744549
73	0x3e455c73	0.19273548
74	0xbd4151b1	-0.047197048
75	0xbe43388e	-0.19064543
76	0x3e0be841	0.13662817
77	0x3dbd1442	0.092323795
78	0xbdad1deb	-0.08452972
79	0xbd908d50	-0.07058203
80	0xbe25c274	-0.16187459
81	0xbe444c2d	-0.19169684
82	0x3d1532d5	0.03642543
83	0x3e3c7d3e	0.18407151
84	0xbe03e422	-0.12879995
85	0xbe2b3b24	-0.16721779
86	0xbdf7c4c9	-0.12098081
87	0xbe210520	-0.15724611
88	0xbe246d98	-0.16057432
89	0xbe3dbce1	-0.18529083
90	0xbe38ebac	-0.18058652
91	0xbdcb05de	-0.099132285
92	0xbe002792	-0.12515095
93	0x3d0d6593	0.034520697
94	0x3e567de9	0.20946468
95	0xbe2f042e	-0.17091438
96	0xbd155b0c	-0.036463782
97	0x3b6d9355	0.0036251147
98	0xbe308f83	-0.17242245
99	0x3e38b2fb	0.18037026
100	0xbe1327a7	-0.14370595
101	0x3e06d635	0.13167651
102	0xbe35b438	-0.17744529
103	0xbe467cb5	-0.1938351
104	0xbe403e4d	-0.18773766
105	0xbd3f69e1	-0.046731833
106	0x3e27f4ee	0.16402027
107	0x3dfbb2c2	0.12289955
108	0xbd07743d	-0.033069838
109	0xbe1e1041	-0.15435888
110	0x3e4ea3dd	0.20179696
111	0xbe477717	-0.19479023
112	0x3e237b45	0.15964992
113	0x3dc822e7	0.09772282
114	0x3e08cfd6	0.13360533
115	0x3c8f6626	0.017504763
116	0x3e3ce47e	0.18446538
117	0x3e14d9c9	0.14536203
118	0x3e319a2b	0.17343967
119	0xbcd90231	-0.026490303
120	0xbd79bff1	-0.060974065
121	0xbe018430	-0.12648082
122	0x3e1edb1b	0.1551327
123	0xbd563aeb	-0.052302282
124	0x3e2e2704	0.17007071
125	0x3d8f227d	0.06989
126	0xbdbec0c1	-0.09314109
127	0xbdfe8821	-0.12428308

out.bias f4 [2]
0	0x3d0e07bf	0.034675356
1	0x3c0324cb	0.008004378
