Santiago_version/models/Umbumping_cars_V3.pth (torch, 38840 bytes, 8 tensors)

fc1.weight f4 [64, 6]
0	0x3e913e05	0.2836763
1	0x3df86f75	0.12130634
2	0xbeeec988	-0.4663813
3	0xbe5840bd	-0.21118446
4	0xbfc36c48	-1.526742
5	0xbe1ef0f6	-0.15521607
6	0x3f2b8b8c	0.67009807
7	0x3ecd47ca	0.40093833
8	0xbf2bb56c	-0.670737
9	0xbebfb5d3	-0.37443408
10	0x404b2b7d	3.1745293
11	0x3dcf2455	0.10114352
12	0xbd16d22e	-0.036821537
13	0xbf2f120f	-0.6838693
14	0xba0bd6fa	-0.0005334463
15	0x3f297c5d	0.6620539
16	0xc01d310e	-2.456119
17	0x3e86419c	0.2622193
18	0x3e73720f	0.23773979
19	0xbf3dad14	-0.7409222
20	0xbe5fb11d	-0.21844907
21	0x3f0c693d	0.5484808
22	0xc04f04f1	-3.2346766
23	0xbd9ea20c	-0.07745752
24	0x3e85978b	0.2609218
25	0x3e520031	0.20507886
26	0xbe2112d5	-0.1572984
27	0xbe601fad	-0.21887083
28	0xbe810a5b	-0.25203213
29	0xbf893cf9	-1.0721732
30	0xbeaeaafd	-0.3411483
31	0xbd8c6118	-0.06854457
32	0x3f0a4576	0.5401224
33	0x3d91250e	0.07087146
34	0x3f151a45	0.5824321
35	0x3f2d1841	0.67615134
36	0x3ec06eef	0.37584636
37	0x3e80bbed	0.25143376
38	0xbeed3cfb	-0.46335587
39	0xbe8e74ca	-0.27823478
40	0x400f11c7	2.23546
41	0x3e84b07f	0.25915906
42	0xbe8ec4a3	-0.27884397
43	0xbe25c943	-0.16190057
44	0x3e8e975d	0.27849856
45	0x3e188069	0.14892735
46	0x3f5a316f	0.8523168
47	0xbd29a0aa	-0.041412987
48	0x3e8bc4e4	0.27298653
49	0xbe7cb032	-0.24676588
50	0xbf11f837	-0.5701937
51	0x3e2143e0	0.15748549
52	0x3f0035a3	0.50081843
53	0xc051d933	-3.2788818
54	0x3eae5901	0.3405228
55	0x3c3d9b49	0.011572667
56	0x3dfe4ff8	0.124175966
57	0xbdab1da6	-0.08355264
58	0xbf0c5ad9	-0.5482612
59	0xbdb5deec	-0.088804096
60	0xbc0781d8	-0.008270703
61	0xbe9c4e25	-0.3052837
62	0x3e5ce9e3	0.21573596
63	0x3da5f9b3	0.08104267
64	0xbf8c913b	-1.0981821
65	0x3ea68af1	0.3252788
66	0x3eb9ef52	0.363154
67	0xbd8422e1	-0.06451965
68	0xbf084220	-0.532259
69	0xbe02b617	-0.12764774
70	0x3dae30ab	0.085053764
71	0x3e982b55	0.2972056
72	0xbe4acc92	-0.198046
73	0x3d7fff9e	0.062499635
74	0x3e392ece	0.18084261
75	0xbd1ed156	-0.038773857
76	0x3fcc9659	1.5983382
77	0xbaf63fcc	-0.0018787323
78	0xbed51d0f	-0.41623732
79	0xbda4d7b8	-0.080489576
80	0x3d260f95	0.040542204
81	0x3ea06d89	0.3133357
82	0x3f06fa5e	0.5272578
83	0xbdcdd969	-0.10051233
84	0x3ed49fbc	0.41528118
85	0xbda7d0e7	-0.08194142
86	0xbf113d22	-0.56733906
87	0x3eb9f8de	0.36322683
88	0x3eac9cb7	0.33713314
89	0xbeb90beb	-0.36141905
90	0x3f05ee93	0.5231716
91	0xbd28ed80	-0.041242123
92	0xbf204f82	-0.6262132
93	0x3da8ed7b	0.08248421
94	0xbf95872e	-1.1681879
95	0xbf40cd3c	-0.7531316
96	0x3f0a8f53	0.54124945
97	0x3f34944b	0.7053878
98	0xbec75d61	-0.3893843
99	0xbf2af125	-0.6677421
100	0x400ffedd	2.2499306
101	0x3e4ecc82	0.20195201
102	0x3edb404c	0.42822492
103	0x3eaab99b	0.3334473
104	0xbf1c8684	-0.61142755
105	0xbe61e433	-0.22059707
106	0xbf166c72	-0.58759224
107	0xbd20b2be	-0.03923296
108	0x3e9a9bc3	0.30196962
109	0x3e1171c3	0.14203553
110	0xbe4403c0	-0.19142056
111	0xbd2d40f5	-0.042298276
112	0xbf01f698	-0.507669
113	0x3f3920cb	0.72315663
114	0xbf09226c	-0.5356815
115	0x3f04f7ed	0.51940805
116	0x3ef51069	0.47864082
117	0xbed4ccba	-0.41562444
118	0xc02ee51d	-2.732734
119	0xbdc240c9	-0.09485013
120	0xbefa41d0	-0.48878336
121	0x3e8e6985	0.2781488
122	0x3f1e4b0f	0.6183328
123	0xbeb54b86	-0.35409182
124	0xbeaebddb	-0.34129223
125	0x40209c80	2.509552
126	0x3e413253	0.18866853
127	0x3ef910ed	0.48645726
128	0xbd780363	-0.060550105
129	0xbf3afe78	-0.7304454
130	0x3f9da89f	1.2317084
131	0x3edd011f	0.43164918
132	0x3ed170ef	0.40906474
133	0x3e90773d	0.28215972
134	0xbec0153a	-0.37516195
135	0xbe2c0ac8	-0.16800988
136	0xbf966dce	-1.175226
137	0xbfeab167	-1.8335389
138	0xbdee6e7d	-0.11642168
139	0xbe3db3bc	-0.18525594
140	0x3ddab856	0.106796905
141	0xbd91caeb	-0.07118782
142	0xc00e9ca4	-2.2283106
143	0x3eff0ef4	0.49816096
144	0xbf31d486	-0.6946491
145	0xbe3e3231	-0.18573834
146	0x3e9d12ea	0.30678493
147	0x3d43bb16	0.04778584
148	0x3dd85846	0.10563712
149	0xbfa90693	-1.3205131
150	0x3d832678	0.06403822
151	0x3ea88a14	0.32917845
152	0x3dba60af	0.09100472
153	0xbe352e66	-0.17693481
154	0xbff614be	-1.922508
155	0x3ddf3c69	0.10900194
156	0x3e131232	0.1436241
157	0x3e37bab0	0.1794231
158	0xbe830531	-0.25589898
159	0xbe8fc9bf	-0.28083608
160	0xbec05f01	-0.37572482
161	0xc019e73b	-2.4047382
162	0x3e53ce00	0.20684052
163	0xbf07d7ab	-0.5306346
164	0xbe2ed346	-0.17072782
165	0x3e413c14	0.18870574
166	0xbfdbe121	-1.7178079
167	0x3d860f87	0.0654593
168	0x3dd06484	0.10175422
169	0xbe563b26	-0.20921001
170	0xbe8e13e8	-0.27749562
171	0x3e2a277b	0.16616623
172	0xc077bfcb	-3.871081
173	0x3e043db5	0.12914164
174	0x3f00d8f4	0.50331044
175	0xbed999ff	-0.42500302
176	0xbec8b529	-0.39200714
177	0x3ece1c33	0.4025589
178	0xbfe4f27d	-1.7886502
179	0xbe2b6baf	-0.16740297
180	0xbf21691c	-0.6305101
181	0x3e3a9eab	0.1822459
182	0x3e7ee89b	0.2489342
183	0xbe81ebaf	-0.25375125
184	0x3fe62494	1.7979913
185	0xbeae1564	-0.34000695
186	0xbebc104b	-0.3673118
187	0xbf2983e2	-0.6621686
188	0x3e3a7da8	0.18211997
189	0x3f32c998	0.6983886
190	0xc019ff0d	-2.406192
191	0x3df0dc61	0.11760784
192	0x3e8116c9	0.25212696
193	0xbe980d0e	-0.2969746
194	0xbe9ec01f	-0.31005952
195	0x3eb60805	0.35552993
196	0xbfe5184a	-1.7898037
197	0x3f603c20	0.87591743
198	0x3eb2e088	0.3493693
199	0x3d948c09	0.07253272
200	0xbeb53739	-0.35393694
201	0x3b714381	0.0036813917
202	0xc00a9406	-2.1652846
203	0x3b9c27ea	0.0047655003
204	0x3f3e9b3f	0.74455637
205	0xbdd7c7c8	-0.10536152
206	0x3e400ec3	0.18755631
207	0x3d56373b	0.052298766
208	0xbeeca649	-0.46220616
209	0xbec84840	-0.39117622
210	0xbe54e0c9	-0.20788874
211	0x3e0f8da9	0.14018883
212	0x3de9c072	0.11413659
213	0xbe09a292	-0.13440922
214	0x3fbc1503	1.4693912
215	0xbc964b3b	-0.01834642
216	0xbe3c31ab	-0.18378322
217	0x3ea249f0	0.31697035
218	0x3ef2e87e	0.47443002
219	0xbebee6ee	-0.3728556
220	0x3f5308aa	0.82435095
221	0x3f0fda81	0.56192786
222	0x3e827a24	0.2548381
223	0xbe721302	-0.23640063
224	0xbe439067	-0.19098054
225	0x3ecadbba	0.39620763
226	0x40084f72	2.129849
227	0x3ebc7598	0.36808467
228	0xbf0abd6a	-0.5419527
229	0xbec434d6	-0.3832156
230	0x3f095cf0	0.53657436
231	0x3ee3e534	0.44510806
232	0x3f9f3c9b	1.244037
233	0x3d980540	0.07422876
234	0x3e51e33e	0.20496842
235	0x3f098d49	0.5373121
236	0xbdf78b18	-0.12087077
237	0xbf185d39	-0.59517246
238	0xbfcf7313	-1.6206993
239	0x3cda0dc6	0.026617896
240	0x3eb6c033	0.3569351
241	0xbc9275dc	-0.017878465
242	0xbe4e5d67	-0.20152818
243	0xbcd52d1d	-0.026022488
244	0x3f7ac016	0.9794935
245	0x4033336e	2.800014
246	0xbe7997a8	-0.24374259
247	0x3eb7f093	0.3592573
248	0x3d49b054	0.049240425
249	0x3de8b575	0.11362735
250	0xbe9a193a	-0.3009737
251	0xbd909968	-0.0706051
252	0x3eb134c3	0.34610566
253	0xbf50a3ef	-0.8150014
254	0xbf292684	-0.66074395
255	0x3f0ee8f6	0.5582422

fc1.bias f4 [64]
0	0x3edf0e0d	0.43565407
1	0xbbffca81	-0.007806123
2	0x3f9aacc9	1.208398
3	0xbf9380a8	-1.1523638
4	0xc05ebca8	-3.4802647
5	0xbdb4e1f5	-0.088321604
6	0xbe8d3a2d	-0.27583447
7	0x3eb9930e	0.36245006
8	0x3f36bd49	0.71382576
9	0x3d895288	0.06705195
10	0x3ed3816f	0.41309687
11	0xbf3fd985	-0.74941283
12	0xbe2b12e2	-0.16706422
13	0x3f09ba92	0.5380031
14	0x3e013d2d	0.12620993
15	0xc036efc8	-2.858385
16	0x3f6f0f12	0.9338237
17	0xbe812a6c	-0.25227678
18	0x40219ef5	2.525327
19	0xbc548f56	-0.012973627
20	0xbdbbb198	-0.09164733
21	0xbe9d77cb	-0.30755457
22	0xc00e58a0	-2.2241592
23	0x3f677cde	0.9042491
24	0x3d0b25f8	0.033971757
25	0x3d7f029a	0.06225834
26	0xc00945a4	-2.1448755
27	0xbf50aae2	-0.81510746
28	0xbe4ecb87	-0.20194827
29	0xc0176c04	-2.3659678
30	0xbea5c200	-0.32374573
31	0x3ef6ccb3	0.48203048
32	0xbecdf899	-0.40228727
33	0xbe49f9c1	-0.1972418
34	0xbf87cfc1	-1.0610276
35	0xbf02c21a	-0.51077425
36	0xbcc704b4	-0.024294235
37	0xbe94375c	-0.28948486
38	0xbf3c904f	-0.736577
39	0x3da88bee	0.082298145
40	0x3f13cbc1	0.5773278
41	0xbd3f9da3	-0.046781193
42	0xbf8479d0	-1.0349674
43	0x3e01c945	0.12674434
44	0x3f463610	0.7742624
45	0xbec4d83a	-0.38446218
46	0xbf018db9	-0.50606877
47	0xbf8276d1	-1.019251
48	0xc056249c	-3.3459845
49	0xbfd89e6e	-1.6923349
50	0x40059006	2.0869155
51	0x3fcfee12	1.6244528
52	0x3c966172	0.018357012
53	0x3e81e50a	0.25370055
54	0xc007cd27	-2.1218965
55	0xbf718cdb	-0.94355553
56	0xbf9fc8d0	-1.2483158
57	0xc0038219	-2.0548155
58	0x3f584127	0.84474415
59	0xbf3e4bb4	-0.74334264
60	0xbfdc2c40	-1.7201004
61	0xbb9e76ed	-0.0048359544
62	0x3c140e76	0.009036651
63	0xbf959f41	-1.1689225

fc2.weight f4 [64, 64]
0	0xbd4a6ccc	-0.049420163
1	0xbe7aa8cc	-0.24478453
2	0xbdfbecd6	-0.12301032
3	0xbea99b26	-0.3312618
4	0x3f1dfd3b	0.61714524
5	0x3e86e352	0.26345307
6	0xbea34dcf	-0.318953
7	0x3e88bf85	0.26708618
8	0xbdf5fa62	-0.12010647
9	0xbe0912da	-0.13386098
10	0x3dce6fd6	0.10079925
11	0xbe8b69ad	-0.27229062
12	0x3ea3fc1b	0.3202828
13	0x3d7d6833	0.06186695
14	0xbdc94561	-0.09827686
15	0x3ed906ba	0.42387944
16	0x3e63fb95	0.2226394
17	0xbf23c94d	-0.63979036
18	0x3f5a52e1	0.85282713
19	0xbd980664	-0.07423094
20	0xbff23ef8	-1.8925467
21	0xbe54593c	-0.20737165
22	0xbf6a9fa6	-0.91649854
23	0xbc144b85	-0.009051208
24	0x3ed79d60	0.42112255
25	0xbdfab563	-0.12241628
26	0xbf8df825	-1.1091353
27	0x3c442209	0.011971005
28	0x3e27ce81	0.16387369
29	0x3e006c9d	0.12541433
30	0x3ec025a5	0.3752872
31	0xbd955653	-0.07291856
32	0xbf043db8	-0.51656675
33	0xbea1ed35	-0.31626287
34	0xbdc037de	-0.09385656
35	0x3e8e2f07	0.27770254
36	0x3d7f5344	0.062335268
37	0x3cda0a83	0.02661634
38	0x3e9f9009	0.31164578
39	0xbe9bf228	-0.30458188
40	0x3fd23b5a	1.6424363
41	0x3cd8bcca	0.02645721
42	0x3e579ee0	0.210567
43	0x3c992516	0.018694442
44	0xbf88e4c0	-1.0694809
45	0x3e32a69d	0.1744637
46	0xbd2eb023	-0.042648446
47	0x3d8f4882	0.06996252
48	0xbf55ce07	-0.835175
49	0x3f5ff31e	0.8748034
50	0x3e828163	0.2548934
51	0xbfcd60bd	-1.6045147
52	0x3db7fdff	0.08983993
53	0x3ea746ed	0.326713
54	0xbeba908e	-0.3643841
55	0xbe766b7a	-0.24064437
56	0x3e8c8bea	0.27450496
57	0xbea2616a	-0.31714946
58	0x3e297460	0.165483
59	0x3e905f6b	0.28197798
60	0xbde4e153	-0.1117579
61	0x3e9b4ba2	0.3033114
62	0x3e2c5457	0.16829048
63	0xbda85644	-0.08219579
64	0xbeab2cf8	-0.33432746
65	0xbd00a192	-0.031404085
66	0xbf211d49	-0.6293531
67	0xbf2aa521	-0.66658217
68	0x3f2003ba	0.62505686
69	0x3ea1e12a	0.316171
70	0xbec7e3f8	-0.39041114
71	0x3e6794eb	0.22615401
72	0x3ee539cb	0.44770655
73	0xbe97669f	-0.2957048
74	0x3eae701e	0.34069914
75	0xbe70f013	-0.23529081
76	0x3ee25d4d	0.44211808
77	0x3c3a8fc7	0.011386818
78	0xbf0865d1	-0.5328036
79	0x3f27ba06	0.65518224
80	0x3e2d0d3a	0.16899577
81	0xbf226f60	-0.63451195
82	0x3f69d498	0.9134002
83	0x3d306bb8	0.04307148
84	0xc02167f8	-2.5219707
85	0xbe769af8	-0.24082553
86	0xbf4739ac	-0.77822375
87	0xbeae10b1	-0.3399711
88	0x3e9a692c	0.30158365
89	0x3e432896	0.19058451
90	0xbf377173	-0.71657485
91	0xbe8e50db	-0.27796063
92	0x3d7547a5	0.05988278
93	0x3e00adbd	0.12566276
94	0x3f146104	0.57960534
95	0xbca532c3	-0.020165807
96	0xbeff6fef	-0.49890086
97	0xbeb572eb	-0.35439238
98	0xbe368381	-0.17823602
99	0x3e90ae1d	0.28257838
100	0x3efc3e3c	0.4926623
101	0xbe6f9db9	-0.2340001
102	0x3f063f21	0.5244008
103	0xbeebe87d	-0.46075812
104	0x3fb4aab8	1.4114599
105	0x3c93e72c	0.018054567
106	0xbe661f9f	-0.22473
107	0x3d453230	0.048143566
108	0xbffb0c76	-1.9613178
109	0x3e15894b	0.14603154
110	0xbd9c2810	-0.07624829
111	0xbea87516	-0.3290183
112	0xbf53e9db	-0.8277871
113	0x3f42e0d5	0.76124316
114	0x3d482230	0.04886073
115	0xc041c575	-3.0276768
116	0x3ea6107c	0.32434452
117	0x3e46d1b6	0.19415936
118	0xbf058c55	-0.52167255
119	0xbe6d9765	-0.23202284
120	0x3eb9e492	0.36307198
121	0xbeac3098	-0.33630824
122	0x3d00616a	0.0313429
123	0x3e84a2d4	0.25905478
124	0x3c837fd1	0.016052159
125	0x3ef768b5	0.48322073
126	0x3de8622b	0.11346849
127	0xbf210ede	-0.6291331
128	0xbe827107	-0.25476858
129	0xbe745e09	-0.23863997
130	0xbebed796	-0.37273854
131	0xbeb5995f	-0.35468575
132	0x3e8c2acb	0.27376398
133	0x3e5c7caa	0.2153193
134	0xbc3c439c	-0.011490729
135	0x3d9115cc	0.070842355
136	0xbf0c6063	-0.54834574
137	0xbc22f6ac	-0.0099465065
138	0xbcb34d29	-0.021887379
139	0xbe3db157	-0.18524681
140	0x3e981994	0.29707015
141	0x3dfd61df	0.12372183
142	0x3d09b190	0.033616602
143	0x3f04ff2b	0.51951855
144	0x3ee992b5	0.4561974
145	0xbf41efb9	-0.7575641
146	0x3f13942a	0.57647955
147	0xbe1feabd	-0.1561689
148	0xbfc4333b	-1.5328134
149	0x3d22617a	0.039643742
150	0xbf9cce20	-1.2250404
151	0x3d0f8db8	0.035047263
152	0x3eb3eec2	0.35143095
153	0xbe1b45a3	-0.15163283
154	0xbf9bc440	-1.2169266
155	0xbe8babea	-0.27279598
156	0xbe45fd35	-0.19334872
157	0x3e058ebe	0.13042733
158	0x3ed4c216	0.41554326
159	0xbe5495e8	-0.2076031
160	0xbf189f75	-0.5961831
161	0xbf4678ef	-0.7752828
162	0x3e221af7	0.15830599
163	0x3e31c71e	0.17361113
164	0x3d5fd6b3	0.054648113
165	0xbd97ac69	-0.074059315
166	0x3e8f3b18	0.27974772
167	0xbe8988c1	-0.26862147
168	0x3fe8980f	1.8171405
169	0x3c13e60c	0.009027015
170	0x3c300add	0.0107447775
171	0x3dfcf54c	0.12351474
172	0xbf12759c	-0.5721071
173	0x3d8d34e4	0.06894854
174	0xbc97524f	-0.018471865
175	0x3d8741af	0.06604325
176	0xbf3c3ef8	-0.7353358
177	0x3f63a2b2	0.8892013
178	0x3e818094	0.2529341
179	0xbfa7a776	-1.309798
180	0x3e554058	0.20825326
181	0x3d9bda0a	0.07609947
182	0xbeb8d13c	-0.36097133
183	0xbe483dbf	-0.19554804
184	0x3f2077bc	0.626827
185	0xbe62594c	-0.22104377
186	0x3e4252fd	0.1897697
187	0x3e31eb7b	0.17374985
188	0xb98d71b7	-0.0002697834
189	0x3dc4e784	0.096144706
190	0xbc40f8e7	-0.011778093
191	0xbe0e875b	-0.13918822
192	0xbd83593f	-0.06413507
193	0x3bd1c603	0.0064017787
194	0xbd5eda3d	-0.054407347
195	0xbea3ecda	-0.3201664
196	0x3f3f2083	0.74658984
197	0x3d0d4126	0.03448596
198	0xbe3ee265	-0.1864105
199	0x3e8c2934	0.27375185
200	0x3efbfaaf	0.49214694
201	0xbe479436	-0.19490132
202	0xbe10ea8a	-0.1415197
203	0xbda6a98b	-0.081378065
204	0x3e95d978	0.29267478
205	0x3e206798	0.15664518
206	0xbe813e3f	-0.25242803
207	0x3effe571	0.49979737
208	0x3dd1335c	0.10214874
209	0xbe98143b	-0.29702935
210	0x3f6a2adc	0.9147165
211	0xbe56f4b9	-0.20991792
212	0xc00c6718	-2.1937923
213	0xbeb2f51c	-0.3495263
214	0xbf242616	-0.64120615
215	0xbe21db34	-0.15806276
216	0x3e87232c	0.26394022
217	0xbe9d995b	-0.30781063
218	0xbf585cc0	-0.84516525
219	0xbe25e254	-0.16199619
220	0x3da292b0	0.07938135
221	0x3e0f93ca	0.14021221
222	0x3e94b761	0.29046157
223	0x3b95e99f	0.004574969
224	0xbe6e187b	-0.23251526
225	0xbe847214	-0.25868285
226	0xbdbeea0f	-0.09321987
227	0x3e5832ad	0.21113081
228	0xbb5c1701	-0.0033583047
229	0x3c7b6ade	0.015345303
230	0x3e8b7536	0.27237862
231	0xbf04f50b	-0.51936406
232	0x3fd5952a	1.6686146
233	0x3c7b529d	0.015339521
234	0x3e1ed085	0.15509231
235	0xbe97b01f	-0.29626557
236	0xbff49738	-1.9108648
237	0x3e4dabe8	0.20085108
238	0xbe562315	-0.2091182
239	0x3e12ff64	0.14355236
240	0xbf206185	-0.62648803
241	0x3ee10765	0.43950954
242	0x3e1a1f79	0.15051068
243	0xbfe1cbf7	-1.764037
244	0x3e0dec5a	0.13859692
245	0x3e9bfbd3	0.30465564
246	0xbed92da8	-0.42417645
247	0xbe4501b8	-0.19238937
248	0x3e5cb74e	0.215543
249	0xbeb11209	-0.34584072
250	0x3ddefaaa	0.10887654
251	0x3d8be46f	0.068306796
252	0xbda7534e	-0.08170186
253	0x3e6b4029	0.22973694
254	0x3ca8e7aa	0.020618279
255	0xbe93b9b6	-0.28852624

fc2.bias f4 [64]
0	0xbbb6bc8c	-0.0055766758
1	0xbdec42a0	-0.11536145
2	0xbc18905f	-0.0093117645
3	0xbc9e0f36	-0.019294363
4	0x3c2adddd	0.010428873
5	0xbe1fbfc0	-0.1560049
6	0xbde10793	-0.10987773
7	0xbe24b7b5	-0.16085704
8	0xbd1de624	-0.038549557
9	0xbe0188d2	-0.12649849
10	0x3c788e6b	0.015170674
11	0xbcc86519	-0.02446227
12	0xbc9d3fbf	-0.019195436
13	0xbe03d0f6	-0.12872681
14	0x3b403757	0.002932986
15	0xbd88a837	-0.066727094
16	0xbcac2dad	-0.021017874
17	0x3c6ab6aa	0.014325777
18	0xbe0a8228	-0.13526213
19	0x3dccbde6	0.09997158
20	0xb9f80910	-0.00047308998
21	0xbdd2465f	-0.102673285
22	0xbe3bc4e1	-0.18336822
23	0xbcf4de8d	-0.029891277
24	0xbe37a7f8	-0.17935169
25	0x3cb4a2d3	0.022050297
26	0x3d94e49e	0.07270168
27	0xbe44f5d2	-0.19234398
28	0xbc91b431	-0.017786117
29	0xbd12627e	-0.03573846
30	0xbd9b9ac3	-0.07597878
31	0xbd840fd5	-0.06448332
32	0xbbbf982d	-0.005846998
33	0xbde02732	-0.10944976
34	0xbdbf938b	-0.093543135
35	0x3a3ac427	0.0007124566
36	0x3bf5a903	0.0074969544
37	0x3c92b0ff	0.017906664
38	0xbd6700d1	-0.056397263
39	0xbd91dfd0	-0.07122767
40	0xbd826e50	-0.06368697
41	0xbe2bedea	-0.16789976
42	0xbd3f852d	-0.046757866
43	0xbd0ad097	-0.033890333
44	0xbdc3dd8b	-0.0956374
45	0xbdf0c6dc	-0.117566794
46	0xbcb32dcd	-0.021872425
47	0xbdb9f65a	-0.09080191
48	0x3a9b1c7d	0.0011834052
49	0xbe157343	-0.1459475
50	0xbdad1b99	-0.084525295
51	0x3dbb6dbb	0.09151789
52	0xbde29959	-0.11064405
53	0xbdfe84f2	-0.12427701
54	0xbc2d541f	-0.010579138
55	0xbe10cd22	-0.14140752
56	0xbd5c4808	-0.05377963
57	0xbd4f1b37	-0.050563063
58	0xbd8a39de	-0.067493185
59	0x3e272790	0.16323686
60	0x3d626815	0.05527504
61	0xbc91a6fb	-0.017779818
62	0xbe150125	-0.14551218
63	0xbe301cd7	-0.17198502

fc3.weight f4 [64, 64]
0	0xbf18098d	-0.59389573
1	0xbf70fea1	-0.9413853
2	0xbed05740	-0.40691566
3	0xbefe1d37	-0.49631664
4	0x3de1298c	0.109942526
5	0x3dc64bbf	0.09682416
6	0xbe0a96e7	-0.13534127
7	0xbe9c992b	-0.30585608
8	0xbe4278bf	-0.18991373
9	0xbf6cbd25	-0.9247611
10	0xbec8124a	-0.39076453
11	0xbdfbacaf	-0.12288796
12	0xbe98bbd4	-0.298308
13	0x3e241512	0.16023663
14	0xbf1e24b0	-0.6177473
15	0xbe7e6249	-0.2484218
16	0xbe8f52de	-0.2799291
17	0xbec21d24	-0.37912858
18	0xbe3b1b21	-0.18272068
19	0xbf0f28bd	-0.55921537
20	0xbf1a9389	-0.6038137
21	0x3e0c6d34	0.13713533
22	0x3cd759b9	0.0262879
23	0x3e52e7dc	0.2059626
24	0xbccfb788	-0.02535607
25	0xbede0c97	-0.4336898
26	0xbdf28693	-0.11842074
27	0x3d25276b	0.040320795
28	0xbee9e1c2	-0.45680052
29	0xbf14f68f	-0.5818872
30	0xbe778c2c	-0.24174565
31	0xbf8067d1	-1.0031682
32	0x3d365de8	0.04452315
33	0xbce7411c	-0.028229289
34	0xbd6fab93	-0.058513235
35	0xbed24415	-0.41067567
36	0x3fab2a5b	1.3372301
37	0xbeb99bb9	-0.3625162
38	0xbe52d01c	-0.205872
39	0xbe7a01b1	-0.24414708
40	0xbe82d352	-0.2555185
41	0x3c8ca7b6	0.017169815
42	0x3e1a000e	0.15039083
43	0xbeacdf06	-0.33763903
44	0xbd8cd594	-0.06876674
45	0x3ced4992	0.028965745
46	0x3e2352f9	0.1594962
47	0xbf232c2d	-0.6373928
48	0x3e299f3c	0.1656465
49	0x3e3eccb4	0.18632776
50	0x3d7ccbcf	0.061717805
51	0xbed67570	-0.41886473
52	0xbf67aa77	-0.90494484
53	0xbf83b6fd	-1.0290219
54	0xbe4f9c9b	-0.20274584
55	0x3e2359e3	0.15952258
56	0xbedac1c3	-0.42725953
57	0x3e60dfe4	0.21960407
58	0xbf1ebae4	-0.6200392
59	0xbf37d6b8	-0.7181201
60	0xbe877322	-0.26455027
61	0xbe2c3706	-0.16817865
62	0x3b779188	0.0037775952
63	0xbea96210	-0.33082628
64	0x3eb2457e	0.34818643
65	0x3f27a0df	0.65479845
66	0x3de2928b	0.11063107
67	0x3f135ae5	0.5756057
68	0x3f2806c4	0.65635324
69	0xbe86da13	-0.26338252
70	0x3ee4b032	0.44665676
71	0xbeb8e5d0	-0.36112833
72	0xbe696e43	-0.22795968
73	0x3f4e5a4f	0.8060655
74	0x3ee01a9e	0.43770307
75	0xbea71a1d	-0.3263711
76	0x3f09979f	0.5374698
77	0xbeb30c61	-0.34970382
78	0x3ee99f71	0.45629457
79	0x3f32aba5	0.6979316
80	0xbea50de3	-0.32237157
81	0x3f0622e0	0.52396965
82	0xbf4d5c0b	-0.8021857
83	0xbf7bf1ab	-0.9841563
84	0x3ea622b8	0.32448363
85	0xbe0a5b8c	-0.13511485
86	0xbe94b422	-0.2904368
87	0xbe7cd410	-0.2469027
88	0x3eab0927	0.3340542
89	0xbe6f2d42	-0.23357108
90	0x3f07cad1	0.5304385
91	0xbe492a4e	-0.19645044
92	0xbe7d3da5	-0.24730547
93	0x3ef415a9	0.47672775
94	0x3f13cc8a	0.57733977
95	0xbf54559b	-0.82943124
96	0x3ec69a3a	0.3878954
97	0xbe2692a6	-0.1626688
98	0xbe2b79db	-0.16745703
99	0x3f288d4d	0.6584061
100	0x3f273a6f	0.6532354
101	0xbd53782d	-0.05162828
102	0xbea34f3f	-0.31896397
103	0x3eb2b9c1	0.34907344
104	0xbebbd2ae	-0.36684173
105	0xbdae292a	-0.08503945
106	0xbedbac0f	-0.42904708
107	0xbf838c96	-1.0277278
108	0xbe7b728f	-0.2455542
109	0xbec13b26	-0.3774044
110	0xbe30990f	-0.17245887
111	0x3f2af5bb	0.66781205
112	0x3f474693	0.7784206
113	0xbea8e350	-0.32985926
114	0xbec2a523	-0.38016614
115	0x3dfaf069	0.12252886
116	0x3f4b6a44	0.79459023
117	0xbf396d1f	-0.7243213
118	0x3ed65ed4	0.41869223
119	0xbcf3f3ff	-0.029779432
120	0x3f040166	0.51564634
121	0xbe4af9b9	-0.19821824
122	0x3ef3a3d7	0.47585937
123	0x3eb844f9	0.35990122
124	0x3f55301b	0.8327653
125	0xbf4098d7	-0.75233215
126	0xbeb3aa27	-0.35090753
127	0xbe9a3eb4	-0.30125964
128	0x3e14c030	0.14526439
129	0x3e7b68f6	0.24551758
130	0x3d377cf3	0.044796895
131	0x3ecfb9ee	0.4057154
132	0x3ef25661	0.47331527
133	0xbf315f9b	-0.6928651
134	0x3e373187	0.17889987
135	0xbf317748	-0.69322634
136	0xbeede8c7	-0.46466658
137	0x3e9c43da	0.30520517
138	0xbc9455db	-0.018107345
139	0xbf129368	-0.57256174
140	0x3e71e2ad	0.23621626
141	0xbf0de98c	-0.5543449
142	0x3e6f6c48	0.2338115
143	0x3e9f4bce	0.31112522
144	0xbf2664a1	-0.649973
145	0x3e2a2b06	0.16617975
146	0xbf562157	-0.8364462
147	0xbf12b729	-0.5731073
148	0x3c77b161	0.015117974
149	0xbebb9f98	-0.36645198
150	0xbf0d6e9a	-0.5524689
151	0xbf173bb4	-0.59075475
152	0x3e50f4e5	0.2040592
153	0xbf433f5d	-0.7626856
154	0x3f158156	0.58400476
155	0xbf23de49	-0.64011055
156	0xbf03d701	-0.51499945
157	0xbc43b699	-0.01194539
158	0x3efca293	0.49342784
159	0xbe086d12	-0.13322857
160	0x3d493042	0.049118288
161	0xbf27a801	-0.6549073
162	0xbef9a16e	-0.48755974
163	0x3e0454d2	0.12922981
164	0x3e8ac2b1	0.27101663
165	0xbf04a9ae	-0.5182141
166	0xbf1a5487	-0.6028523
167	0x3e84f552	0.25968415
168	0xbef810de	-0.4845037
169	0xbf1a55ca	-0.60287154
170	0xbece2f9d	-0.402707
171	0xbf49b717	-0.78795
172	0xbf0b5496	-0.5442594
173	0xbf0a441f	-0.54010195
174	0xbeb465ed	-0.35234013
175	0x3e3f4d55	0.18681844
176	0x3ef66459	0.48123434
177	0xbf14116c	-0.57839084
178	0xbf156784	-0.5836108
179	0xbd058d94	-0.032605723
180	0x3ec08dcb	0.3760818
181	0xbd02847f	-0.03186464
182	0x3ee432f8	0.44570136
183	0xbebca9e5	-0.3684837
184	0x3ed085ff	0.4072723
185	0xbf31df9b	-0.6948182
186	0x3e72354a	0.2365314
187	0x3e273e5d	0.16332383
188	0x3eba4559	0.36381033
189	0xbf2cc149	-0.6748243
190	0xbf348f69	-0.70531327
191	0xbef1c1bd	-0.47218123
192	0xbe850790	-0.25982332
193	0xbf40f7c4	-0.7537806
194	0xbed439ca	-0.4145034
195	0xbeb20c06	-0.34774798
196	0xbe0ac7fd	-0.13552852
197	0x3e9a086d	0.30084553
198	0xbe2d528c	-0.1692602
199	0xbe86e482	-0.26346213
200	0xbe3fedce	-0.18743059
201	0xbf15ffb5	-0.585933
202	0xbdb745f7	-0.089488916
203	0xbe003d5b	-0.12523405
204	0xbebd6fdb	-0.369994
205	0xbe5392ba	-0.2066144
206	0xbea9317a	-0.3304556
207	0xbe40cc44	-0.18827921
208	0xbdf31dc3	-0.11870911
209	0x3bb5a398	0.0055431835
210	0xbf34d77c	-0.70641303
211	0xbf60bfba	-0.8779255
212	0xbe86ef75	-0.26354566
213	0xbedb1f71	-0.42797425
214	0xbd1f3ae9	-0.03887454
215	0xbd845ba4	-0.064627916
216	0xbe26f3c9	-0.16303934
217	0xbe57be4a	-0.21068683
218	0xbe8548b3	-0.26032028
219	0xbb94d4bc	-0.0045419615
220	0xbe4edb5b	-0.20200865
221	0xbebbd565	-0.36686245
222	0xbed7953b	-0.4210604
223	0xbf925554	-1.143229
224	0xbea0803a	-0.3134783
225	0xbe83f406	-0.25772113
226	0xbcaf6883	-0.02141214
227	0xbeca6482	-0.39529806
228	0x3edb923b	0.42885002
229	0xbe8ff0e2	-0.28113467
230	0xbed3622b	-0.41285834
231	0xbf10f20b	-0.5661933
232	0xbe08e223	-0.13367514
233	0x3d82e9ff	0.063922875
234	0xbe8dee6e	-0.2772097
235	0xbf7d910a	-0.9904944
236	0xbe58bc93	-0.21165685
237	0xbd79af81	-0.06095839
238	0xbe82877c	-0.2549399
239	0xbef27626	-0.47355765
240	0xbe5cf116	-0.21576342
241	0x3dae47cf	0.0850979
242	0xbef7f1a2	-0.4842654
243	0xbea3965c	-0.31950653
244	0xbf2fb7ca	-0.68639815
245	0xbf142cc9	-0.57880837
246	0xbef12868	-0.4710114
247	0xbe26997c	-0.16269487
248	0xbefc042f	-0.49221942
249	0x3e2ff2d0	0.1718247
250	0xbecb081c	-0.39654624
251	0xbf0e86c4	-0.55674386
252	0xbe5a7564	-0.21333843
253	0xbf492dc5	-0.78585464
254	0x3d10fb9a	0.035396196
255	0xbe9e21dd	-0.3088521

fc3.bias f4 [64]
0	0x3dd53298	0.104100406
1	0xbc84ac54	-0.016195454
2	0xbe4a8ef0	-0.19781089
3	0xbe1ce1d8	-0.15320528
4	0xbdd824f4	-0.10553923
5	0xbdf46acc	-0.119344324
6	0xbe30266f	-0.17202161
7	0xbd4ca769	-0.049964342
8	0xbdcbb7ee	-0.09947191
9	0xbdabe60c	-0.08393487
10	0xbe0c0d67	-0.13676988
11	0x3d333333	0.04375
12	0xbdaf390d	-0.085558034
13	0xbe32432a	-0.17408434
14	0xbe85efc6	-0.26159495
15	0xbc8a0249	-0.016846793
16	0x3e7cfd4e	0.24706003
17	0xbdba816d	-0.09106717
18	0x3e3c9ba4	0.18418747
19	0x3e0764dd	0.1322207
20	0x3ba76282	0.0051081786
21	0x3e0e8b10	0.13920236
22	0x3d3e7421	0.046497468
23	0xbe630897	-0.22171246
24	0xbc5bb504	-0.013409857
25	0x3d0b4108	0.033997566
26	0x3d5b5474	0.053547338
27	0xbde9c19c	-0.11413881
28	0xbe6bb8c2	-0.23019698
29	0xbe9433c7	-0.28945753
30	0x3e0af941	0.13571645
31	0xbdfd5ac5	-0.123708285
32	0xbcd8c5e8	-0.026461557
33	0x3deec74c	0.116591066
34	0x3d4d0c1d	0.05006038
35	0xbde47a07	-0.11156087
36	0xbe4c06dd	-0.19924493
37	0xbe5f58b8	-0.21811187
38	0xbe328e4c	-0.17437094
39	0x3e5e3c39	0.2170266
40	0xbd3a2eb4	-0.045454696
41	0xbe590f17	-0.21197163
42	0xbe744f41	-0.23858358
43	0xbd034b7d	-0.032054413
44	0xbe51c74f	-0.20486186
45	0xbe1f1504	-0.1553536
46	0xbea6c3f8	-0.32571387
47	0xbe76dfbd	-0.24108787
48	0x3d794211	0.06085402
49	0xbe11e698	-0.14248121
50	0x3da261ed	0.07928834
51	0xbe2e3651	-0.17012908
52	0x3e0acf8f	0.1355574
53	0x3e0ca5f3	0.1373518
54	0x3e0f919b	0.14020388
55	0xbe8aa720	-0.2708063
56	0xbe2be9a1	-0.16788341
57	0xbe6a4c03	-0.22880559
58	0x3e638525	0.2221876
59	0x3e331cfe	0.17491528
60	0x3cb7c142	0.02243102
61	0x3db56080	0.088562965
62	0xbe496205	-0.19666298
63	0xbda8d04f	-0.08242857

out.weight f4 [2, 64]
0	0x3d931cf5	0.071832575
1	0x3e6a1ceb	0.22862594
2	0xbe9df552	-0.30851227
3	0x3f280fbc	0.6564901
4	0xbedc24cd	-0.42996827
5	0xbeaed1bf	-0.341444
6	0xbe9a20b5	-0.30103078
7	0x3e18d3ca	0.14924541
8	0x3ddd7810	0.10813916
9	0x3f3024ed	0.68806344
10	0x3ee53ba4	0.44772065
11	0x3e6ab997	0.2292236
12	0x3f1ad1ee	0.6047658
13	0x3eee8f38	0.46593642
14	0xbebd31c4	-0.3695203
15	0xbf2e1e8a	-0.6801535
16	0x3e06810d	0.13135166
17	0x3e4f81b9	0.20264329
18	0x3e7cd15e	0.24689242
19	0x3e15b884	0.14621168
20	0x3f38ec40	0.7223549
21	0x3f3b6aaf	0.7320966
22	0x3ee83cb4	0.45358813
23	0xbedc7f6a	-0.4306596
24	0x3ed13879	0.40863398
25	0x3ec68cd8	0.3877933
26	0x3e4fb93a	0.20285502
27	0xbeaed385	-0.34145752
28	0xbeac2693	-0.3362318
29	0xbe4fc639	-0.2029046
30	0x3f20370e	0.62584007
31	0xbea32b9a	-0.31869203
32	0xbcbffa39	-0.023434745
33	0x3e1607d7	0.14651428
34	0x3dd7baa4	0.10533646
35	0x3f2afa1b	0.6678788
36	0xbe65e98c	-0.22452372
37	0xbed80daf	-0.4219794
38	0x3ec50f56	0.38488263
39	0xbd0083ac	-0.031375572
40	0x3ea56d02	0.3230973
41	0xbecf5339	-0.4049318
42	0xbe1696ff	-0.14706038
43	0x3f1c16e1	0.6097241
44	0x3eb49c60	0.35275555
45	0x3e01e57e	0.126852
46	0xbeca0f59	-0.39464834
47	0x3e954e95	0.29161516
48	0xbf98e5bf	-1.1945113
49	0xbee56582	-0.44804007
50	0x3f91626d	1.1358162
51	0xbf077236	-0.5290865
52	0x3e1e9620	0.15486956
53	0x3dff2cbd	0.12459705
54	0x3ddbec54	0.107384354
55	0xbec26a8c	-0.37971914
56	0x3eda9a31	0.42695764
57	0x3e27c609	0.16384138
58	0x3c855016	0.01627354
59	0x3f309965	0.6898406
60	0xbe3954ef	-0.18098806
61	0xbf580666	-0.84384763
62	0xbde50e3c	-0.111843556
63	0x3e46bf98	0.19409025
64	0xbf19ca6e	-0.6007451
65	0xbf135af6	-0.5756067
66	0xbe5edc55	-0.21763737
67	0xbe39ae99	-0.1813301
68	0x3e4e07c9	0.20120157
69	0x3e71d234	0.23615342
70	0xbf0d908a	-0.55298674
71	0xbeef0da3	-0.46690091
72	0xbf088b0b	-0.5333716
73	0x39e7492d	0.00044114274
74	0xbe8f6841	-0.28009227
75	0xbed08049	-0.40722874
76	0x3d402908	0.04691413
77	0xbea646f1	-0.32476
78	0xbef39fdb	-0.47582898
79	0x3ea75d5a	0.3268841
80	0x3e707feb	0.23486297
81	0x3da75b15	0.081716694
82	0x3e52c3d7	0.2058252
83	0xbf2cd86f	-0.6751775
84	0x3bd94d36	0.0066315187
85	0xbe5e33ed	-0.21699496
86	0xbed306b4	-0.41216052
87	0xbf0d290b	-0.5514075
88	0xbeb01197	-0.3438842
89	0xbed52abe	-0.41634172
90	0x3f1a85d1	0.6036044
91	0xbf053dc2	-0.5204736
92	0xbf233475	-0.6375192
93	0xbf130ea7	-0.5744423
94	0xbe872c31	-0.26400903
95	0xbf3c86d4	-0.7364323
96	0x3e289b4c	0.16465491
97	0xbf18dd0f	-0.5971231
98	0xbee9afca	-0.4564193
99	0xbdba98d5	-0.09111182
100	0xbf0f1b2a	-0.55900824
101	0xbb209cc1	-0.0024507495
102	0xbecef6c4	-0.40422642
103	0x3ea0e0d4	0.3142153
104	0xbeefbb08	-0.4682238
105	0xbf01be6a	-0.50681174
106	0xbf0057a7	-0.50133747
107	0xbdfdc0e7	-0.12390309
108	0xbeaddf0c	-0.33959234
109	0xbf12390d	-0.571183
110	0xbea34a3a	-0.31892568
111	0x3d8df629	0.06931717
112	0x3f2689ac	0.6505382
113	0xbe7e8d06	-0.24858484
114	0xbd7d5223	-0.06184591
115	0x3dee6913	0.11641135
116	0xbf08e59a	-0.53475344
117	0x3e7c5dbb	0.2464513
118	0x3e6e0d32	0.23247221
119	0xbf0d6eec	-0.5524738
120	0xbe846640	-0.2585926
121	0xbf0bf334	-0.54667974
122	0x3e54d23d	0.20783325
123	0xbe9eb134	-0.3099457
124	0x3e80915d	0.25110903
125	0x3eeba83b	0.46026787
126	0xbed1d43c	-0.40982234
127	0xbecfba2e	-0.4057173

out.bias f4 [2]
0	0xbe4320c9	-0.19055475
1	0x3dce1247	0.1006208
